models/var-info-max/empowerment_5_steps/CrossRoom-v0_decoder.pth (torch_old, 435450 bytes, 6 tensors)

model.0.weight f4 [32, 136]
00000000: f784 51bf 4583 2ebf 34f7 38bf 95a1 30bf
00000010: 05b7 0abf 7aaf 0dbf d1e7 e0be 7f5d 07bf
00000020: 96eb a3be 2ca0 abbe 9568 9dbe 1b11 afbe
00000030: 2dd5 9dbe 839c 80be 873b 71be c262 49be
00000040: 679d bdbe 7f41 14be 6133 74be 5552 6ebe
00000050: 15f6 4d3d c96a 6b3e a5c1 913e 1295 053e
00000060: e3fe 7ebd 5c21 9abe 7106 a3bd e017 a73e
00000070: 28ae c03e 022c d33e d99f eb3e 2d26 0b3f
00000080: e0bb 903e e330 0d3e ebb0 b8be 9685 59be
00000090: d2a7 f6bd 1507 5abe 9cfb bc3d a681 7c3e
000000a0: 706d cb3e a4f2 893e 7dad 8e3c ba79 e0bd
000000b0: 95ac 593e 6353 d93e 3bdf f13e b33a 083f
000000c0: 0836 0d3f 4504 1b3f 3ad1 173f 7789 353e
000000d0: 1c3f 5e3e 272a 173e 4d05 923e 17b3 9b3e
000000e0: 9a36 013e 223e 3f3d 5be2 823e 56d4 033e
000000f0: 9664 b93e c4dc d23d 5c8d 533d 2451 1f3d
00000100: bd5c 993e 1450 d13e 1173 473f fc3f 543f
00000110: a248 673f b21b 123f bbd7 c13e 8704 f83e
00000120: d853 b73e cb44 cd3e d1c1 bd3e 2b0a 7d3e
00000130: 2469 fd3e 42c6 083e 0abc d13e c04e 8fbc
00000140: a476 153e 533b 223e b518 ef3d dd91 863e
00000150: fc4c 503f b0e0 1b3f 9da3 1d3f 2469 1c3f
00000160: c9c6 153f 41a0 f63e 4a1f f83e 62e0 903e
00000170: fca1 2e3d e874 903e eb79 223e d417 fc3d
00000180: 703e 673e 0a01 113d b0ea 76bb 8af3 4d3d
00000190: 1376 6cbe abb7 a3be 9633 7c3e 5c2a 3ebd
000001a0: e01e 243e a3f1 413e 0894 6a3e f103 8f3d
000001b0: 6745 243d 5d5d edbe 731f 543e c1e8 46bf
000001c0: fec7 1abf a8e4 93be 478b f6bd 1983 81be
000001d0: aa94 88be 8a81 42bf 5e2f eebe e7cc 0fbf
000001e0: 895e febb d8aa 62bd 20ab 22be dbb6 01bd
000001f0: 9c59 12bf 81fe 78be 0d4f c8be 3435 bfbe
00000200: b239 ebbe 796f 2abf b45f 08bf 3b34 d6be
00000210: 34d3 e1be 1990 55be f3ad 89bf ac12 3dbf
00000220: 31bf 353f c1b2 3b3f c71e 133f 090e 233f
00000230: d273 ec3d 6411 2a3e 6d9e 4abe 42c8 67be
00000240: 1bf3 373e 0831 0a3e 1cf9 a73e 04cc 663e
00000250: 2b4a 323f 2142 2f3f 3aae db3e aff3 0d3f
00000260: b643 dcbd 6e65 b33d 5122 2f3d 96ea 0dbd
00000270: be52 273e 619b 223e 44ce 403e 8263 8c3e
00000280: 463c a53e 5c61 ad3e f064 a43e d85d 4c3e
00000290: 80b6 2e3e b92b 533e 321f 7a3e 3a06 c03e
000002a0: 0006 2a3e 93e6 7c3b 1c27 8cbe 153c c63b
000002b0: c5d0 563d 9085 223c 2d37 243d a2ec ad3d
000002c0: b67b 22bc 354b fb3d fda5 c43d 9941 103e
000002d0: 0a02 0b3d fe43 fdbc e9d4 7a3d 1919 cb3d
000002e0: 151b 863d 459f a83d 2623 273e 933e 78bd
000002f0: 6076 f8be 198e bfbe d5cd c3be 84e7 abbe
00000300: c390 d1be 2b80 dcbe ddf1 bebe 8e1a 95be
00000310: 25a3 78be 5142 81be 8901 cebe 9b16 b5be
00000320: 8c67 3bbf 723a 3abf 359b 70bf 7986 62bf
00000330: 4483 2ebf 13e8 7fbf e815 e8be c3bd 1cbf
00000340: 55a1 2fbe 00a1 02be 72c1 e3be 0280 c4be
00000350: c665 3abf b4b7 0ebf f3f6 88bf ecb8 89bf
00000360: 888e 44bf c7a2 69bf c8ab a43d 3f3e 0dbe
00000370: 3d3a 23bd e94c 17be 1972 0d3e d90b 9d3d
00000380: 13a0 0a3e 46c0 893e 7859 773e 241f 9b3e
00000390: d2cd e03e 8ce0 1a3e 254b 673e 4eb6 193e
000003a0: ec6a dfbb e75c 9e3d d55a c2bd d038 0a3e
000003b0: 5c40 643d bb5d 66be f0eb 0e3e 980a 0c3e
000003c0: 34cc 213e e97b 883e 4e11 713e d84d 483e
000003d0: c931 4b3e 5dc7 7bbd 7554 0e3e 0ae5 bd3e
000003e0: 4824 e53d 6c2b 503e d19e 2e3e 8952 e73d
000003f0: f45f a83d 1dcf 663d 1eae 683d 9f10 31be
-0.81843513 -0.6816905 -0.722522 -0.68996555 -0.54185516 -0.5534588 -0.43926862 -0.5287704
-0.32015675 -0.3352064 -0.30743852 -0.34192738 -0.30826703 -0.2511941 -0.23557864 -0.1966658
-0.3703415 -0.1447811 -0.23847724 -0.23273595 0.05028351 0.22989954 0.28468052 0.13045147
-0.062254798 -0.30103576 -0.07960213 0.32635403 0.3763287 0.41244513 0.46020392 0.54355127
0.28268337 0.1378818 -0.36072478 -0.21242365 -0.12043728 -0.21291764 0.09227678 0.24658832
0.39731932 0.26942933 0.01741671 -0.109607175 0.21257241 0.42446432 0.47240624 0.5321457
0.5516057 0.6055339 0.5930363 0.1772822 0.21703762 0.14762174 0.2851967 0.30410072
0.12618485 0.046690114 0.2556332 0.12873968 0.36209553 0.10296014 0.051648483 0.03889574
0.29953566 0.40881407 0.7790995 0.8291013 0.90345204 0.5707351 0.37859902 0.48440954
0.35806155 0.40091547 0.37061933 0.2471091 0.49494278 0.1335688 0.40963775 -0.017493606
0.14596039 0.15842943 0.11674634 0.2628316 0.8136747 0.6088972 0.6157778 0.6109793
0.5850645 0.4816914 0.48461372 0.2829619 0.04263495 0.28214192 0.1586682 0.12309232
0.22582412 0.03540138 -0.0037676506 0.050281085 -0.23091917 -0.31976065 0.24629053 -0.046427116
0.16027403 0.18939833 0.22908032 0.06983174 0.04010525 -0.46360293 0.20715122 -0.77698904
-0.60461414 -0.28885388 -0.12038284 -0.25295332 -0.26675922 -0.7597891 -0.46520513 -0.5617203
-0.0077627343 -0.05533871 -0.15885592 -0.031668525 -0.57167983 -0.24315836 -0.3912281 -0.37345278
-0.45942456 -0.66576344 -0.5327103 -0.41836724 -0.44106448 -0.2085575 -1.075621 -0.73856616
0.7099486 0.7331963 0.5746884 0.6369329 0.115455285 0.16608196 -0.19786997 -0.22634986
0.17963831 0.13495266 0.32807243 0.22538763 0.6964442 0.6846028 0.42906362 0.55449957
-0.10755102 0.087595806 0.042757336 -0.034647547 0.16340157 0.15879585 0.18828684 0.27419668
0.32272547 0.33863342 0.3210826 0.19957674 0.17061806 0.20622148 0.24425963 0.3750475
0.16603851 0.0038589581 -0.27373588 0.006049643 0.052445192 0.009919539 0.040091682 0.084924
-0.00991719 0.12270204 0.09601972 0.14087524 0.03393749 -0.03091621 0.061238203 0.099168964
0.06548134 0.08233503 0.16322002 -0.06060655 -0.48527813 -0.374131 -0.38242975 -0.3357507
-0.40930757 -0.43066534 -0.37293902 -0.29121822 -0.24280985 -0.25245908 -0.40235546 -0.3536881
-0.73204875 -0.7274543 -0.9398683 -0.8848644 -0.68169045 -0.9996349 -0.45329213 -0.61227053
-0.17151387 -0.12756729 -0.44483525 -0.38378912 -0.72811544 -0.5574906 -1.0700363 -1.0759559
-0.76779985 -0.91264004 0.08040577 -0.13793276 -0.039850462 -0.14775433 0.13813056 0.076682754
0.13537626 0.26904505 0.24155223 0.30297196 0.43907028 0.1512472 0.22587259 0.1501095
-0.006818166 0.077325635 -0.09489981 0.13498235 0.05572544 -0.22496693 0.1395719 0.13675916
0.15800554 0.26657036 0.23541757 0.19560945 0.1984321 -0.061469425 0.13899405 0.37088805
0.11188561 0.20329064 0.17052771 0.11295039 0.082214266 0.056349862 0.056806676 -0.17291497

model.0.bias f4 [32]
00000000: 00ab 9f3e f932 b73e d558 e93e 07be 923e
00000010: 50e7 7b3e 14c3 e73e c3fd cd3e d787 e23e
00000020: 4d5e a03e 7608 9d3e 1e2d 823e 8a3b d33e
00000030: 64a4 953e 6cc9 2a3e ed2e 953e 1e08 f53e
00000040: fb3a 813e 56b8 ec3e 39c6 b33e a9c3 f83e
00000050: 8bb0 8b3e c25b 993e 7893 ab3e 56cc 763e
00000060: acc2 883e 7254 a73e d703 f93e 17a9 a63e
00000070: 59fe e63e 1e7b 883e bcea d83e 9747 883e
0.3118515 0.35781077 0.45575586 0.28660604 0.24599957 0.4526602 0.40232667 0.44244263
0.31321946 0.30670518 0.25425047 0.41256362 0.29226983 0.16678399 0.29137364 0.47857755
0.2524031 0.46234387 0.3511217 0.48586777 0.2728313 0.29952818 0.33510947 0.24101385
0.26711023 0.32681614 0.48635742 0.3255088 0.45115927 0.2665643 0.42366588 0.2661712

model.2.weight f4 [32, 32]
00000000: 4670 503e 6bab 3e3f b4a3 373e dd3b abbf
00000010: 0e30 2fbf 9679 a23f e759 8dbd ffa6 653f
00000020: b679 483d ea64 013f 1a4d 59bf b94f 493f
00000030: df7c 503f d3fa 67be f275 b03f b411 ccbf
00000040: 7c13 fd3f 7c04 0ec0 b6a9 1440 651f 143f
00000050: d027 40bf f296 ee3f 2a7f 9fbf 42fe 4dbf
00000060: a5de b03f 5b64 e1bf 8aa9 89bf de9d d63f
00000070: cd60 733f 6b73 db3f 7348 17bf 5947 bbbf
00000080: ff3d b43e 114a 833f 7030 babf c4fe 003f
00000090: 2ef6 903f deea 91be 73a7 0e3e 654b 183f
000000a0: 4a07 d83e f5ec 5cbe 7f0b ad3f 080e 2a3f
000000b0: 949b 90bf bd28 e33e 55ae 60bf 016c 4c3f
000000c0: 3357 bfbe f160 f93e d7d2 66bf 6345 7f3f
000000d0: e06a c8be d9b5 26bf 92c1 cd3f a660 45bd
000000e0: 7cdf 4bbf 6d2f be3e fa76 8e3e edb4 fabe
000000f0: 1b88 84bf ab41 a6be 57d5 9c3d d801 9e3f
00000100: 0562 b83f eded 87be 2745 79be 8e7c 57bf
00000110: a716 82be 98b0 1a3f cca6 843f 6d12 143e
00000120: f6f9 48bf 53a4 9ebf 6ca6 f6be 2e43 5a3e
00000130: 2f32 2c3f 04c0 bebf f65d 6ebf acef 413f
00000140: bb66 c0bf 03c3 6b3f 2e5a 9fbf a40d 5a3f
00000150: e00f 753f cb77 a1be 9dbe 673f 6290 f63f
00000160: af9e 913e f8b0 8c3f 97cd 4e3e 780b a93e
00000170: a3f0 95bf d184 c9bf 1701 9abe f26e 7a3f
00000180: 011c a63e 4c5e a9be b261 aa3e a648 8ebe
00000190: b3e5 8e3d a83b 88be 1958 503f f638 4fbc
000001a0: 9fa8 8ebf 1b86 56bf f41c 9d3d b440 60bf
000001b0: c73b e0be 1ee7 93be 239a 47bf 1443 4a3f
000001c0: 71df db3e d4ef 92be df69 7a3f 91fc 28bf
000001d0: dbf2 463f fbc0 25bf cefc a93e 0f8d 513e
000001e0: e3e8 743f 40f5 293f b7e8 b8be 4f7a 25bf
000001f0: 294e 053f 7fb4 ecbe b417 bdbd 4452 7c3f
00000200: f48c cebc 1508 4d3f 280f c5bf 79a6 0a3f
00000210: c5dc 9c3f 6127 3cbf 0298 acbd a938 513f
00000220: 24a3 25bd c4dd 15bf 0d61 c33f fcb9 6a3f
00000230: 67a3 91bf e7c0 6d3f f649 23bf 0799 c23f
00000240: 3739 5abf 6b86 993f 0161 a0bf 3b16 ed3e
00000250: d74e e5be 1cf7 adbf fc8d ca3f 366b 053e
00000260: 1d14 46bf 7992 6b3f aafd 0b3f c101 6abf
00000270: 2d72 69bf 4246 d23c 22d2 223f 8ece be3f
00000280: 6b4f 6a3f d379 16be b9cf 1fbe 365d 91be
00000290: aebf 8c3e 76eb 3abe 285d 1e3f dcb0 213e
000002a0: fd77 5bbf 02b5 fbbe d5da 503e c790 afbe
000002b0: e259 52be 52f0 95bd 2272 53bf fb98 ebbd
000002c0: 37b3 8abf 1995 703e 20b9 c73e d525 0b3e
000002d0: 2147 59be 02d3 adbd 27b7 4c3f 636e 163e
000002e0: 7465 ccbf 339b af3e e365 853e 3e12 86bf
000002f0: 0391 08be ff96 2bc0 7456 bf3d 3dce ac3e
00000300: 89ba 5b3f 318d 81bf 5712 c63f 542c 92bf
00000310: 43ef 64bf b909 a03e 5134 793f e106 7ebe
00000320: cc45 88bf 04cc 71bf c22b 62bf 3bfe 35bf
00000330: 68ca a83f e088 e2be 16cf 13bf f743 b2bd
00000340: 89b3 2abf 6f84 6b3f 8d52 1e3e 2aca 863e
00000350: abef b53f 03ea c03e aafd 3cbf 995a 7a3f
00000360: 9d38 b93f 5e6a 363f 9777 be3e 908c 803f
00000370: 2ae9 c33e 0092 33bf 179e 60be 057b d5be
00000380: c49c 903d e29a 31be d225 ed3d 30a5 27be
00000390: d8c9 723d ab70 babd 50aa bbbd 700c 253c
000003a0: 641e 08be 608c c1bb b00a 08bc 5be2 8ebd
000003b0: 7215 fc3d 6ef2 c23d 402f 8e3b 112c 30be
000003c0: eac7 d2bd d1d5 0dbe 18c6 cdbc ed93 323e
000003d0: 9bf9 87bd f804 563d 3ee8 1dbe 4d53 14be
000003e0: 6e4d 18be c9e4 06be 6421 4ebd 165b d33d
000003f0: 1fd9 83bd 60e6 013d 8078 0d3c 88db eebd
0.20355329 0.74480313 0.17933542 -1.3377644 -0.684327 1.2693355 -0.06901913 0.8970794
0.048944198 0.5054461 -0.8488327 0.7863727 0.8144054 -0.22654276 1.3785994 -1.5942903
1.9771571 -2.2190237 2.3228583 0.57860404 -0.7506075 1.8639815 -1.2460682 -0.8046609
1.3817946 -1.7608751 -1.0754864 1.6766927 0.9506958 1.7144598 -0.59094924 -1.4631149
0.3520355 1.0256978 -1.4546032 0.5038874 1.1325128 -0.28499502 0.13931064 0.5949004
0.4219306 -0.21574767 1.3519133 0.6642766 -1.1297479 0.44367018 -0.8776601 0.798523
-0.37371215 0.48706773 -0.90165466 0.9971525 -0.3914404 -0.6512123 1.6074698 -0.048187874
-0.79637885 0.37145558 0.27825147 -0.4896616 -1.0354036 -0.32471976 0.07657879 1.2344313
1.4404913 -0.2654871 -0.24342786 -0.8417443 -0.25407907 0.6042571 1.0363402 0.14460154
-0.7850641 -1.2393898 -0.48173845 0.2131469 0.67264074 -1.4902349 -0.93112123 0.75756335
-1.5031351 0.9209444 -1.2449396 0.85177064 0.9572735 -0.31536707 0.9052523 1.9262812
0.28441378 1.0991507 0.20195614 0.33016562 -1.1714061 -1.5743657 -0.30078956 0.9782554
0.3244324 -0.33079755 0.3327766 -0.277898 0.069774054 -0.26608014 0.81384426 -0.012647858
-1.1145209 -0.8379838 0.07671538 -0.8759873 -0.43795606 -0.28887266 -0.7796957 0.79008603
0.4294391 -0.286986 0.97817796 -0.66010386 0.7771432 -0.6474759 0.33200687 0.20463966
0.95667857 0.66389847 -0.36115047 -0.64639753 0.5207239 -0.46231458 -0.09233037 0.9856303
-0.025213696 0.8009046 -1.539525 0.5416027 1.2254874 -0.7349759 -0.08427431 0.8172708
-0.040438786 -0.5854151 1.5263993 0.9169004 -1.1377991 0.9287247 -0.6378473 1.520295
-0.8524355 1.1994146 -1.2529603 0.46306023 -0.44786713 -1.3591037 1.582458 0.13029179
-0.7737444 0.92020375 0.54683936 -0.91408926 -0.91189843 0.025668267 0.6360189 1.4906785
0.9152743 -0.1469491 -0.15606584 -0.28391427 0.2748999 -0.18253884 0.61860895 0.15790123
-0.8572996 -0.49161536 0.20395978 -0.34290144 -0.205421 -0.07321228 -0.8259603 -0.11503788
-1.0835942 0.23494376 0.39008427 0.1358865 -0.2121854 -0.08487512 0.7996697 0.14690547
-1.5968461 0.34298095 0.26054296 -1.0474317 -0.13336568 -2.681091 0.093426615 0.33751097
0.85831505 -1.0121213 1.5474347 -1.1419778 -0.89427584 0.31257418 0.97345454 -0.24807312
-1.06463 -0.9445193 -0.8834802 -0.7109105 1.318677 -0.44245052 -0.57737863 -0.087043695
-0.666802 0.9199895 0.15461178 0.26326114 1.4213766 0.37678537 -0.7382456 0.9779449
1.4470402 0.71256053 0.37200615 1.0042896 0.38263828 -0.70144653 -0.21935306 -0.4169542
0.07061151 -0.1734424 0.11579479 -0.16371608 0.059274524 -0.09103521 -0.09163344 0.010073766
-0.13292843 -0.0059066266 -0.008303329 -0.06976768 0.12308778 0.09518896 0.0043391287 -0.1720431
-0.10292037 -0.13851096 -0.025118873 0.17439242 -0.06639405 0.052250832 -0.15420625 -0.14484902
-0.14873287 -0.13173212 -0.050324813 0.10320108 -0.06437897 0.031713843 0.0086346865 -0.11662966

model.2.bias f4 [32]
00000000: 939c cf3d 2e7e ee3d 2732 383e 6167 c83d
00000010: 7495 943e 6422 cebd 5826 29bd d147 c8bd
00000020: 2c6f 213e 836b c33d 8070 7c3d 360f 5b3c
00000030: b6b7 023e 2d21 87ba 6dbd 2bbe 2b09 743e
00000040: 2de6 373e 5af5 3dbd d3ae 59be 72e4 133e
00000050: aaa0 193e 0737 603d 5681 943d 8058 1b3e
00000060: e2a7 0d3e c2f1 20be ed7a 513e 0070 8bbe
00000070: 1840 1f3e 40e6 913d 899b c13d 4562 ea3b
0.10137286 0.116451606 0.17987882 0.09785343 0.29020274 -0.10065153 -0.041296333 -0.09779323
0.15765065 0.095419906 0.061630726 0.013370326 0.12765393 -0.001030957 -0.16771479 0.23831622
0.17958899 -0.046376564 -0.21258096 0.14442614 0.15002695 0.05473998 0.07251231 0.15170479
0.13833573 -0.15717223 0.20457049 -0.27233887 0.15551794 0.07123995 0.09453494 0.007152828

model.4.weight f4 [3125, 32]
00000000: e2e9 00bd d640 44bf f807 883e dd50 acbe
00000010: 2f08 96bf ce30 1cc0 6030 7b3e 5a3a ee3d
00000020: 0b34 03bf 9a9d da3d 612c 8dbd a23a 66be
00000030: 6fa5 75bf a192 9ebf 9d65 3ac0 eca4 203f
00000040: 5bc2 a5bd f893 6f3c 0422 d3bf 58a2 293e
00000050: 9296 eabd fe68 99bd 1b1d 10be 48c1 c23e
00000060: be65 63bf 0294 1cbe d015 abbc 4ae6 24bf
00000070: a879 2ebf d177 09bf 4e26 89be 74ca 93bf
00000080: ef82 75bf b139 9c3d 33c1 b73d 9ba5 6c3d
00000090: 14a8 e7be d328 b4bf 016b 1fbe 27f9 0d3e
000000a0: 4d5b 8e3e 2bc3 8c3c d641 bdbe 097a 3ebe
000000b0: 0322 35bf 03f5 72be f541 dbbf 61d9 87be
000000c0: 7752 97bd 7549 793d 4c20 bebf beba 65be
000000d0: 35f6 a1be 16cf acbd f8ff 8abe 88b6 4a3e
000000e0: 3212 343f d217 13be cb72 e03e 026a 85bf
000000f0: 7964 33bf 0a10 d4be 7549 c53e 1016 d2bf
00000100: 69f5 be3d a869 b9bf 0477 033f 8413 41bf
00000110: 8d29 30c0 6149 a1bf 6106 843e 9064 d9bc
00000120: 495f 3abe 4ad9 46be d173 cabe de50 8fbe
00000130: e9e7 e5be 5d1f 88bf f491 3bc0 c7ec 0c3f
00000140: 4667 903c f977 8ebd 57e5 d0bf 9315 a83d
00000150: cfe6 fabe 240e 563d 47e4 a9be 9542 b43e
00000160: b887 87be 7b30 263b d34f fbbc 3308 a7bf
00000170: 712d 9dbf 106c 53bf 20b3 81be 4001 31bf
00000180: 10a7 c0be f2a8 2cbf a7e0 9d3e 7bc9 39bc
00000190: 36f0 4cbf 3a78 f7bf 6711 d4bd f2f1 8c3d
000001a0: 1223 7fbf c82d 22be 8eaf 07bd 2b37 43be
000001b0: d657 8abf 95fb 98bf 15a4 22c0 4cde 013f
000001c0: 9199 efbe 7866 733e c2fa f5c0 3ee8 ac3e
000001d0: 4edc 403e 7b13 8d3d 9c77 0ebf 45f4 a43d
000001e0: 2a12 d3bd 7a0b 39be 468c 5d3d 6852 b1bf
000001f0: df15 8ebe 613d f3bd a2e6 2b3e a3b6 34bf
00000200: 2c0f 20be 7959 34bf 4de7 9e3e 1cf4 20be
00000210: 8d80 97bf edc6 3cc0 95bd 7c3c 625c 9e3d
00000220: 72f9 f4be 24df 8dbd f5db abbe 852a 8a3c
00000230: 2f7e 72bf 0ae3 94bf c197 26c0 bd3a c33e
00000240: 645d a03d 49c1 933b f391 f0bf 4f86 893e
00000250: 35e2 96be 8018 e63d bbdb f2be 3628 d93d
00000260: 5262 38bf cb21 07be 7eaf ecbb f715 6abf
00000270: 1fa3 e6be 2fa6 bbbe f49c e1be d9c7 1abf
00000280: a332 48be deee e0be f238 5e3e 0e54 d8be
00000290: 19c4 32bf b2e0 babf 8978 053d 8a02 16be
000002a0: 2c94 c2be 88e5 3abe 5697 a5bf 8e63 bebe
000002b0: 608d 2fbf 81d6 6abf 0a42 4ac0 eeac 5f3d
000002c0: 0486 a1bd 7cd2 3f3e 4d7a 26c0 a6df 983e
000002d0: b53c 08bf 73b6 63bd c6ab 30bf 862c a53c
000002e0: 0316 3bbf 1807 023c b998 133e 2f1a d2bf
000002f0: fdd8 0abf adcf d53c 21ab 9fbe 3789 39bf
00000300: f141 1cbf e889 68be 4457 93be 5d2f c1be
00000310: e5c6 50be cbd7 fdbe c983 abbe 0048 b038
00000320: cae9 82bc b9f1 46be 6d5e f1bf ad9f 80be
00000330: 68c2 2abe dfe5 c5be 22b7 bebe 4b5e 69bf
00000340: 510c 27be cca1 87bd fcd4 14bf 6687 76be
00000350: 53a4 d93d 9b47 96be 5f58 a3be e668 99bc
00000360: 985b 8d3e e67c eebd a38c b83e 2318 0cbf
00000370: 7bfb d0be 2adf 88be 92ea ec3c 48f0 4fbf
00000380: ac5a 11be c7b1 ce3e ac88 fd3e 342e c8be
00000390: f2db 403d aaab 8ebf 81ac 6cbd f71f 063e
000003a0: a45f 4dbb 53ca 55be c5d1 56bf d03d fabe
000003b0: 1805 abbe a635 99be f5fe 8bbf e3bd 66c0
000003c0: 33b3 0bbd 146d b9bd f886 05bf 3aa9 d9bd
000003d0: d5bc 253e c8e9 a039 7c59 1bbf 3bc5 583e
000003e0: 8255 9a3e 51f4 93bd 3763 8d3e b168 c2bf
000003f0: c772 b6bf 91c3 a7bf ac6f 583e e8d4 8fbf
-0.031473048 -0.7666143 0.2656858 -0.33655444 -1.1721247 -2.4404788 0.24530172 0.116322234
-0.51251286 0.10674591 -0.0689323 -0.22483304 -0.95955557 -1.2388498 -2.912452 0.6275165
-0.08093711 0.014622681 -1.6494756 0.16565835 -0.114545 -0.07490729 -0.14073603 0.38038087
-0.8882712 -0.15290835 -0.020884424 -0.64413893 -0.6815438 -0.5369845 -0.26787037 -1.1546159
-0.95902914 0.07628191 0.08972397 0.05777512 -0.4524542 -1.4074959 -0.15568163 0.13864575
0.27804032 0.017182907 -0.3696429 -0.1860124 -0.7075502 -0.23726277 -1.7129503 -0.26533034
-0.07388776 0.06086107 -1.4853606 -0.22434518 -0.31633154 -0.08437936 -0.27148414 0.19796193
0.70340264 -0.14364555 0.4383758 -1.0422976 -0.70075184 -0.41418487 0.38532606 -1.6412983
0.09324152 -1.4485369 0.5135348 -0.75420403 -2.752536 -1.2600518 0.25786117 -0.02653721
-0.18200411 -0.19418827 -0.39541486 -0.27991384 -0.44903496 -1.0634571 -2.9307833 0.55048794
0.01762737 -0.06956477 -1.6319989 0.0820724 -0.49004218 0.05225958 -0.33181974 0.35207048
-0.26470733 0.0025358486 -0.030677712 -1.3049377 -1.2279493 -0.82586765 -0.25331974 -0.6914253
-0.3762746 -0.6744529 0.3083546 -0.011339541 -0.8005403 -1.9333565 -0.10354882 0.06882085
-0.9966289 -0.15837777 -0.033126406 -0.19064014 -1.0808055 -1.1951777 -2.5412648 0.50729823
-0.4679685 0.23769557 -7.68686 0.33770937 0.1883404 0.06888481 -0.5565126 0.08054403
-0.10306199 -0.18070784 0.054088853 -1.3853273 -0.2775106 -0.118769415 0.16787198 -0.7059118
-0.15630788 -0.70449024 0.31035843 -0.1571812 -1.1836106 -2.9496415 0.015426059 0.077324644
-0.47846562 -0.06927326 -0.3356625 0.016865978 -0.9472379 -1.1631787 -2.6030123 0.3813075
0.07830313 0.0045091254 -1.879454 0.26860282 -0.29469457 0.11235142 -0.47433266 0.10603373
-0.72025025 -0.13196485 -0.0072230687 -0.91439766 -0.45046327 -0.36650226 -0.44065058 -0.60461193
-0.19550566 -0.4393224 0.2170141 -0.4225163 -0.6983047 -1.4599822 0.032585654 -0.14649406
-0.3800367 -0.18251622 -1.2936809 -0.3718533 -0.68575096 -0.91733557 -3.1602807 0.054608278
-0.078868896 0.18732637 -2.6012146 0.2985813 -0.5321763 -0.05559392 -0.69012105 0.020162832
-0.7308046 0.007936262 0.14413728 -1.6414241 -0.5423735 0.026100004 -0.31185248 -0.72475
-0.6103812 -0.22708857 -0.28777516 -0.37731448 -0.20388372 -0.495787 -0.33498982 8.405745e-05
-0.01598062 -0.19428147 -1.8856941 -0.25121823 -0.16675723 -0.3865194 -0.37249094 -0.91159505
-0.16313292 -0.06622657 -0.5813749 -0.24075088 0.106270455 -0.29351506 -0.3190336 -0.018726777
0.27608943 -0.11644916 0.36044797 -0.5472433 -0.40816864 -0.2673276 0.028920446 -0.81226015
-0.14194745 0.40370008 0.49518335 -0.3909775 0.047084756 -1.1146138 -0.0577817 0.13098131
-0.0031337524 -0.20877962 -0.8391383 -0.48875284 -0.33402324 -0.29923743 -1.0937182 -3.6053398
-0.034106445 -0.09054008 -0.5215907 -0.106279805 0.16185315 0.0003069176 -0.6068342 0.21168987
0.30143362 -0.07224334 0.27614757 -1.5188199 -1.4253777 -1.3106557 0.2113635 -1.1236849

model.4.bias f4 [3125]
00000000: 6c2d 5fbe fd2d 65be 9e49 0ebe 0656 cfbe
00000010: f742 2dbe 9f36 5b3d 28b0 e93c af7c 2cbe
00000020: fbb1 093e eaac ffbd c34f 88bd 0ee5 e5bd
00000030: 4ba2 85be 8277 acbd 6916 abbb 863d 02be
00000040: 902e e03d 2dc6 f6bb 8137 63be 7652 80be
00000050: f950 00be 6077 b7bd 4b0b cfbd fb5e 5dbd
00000060: b49c f8bd 246e bebd a97d 243d 8392 383e
00000070: 4cb9 7cbd 9baf 943d afd3 0a3d 2f35 38be
00000080: 1d8c 41bd 1a5d 17be cb57 4ebe 86ee 04be
00000090: 48b3 4ebe 6bed 8b3d 2abe 4bbe 128d 5fbd
000000a0: a04e f2bd 0201 b83d b208 09be a274 bd3d
000000b0: a478 f53d 53d8 193e 4e90 2ebc 37be 973d
000000c0: 99fb a5bd 96ef d8bd a799 d43d 0fb9 bdbd
000000d0: 4829 c3bd bd1f 73be 005e 06be 7f3b ce3a
000000e0: 6762 863d 74bb 4abc 2a99 31be c6d7 83bd
000000f0: 02f3 5d3d 79cb 19be 0a70 8abc e9cb 54bd
00000100: 35d5 b53b f293 323d 314c 6abe 0a34 7abd
00000110: 90b7 c33c afba 523d 95a4 7fbd 7611 923d
00000120: 062b 44be 5408 343e bd83 acbc 62d1 80be
00000130: d232 b4bd 2d1f 39bd 031f 1cbe 6b66 25be
00000140: 2f4c 323a ea07 b6be 5757 35be 781c 603d
00000150: d68f 1dbe 98ff 3cbe 3e91 95bd 6037 fbbd
00000160: d5b2 eb3d 3db8 1a3d 0317 5dba 07ef b03c
00000170: e4d6 483e 27ad 03bd 90de 133d 963a c6bd
00000180: c3f2 21be bfc8 72be df2e ce3c 02af 16bd
00000190: 09b7 00be 59cc 13be b1d2 7a3d 7dc1 66be
000001a0: 7a8d b63c be14 7a3e 7914 0c3d a706 e7bd
000001b0: de8f 2fbe 8601 d7bd f8bd 3ebd cc5d 0f3e
000001c0: bab7 2a3e 12ec 22be 62a2 6a3e 3746 08be
000001d0: aed6 c7bd d6c8 2f3e 6f6b 30be 6153 96bc
000001e0: 4edd f83d 5851 ad3d 7fe7 acbd 0b23 d8bd
000001f0: 6b75 933b 1b1b 12be 08e4 36be 3af8 f6bd
00000200: a425 07be 0433 64bd 6c2c 9fbd 5f75 193c
00000210: 1edf 92be 9581 d9bc a264 92be c4e1 17bd
00000220: 40fb e1bb 376f 58bd 0741 88bc 3e8e 8fbb
00000230: 6b13 c0bd 5ee4 05be 4077 88bb b5b3 983d
00000240: f457 e7bc 3ccb de3d 5e86 95bc b68c 41be
00000250: 793b e4bd 4c54 0cbd 926f aa3c fdde 9f3c
00000260: 3478 4cbd a304 4abe bcb2 1dbe 1d04 e2bc
00000270: 9342 20be dc08 863d e5b0 e53b e17d 0a3d
00000280: fda3 8e3d 63e7 0f3d 8114 bd3d c73b ed3d
00000290: d232 15be a72e 29be 9545 26be c9cf 253e
000002a0: 0d99 a9bd cc8c 9ebd 4d52 14be f242 4fbc
000002b0: 841d 103c f501 cebd a678 0b3d f3aa 6f3d
000002c0: 4dec 06be 27f0 f6bd 387b 0dbd 8bce 40bd
000002d0: 7450 0bbe d5d9 24bd 8ff0 eabd fa49 c33d
000002e0: 47b6 8d3d 37dd f43d 6259 00be 7fd2 54be
000002f0: 8e54 86bd 7f80 a13d 1fc3 6f3d 31d6 523d
00000300: 0d5a 3e3d b34f 56be 18ea 7dbd e4fc 0fbb
00000310: 4370 03bc c034 86bd 55ab 01bc 8dc7 c8bd
00000320: bd81 64be 8fc8 8bbd ee5b 6bbd 98e7 59be
00000330: 72aa 7dbe 6086 dfbc 51c2 ecbd b6e9 2abd
00000340: fa96 743d 24e3 a13d 03fd 783d 5e3e 7c3c
00000350: a1bb b93d cd92 abbd 93c6 b4bd 4622 dbbd
00000360: 87cc a9bd c148 90be 5be7 5dbe e9c7 ffbd
00000370: 7163 9fbe 5f96 03be 2e49 9ebd 1483 9abd
00000380: 854c 68be 9e97 8bbd cf1d cdbd 2fb3 813b
00000390: 7111 81be 7cd6 18be cf9a 633d 7546 b53c
000003a0: 8835 a23d c7e7 cf3d 8092 1d3d 16bd 51bd
000003b0: 2e9e c23c 77f6 92bd 3a73 14be 5640 30be
000003c0: 8720 af3d 7fe4 86be c4cf 4cbe 3f22 cbbd
000003d0: fffa c7bb 661c 163e 7af5 f83d 85d3 d13b
000003e0: f35f 88be 0ea7 73bd d2bf 463d a977 343d
000003f0: 5139 babd a16e 95bd 33dc 8bbd f8aa 413d
-0.21794671 -0.22380824 -0.1389527 -0.40495318 -0.16920076 0.053518888 0.02852638 -0.16844438
0.134468 -0.124841526 -0.06655838 -0.11225329 -0.26100382 -0.08421232 -0.0052211774 -0.12718782
0.10946381 -0.0075309486 -0.22189142 -0.25062913 -0.12530889 -0.08958316 -0.10109576 -0.05404566
-0.12139264 -0.092983514 0.0401589 0.1802464 -0.06170015 0.072600566 0.033893283 -0.17989038
-0.047252763 -0.14781609 -0.20150678 -0.12981614 -0.20185578 0.06832393 -0.1989676 -0.054577895
-0.11831403 0.08984567 -0.13382223 0.092507616 0.11985901 0.15023927 -0.010654522 0.074093275
-0.08104629 -0.105925724 0.10380869 -0.09263813 -0.09529358 -0.23742576 -0.13121796 0.0015734284
0.065617375 -0.012373794 -0.17343584 -0.0643764 0.05418683 -0.15019025 -0.016899128 -0.051952276
0.005549098 0.043598123 -0.22880627 -0.061084785 0.02389124 0.051447567 -0.062412817 0.07132237
-0.19157037 0.17581302 -0.021058911 -0.25159746 -0.08798756 -0.045195747 -0.15246205 -0.1615235
0.00068015134 -0.35552913 -0.17709099 0.05471465 -0.153869 -0.18456876 -0.073030934 -0.12266421
0.11508719 0.03777336 -0.000843391 0.021598352 0.19613224 -0.032147553 0.036100924 -0.09679143
-0.15815262 -0.23709391 0.025168834 -0.036787994 -0.12569822 -0.14433421 0.061236087 -0.22534747
0.022284258 0.24421975 0.03419921 -0.11280566 -0.17144725 -0.104983374 -0.046567887 0.14000624
0.16671649 -0.15910366 0.22913507 -0.13308035 -0.09757744 0.17166457 -0.17228483 -0.018350305
0.121515855 0.08462781 -0.08442592 -0.10553559 0.0045000813 -0.14268152 -0.17860425 -0.12059064
-0.13197953 -0.055712715 -0.07772145 0.009366362 -0.2868585 -0.026551047 -0.28592402 -0.03708054
-0.0068964064 -0.052840438 -0.01663257 -0.0043809703 -0.09378704 -0.13075396 -0.0041646063 0.074561514
-0.028240182 0.10878608 -0.018252548 -0.18901333 -0.11144156 -0.03426008 0.020805154 0.019515509
-0.049919322 -0.19728331 -0.15400213 -0.027589852 -0.15650396 0.065446585 0.007009613 0.033811454
0.06964872 0.035132777 0.092324264 0.11583667 -0.14570168 -0.16521703 -0.16237481 0.16192545
-0.08281145 -0.077416986 -0.1448452 -0.012650238 0.0087961 -0.10058967 0.034050606 0.05851264
-0.13176079 -0.12057524 -0.03454134 -0.047071975 -0.13604909 -0.040246803 -0.11471664 0.09535594
0.06919532 0.11956256 -0.12534097 -0.20783423 -0.06559096 0.07885837 0.05853569 0.0514738
0.046472598 -0.2092884 -0.061990827 -0.0021970803 -0.008022371 -0.0655303 -0.007914384 -0.09803686
-0.22315116 -0.06825363 -0.057460718 -0.21279752 -0.24772051 -0.027285755 -0.115605004 -0.04172679
0.059714295 0.07904652 0.060788166 0.015395729 0.090689905 -0.083776094 -0.088269375 -0.106998965
-0.082909636 -0.28180507 -0.21670286 -0.12489302 -0.31130555 -0.12850331 -0.07728802 -0.075445324
-0.2268544 -0.06816028 -0.10015451 0.003958128 -0.2520862 -0.1492557 0.05556756 0.022128323
0.079203665 0.1015163 0.03846979 -0.051205717 0.023757067 -0.07175916 -0.1449708 -0.17212042
0.08551126 -0.26346204 -0.20001131 -0.09918641 -0.006102919 0.1465927 0.12156196 0.006403389
-0.26635703 -0.059485488 0.048522778 0.04405943 -0.090929635 -0.072964914 -0.06829109 0.04728219
