models/var-info-max/empowerment_5_steps/TwoRoom-v0_source_distr.pth (torch_old, 457852 bytes, 6 tensors)

model.0.weight f4 [32, 311]
000000 94 f2 8f 3e 35 e6 ae 3e 51 0e 1f 3e 9a 0c 9f 3e
       0.2811476 0.3416001 0.15532805 0.31064302
000010 62 99 a8 3e 4b 38 9f 3e ff aa 68 3e f6 08 57 3e
       0.32929522 0.31097636 0.2272148 0.20999512
000020 e4 83 d2 3e 5b d4 14 3e af 26 7f 3e 68 ee 80 3e
       0.4111625 0.14534132 0.249171 0.2518189
000030 9e 54 b4 3e 3a 59 b0 3e 93 70 c2 3e ee 6d 29 3e
       0.35220808 0.34443074 0.37976512 0.16545841
000040 bc 0a 01 3e 1e 78 95 3e 88 8e 8d 3e f5 65 00 3e
       0.12601751 0.29193205 0.27647805 0.12538894
000050 9a e5 6a 3e 8c 76 29 3e 19 4f 4c 3c 23 d0 c0 3d
       0.22939149 0.16549128 0.01247003 0.09414699
000060 b4 7f b2 3c 90 10 32 3e 4a f7 0b 3e 52 1c 54 3e
       0.02178941 0.1738913 0.13668552 0.20713928
000070 85 31 54 3e 9d fa 8b 3e a6 96 39 3e ed 09 88 3d
       0.20722015 0.2733964 0.18123874 0.06642518
000080 7c 9d 30 bd 9d 43 b1 bd 89 df c1 3d f3 08 d2 3d
       -0.04311894 -0.08655474 0.09466464 0.10255613
000090 0a d4 89 3d 3b e3 b3 3d f7 71 4c 3e 26 8d ee 3d
       0.06729896 0.08783575 0.19965349 0.11648016
0000a0 4f 1b e1 bc 35 8b b7 bd fb 5a 39 3e 3f 7d 24 3e
       -0.027478842 -0.089620985 0.18101113 0.16063403
0000b0 3e 0c 97 3d 92 bb 48 3e 36 53 cc 3d a0 ad 3f 3e
       0.07375382 0.19602802 0.09976809 0.18718576
0000c0 10 cc 42 3c c6 fb 48 bc de b9 9a bd 4f a2 61 3e
       0.011889473 -0.012267059 -0.075549826 0.22034572
0000d0 05 90 b0 3d 7f 40 84 3d 1c df 01 3e 3a ec 50 3d
       0.086212195 0.06457614 0.12682766 0.051006533
0000e0 eb 30 64 3d ab 5f ae 3d 62 02 28 bd 00 9b 34 3e
       0.055710714 0.08514341 -0.041017897 0.17637253
0000f0 4b 15 7d 3d bf 2a ea 3d ec fd 47 3e 2a cd 08 3e
       0.061787885 0.114339344 0.19530457 0.13359514
000100 6d ca dd 3d b6 79 76 3d d4 e1 6c bd b9 ce bc bd
       0.10829625 0.060174666 -0.057832554 -0.09219117
000110 ab f9 2d 3e ca 77 40 3d 28 d1 17 3e 4d 83 89 3d
       0.16989772 0.04698924 0.1482588 0.06714497
000120 cc 58 99 3d c4 54 f5 3d f6 42 d1 bc a8 19 4c be
       0.0748764 0.119790584 -0.025544625 -0.19931662
000130 ca 64 2d 3e 2a 81 96 3d 9c a3 ab 3d 18 de 44 3d
       0.16932979 0.07348855 0.083808154 0.048063368
000140 88 33 cd 3d 75 e6 fd 3d ec 54 63 3d 45 46 26 3d
       0.100195944 0.12397472 0.05550091 0.040594358
000150 19 5a 88 be d5 81 4d 3e 4b 6a 15 3e af 91 c1 3c
       -0.2663124 0.20069058 0.14591329 0.023629038
000160 36 5a a3 bc 33 5c 2b 3e dd 0f 0a 3e 13 ae bc bd
       -0.019940477 0.1673439 0.13482614 -0.092128895
000170 94 44 00 be ba af 17 3e 41 8e 2b 3e 6c b1 2b 3e
       -0.1252616 0.14813128 0.16753484 0.167669
000180 8c 4b 06 3e 47 62 09 3e 6f 93 0f 3e 13 0d 61 3d
       0.13114756 0.13416396 0.14021085 0.05494411
000190 0a 9b bb 3b 61 fa 13 be a7 ff 5b 3e ed 0c af 3d
       0.005725269 -0.1445098 0.21484242 0.08547387
0001a0 51 d0 09 3d 65 ca ec 3d 77 a2 14 3d b5 51 8b 3d
       0.03364593 0.11562041 0.03628775 0.06802694
0001b0 49 b4 73 3e 85 ea 68 bd fb 85 a2 3e 2b ca 92 3e
       0.23799242 -0.05686428 0.31742844 0.28669867
0001c0 2f 8d 0f 3d 3f 58 b6 3d 66 39 23 3d 8b 20 b6 3d
       0.035046753 0.0890355 0.03984966 0.08892926
0001d0 b1 eb 95 3d 1f b0 fd bd 47 7f 3c bd 01 b2 37 3e
       0.07320345 -0.12387108 -0.04601982 0.17938997
0001e0 5f 0c 9d 3d cd a8 f7 3d 73 df f2 3d f4 1a 1c bc
       0.07668375 0.12092743 0.11859026 -0.0095279105
0001f0 f4 5e 2c bd 51 98 9d be 5e 7e 71 bc 93 80 93 bd
       -0.04208274 -0.3078027 -0.014739601 -0.07202258
000200 48 3d c8 3d d9 99 29 3e 45 c2 a0 bb 11 c5 3b 3e
       0.097773135 0.16562594 -0.004905971 0.18336894
000210 9a 3f b2 3d 25 b2 cf 3d 71 3a 1a 3c 3e 11 06 be
       0.08703537 0.101414 0.009413348 -0.13092515
000220 cd 29 8d be 13 7d 44 3e 4c 1b 0a 3e 8a 0d 3c 3d
       -0.27570954 0.19188337 0.13486975 0.04591135
000230 cb f7 f8 3d 8e 40 b7 3d 03 46 29 be 3c 81 24 3e
       0.12156638 0.0894786 -0.16530614 0.16064924
000240 f7 19 d0 bd ad e3 97 be df 78 75 3c 3d ab 82 3c
       -0.101612024 -0.2966589 0.014982431 0.015950793
000250 7b 8d 0a 3c e5 47 93 3d df 7f 5c 3e 37 70 e5 3d
       0.008456583 0.07191447 0.21533154 0.11203044
000260 53 03 05 3e 15 bb 66 bb ca 4a 12 be ae 1f c8 3d
       0.1298955 -0.0035206724 -0.14286342 0.097716674
000270 6f 89 a8 3c 27 f2 d7 3d a9 ab 5d 3e 84 20 0f 3e
       0.020573346 0.10544234 0.21647514 0.13977247
000280 bb f6 15 bc 5e f6 f0 3b 8c 7d 9c be d3 c1 09 be
       -0.009153063 0.007353588 -0.30564535 -0.13452844
000290 88 8f 9e be 33 41 34 be 4c b2 83 bd b2 c8 c3 3d
       -0.3096888 -0.17602997 -0.06430492 0.09559764
0002a0 84 96 c4 3d bb 19 82 3d e6 ce 21 3e c1 e3 cc 3d
       0.09599021 0.06352564 0.15801582 0.10004378
0002b0 35 c1 8e be f6 1f 1d 3e b1 eb bc 3d d2 80 ab 3d
       -0.2788178 0.15344223 0.09224642 0.0837418
0002c0 79 3c 57 3e 9f 02 b4 3d 7b b5 9f bc ec df 23 be
       0.21019162 0.087895624 -0.019495716 -0.16003388
0002d0 12 9f 7f be e0 92 17 be 92 c0 97 be 81 65 17 be
       -0.24963024 -0.14802122 -0.29639107 -0.14784814
0002e0 0a 45 4f 3d 30 6d 8c 3d 5a 9f 47 3e 90 be c5 3d
       0.05060295 0.06856763 0.19494382 0.096554875
0002f0 d5 fd aa 3d 8b 16 21 be 4a ef 32 be 74 8a 46 3e
       0.08349196 -0.15731256 -0.17474094 0.19388753
000300 f4 d4 02 3e 83 db dd 3d 15 b2 b9 3b c4 ef 18 3e
       0.12776548 0.10832884 0.005666981 0.14935213
000310 cd 1d e1 bb 8f 8f bd bd 53 ea 88 be 08 d4 97 be
       -0.0068700076 -0.09255897 -0.26741275 -0.29653955
000320 f2 9b 09 be ef 84 9e bc a4 15 bd bc 29 03 10 3d
       -0.13438395 -0.019350497 -0.023081608 0.035159264
000330 3d f3 91 bd 2d 7f bd bc b2 b1 f4 3d cb 3b 58 bc
       -0.07126472 -0.023131931 0.11947955 -0.0131978495
000340 99 63 61 be 52 a1 53 3e cf ab 39 3e 03 82 9b 3d
       -0.2201065 0.20667008 0.18131946 0.07593157
000350 b0 bb d9 3d dd a7 7b 3d 23 33 3e 3c aa 6f 97 be
       0.10631502 0.061439384 0.011608872 -0.2957738
000360 fb b5 9c be 65 96 ed bd 60 55 98 be 45 54 02 bd
       -0.3060759 -0.11600951 -0.29752636 -0.031818647
000370 3a ac d1 3d 8f 78 d0 3d c3 68 c5 3d 17 83 e7 3d
       0.10237928 0.10179245 0.09639122 0.113043
000380 06 8a 4f bd b8 ed 94 be dd a3 ad 3d 87 ad 31 3e
       -0.05066874 -0.29087615 0.0847852 0.17351352
000390 d3 8a 0e 3a 7b 1f 44 3e 93 e3 88 3d 42 42 6b 3d
       0.00054375565 0.19152634 0.06684031 0.057436235
0003a0 6d b7 d9 3c 3a 75 97 be c7 d8 9c 3d 1b 99 cc 3d
       0.026576722 -0.29581624 0.076585345 0.0999014
0003b0 fc 84 1c 3e 9f 17 0f 3e ef 2a 06 3d e4 61 1b 3d
       0.15285105 0.13973854 0.03275579 0.037935153
0003c0 cb a4 d2 3d 4c b7 2d 3d af 64 ec bd f4 3d f9 3d
       0.10285338 0.042411134 -0.11542641 0.1217002
0003d0 d0 a0 03 3e 19 23 b2 3d c1 32 a4 3d 69 6b f3 bb
       0.12854314 0.086981006 0.08017493 -0.007428576
0003e0 8b 3a 30 3a b0 48 e7 bd 25 9c 51 bd 93 5a e6 3d
       0.0006722591 -0.11293161 -0.0511743 0.112477444
0003f0 54 4e ed bd a8 2b 3e 3d 87 98 20 3c b5 45 4e 3e
       -0.115872055 0.046428353 0.00980199 0.20143779

model.0.bias f4 [32]
000000 96 b0 83 3e 60 04 47 be 7c 64 76 3e d1 10 86 3e
       0.25720662 -0.19435263 0.24061769 0.26184705
000010 85 ff c5 bd e6 cf 6e 3d 3f 5c a6 3e 7d 97 49 3d
       -0.09667877 0.058303736 0.32492253 0.049216736
000020 9d 0d 22 3d 65 f5 b6 3e e7 df b9 3e f0 90 27 3e
       0.039563764 0.35734096 0.36303636 0.16363883
000030 02 25 d1 3e 37 45 a7 3e de 61 59 3e bc a8 a4 3e
       0.40848547 0.32669994 0.2122874 0.32159984
000040 6d 71 d8 bd c6 1f 48 3e d4 20 7f bd 70 8f ad 3e
       -0.10568509 0.1954337 -0.062287167 0.33898497
000050 94 87 a3 3e 71 f4 5f 3e c3 c3 38 3e 13 29 bc 3d
       0.31939375 0.21870591 0.18043427 0.09187522
000060 44 ef 70 3e 72 fe 80 3e f3 ba 01 be 02 47 e5 3d
       0.23528773 0.25194126 -0.12668972 0.11195184
000070 d6 b2 30 be 1d 6a 83 3e 0b e1 b3 3e 1f 5b 6d 3e
       -0.1725572 0.25666896 0.35132632 0.23179291

model.2.weight f4 [32, 32]
000000 29 b3 31 3e 97 3e c8 3d 22 1f 14 3f 07 1b 2a be
       0.173535 0.09777563 0.57860005 -0.16611873
000010 49 2e ff bd b7 82 84 be e3 b1 3e 3d be 70 4a be
       -0.1246 -0.25880978 0.046556365 -0.1976957
000020 db cd f6 3d c3 87 19 bf 1d 70 c0 bd 57 35 39 bd
       0.120509826 -0.5997278 -0.09396384 -0.045216884
000030 7f a0 27 3e 0e 0c 1b be 30 0c 1b 3e a9 9f 38 3f
       0.16369818 -0.15141317 0.15141368 0.7211862
000040 a1 95 0e be 2a 58 04 3d f6 a8 62 bd 7b 0e 4b 3f
       -0.13924266 0.032310642 -0.055336915 0.7931897
000050 7a 4f f7 be f4 0d 0e 3e 7e ad c8 3e c0 09 4f 3e
       -0.48302823 0.1387251 0.39194864 0.20218563
000060 64 97 39 3d 2b 60 cc 3e ff 8f a9 bd e9 24 c2 3e
       0.045310393 0.3991712 -0.08279418 0.37918785
000070 ae ab 3d bd 42 71 92 3d 5a dc 0d 3e ed fb 8c 3e
       -0.046306305 0.071505085 0.13853589 0.27535954
000080 50 91 0a 3e 45 34 20 3e 4d 8f 9c bd 0c 10 e7 3d
       0.13531995 0.15644939 -0.0764452 0.112823576
000090 d6 e2 ad 3d 5c 40 d6 3b 0e 78 cd bd 78 fc de bc
       0.08490531 0.006538434 -0.10032664 -0.027219996
0000a0 fe f6 dd 3d 84 3e 31 be 1e 1a eb bd 77 92 10 3d
       0.10838126 -0.17309004 -0.11479591 0.03529593
0000b0 bb be 40 be cd 94 33 be 21 28 d9 bd c6 81 d5 bd
       -0.18822758 -0.17537232 -0.10603357 -0.10425143
0000c0 32 c6 bf 3d 8a 29 e7 bb 82 96 83 3d 30 e9 89 3d
       0.09363975 -0.0070545124 0.064251915 0.0673393
0000d0 06 75 8d 3d 68 59 f4 bc a2 41 0c 3e f5 d4 04 3e
       0.06907086 -0.029827788 0.13696912 0.12971862
0000e0 5c b9 39 be 12 80 a6 bd 70 40 2f bd d2 a2 df bc
       -0.18137115 -0.08129896 -0.04278606 -0.027299318
0000f0 98 9a dc 3c 60 2d db 3d eb bf 25 bd 8a 4c cc 3c
       0.026929185 0.10702014 -0.04046623 0.02493884
000100 5b cc 02 bd 96 cd 8d 3d 30 28 3e 3e 72 3f 69 3c
       -0.03193317 0.06923978 0.18570018 0.014236318
000110 17 82 81 be 53 4f 59 3d 20 f0 f7 bc 4d 6f f5 3d
       -0.25294563 0.053054165 -0.030265868 0.119841196
000120 a3 43 7d bd 5b 03 ae bc eb 0f 57 bd 1a a9 0a be
       -0.06183208 -0.021241834 -0.052505415 -0.1354107
000130 ba 30 87 bd 6c 99 b0 bd d8 26 08 be 3b 67 36 be
       -0.06601091 -0.08623013 -0.13296068 -0.17812817
000140 96 58 bd 3d d4 02 21 be 75 3a cf b5 e0 c8 22 be
       0.09245412 -0.15723735 -1.5439715e-06 -0.1589694
000150 c8 d5 14 3d f4 3a 6f bc 7c 93 6d 3d 05 44 36 be
       0.03633669 -0.014601458 0.05800198 -0.17799385
000160 9b 2a f5 bd 82 f7 1a bd 2b 21 3e 3c 37 52 17 3e
       -0.11971017 -0.037833698 0.011604588 0.14777456
000170 27 4d 81 3d d2 c8 c7 38 b6 0f e6 bd f6 2a 1e be
       0.06313544 9.526465e-05 -0.112334654 -0.15446076
000180 a3 53 e8 be 44 fe 53 bd d9 45 ee 3e e2 a0 43 3d
       -0.4537631 -0.05175616 0.46537665 0.04776085
000190 c8 57 80 be 6d ff ae bd 4e 90 d2 3d 8a 1f a4 be
       -0.25066972 -0.08544812 0.1028143 -0.32055312
0001a0 9e f2 09 3e 2b 40 fa 3e 0c f4 b9 bc 8a e2 94 3e
       0.13471457 0.4887708 -0.022699378 0.29079086
0001b0 b8 c7 5d 3f 7b 49 21 bc 69 5e 5b 3e c5 2a 69 be
       0.8663287 -0.009844179 0.21422733 -0.22770222
0001c0 cb 88 b1 3e 0b ba 14 bc de 1c 05 3e 0a a1 00 3f
       0.34674677 -0.009077559 0.12999293 0.50245726
0001d0 20 a5 c5 bd 31 a4 da be 78 eb 7f 3d ad a2 d9 bd
       -0.09650636 -0.42703393 0.06248042 -0.10626731
0001e0 fb df 91 3e d4 b8 4e bf 6a ab 3a bd 6c 0b 9a 3d
       0.28491196 -0.80750775 -0.04557363 0.0752171
0001f0 8e 77 dc bd f2 85 0b bf cb 2e af 3e 15 b8 04 bf
       -0.10764991 -0.5450126 0.34215388 -0.51843387
000200 dc 3b c8 bc db c1 3b 3e 48 4a c8 bd 8d 29 09 3e
       -0.024442606 0.18335669 -0.09779793 0.13394757
000210 dd b8 1a be 94 48 35 bd 43 c7 2a 3e fb 18 5d be
       -0.15109582 -0.04425867 0.16677575 -0.2159156
000220 5e aa 8e bd 71 40 0f 3c d2 33 d3 bd 79 70 2b bd
       -0.06966089 0.008743391 -0.10312618 -0.04185531
000230 4f 59 a4 bd 5b e0 c1 3d 3e c3 a4 be ef 86 33 bd
       -0.08024847 0.094666205 -0.32180208 -0.043829855
000240 e3 5b 30 3e 31 da f6 bd e1 38 b1 bd ef 09 2d 3d
       0.17222552 -0.120533355 -0.08653427 0.0422458
000250 28 b3 3c 3d 72 99 cd bd 0a ca de bd 87 d8 a9 be
       0.046069294 -0.10039033 -0.1087838 -0.3317301
000260 b5 bb 08 3d c2 51 09 bd 7d 07 68 3d a0 f4 10 3c
       0.033382136 -0.033525236 0.056647766 0.008847386
000270 6b 4b e1 3d 4b b4 ad bd 78 2f 88 bd 28 18 25 3d
       0.11000713 -0.08481654 -0.06649679 0.04030624
000280 6a bd 78 bd c7 29 cb bb f2 de 74 be 41 ab 6e 3e
       -0.060727514 -0.0062000486 -0.23913172 0.23307516
000290 45 91 0b bd 3a ff 83 3e c5 2c 8f 3e c6 22 9e bd
       -0.034074087 0.2578066 0.27963844 -0.07721476
0002a0 68 4e ac be b9 ae 39 3f a1 90 04 3f fc 71 c0 bc
       -0.3365357 0.7253223 0.51783186 -0.023491852
0002b0 69 e7 a5 3d 08 fd b3 3e 19 16 4d 3e 38 d8 4e be
       0.081007786 0.35153985 0.20027961 -0.20199668
0002c0 03 4a 63 be a0 94 25 3e 47 2d 11 be d9 b7 da be
       -0.22196202 0.16169977 -0.14177428 -0.4271839
0002d0 94 84 ac 3e 6a 6c 6f bd 41 10 97 be 7e 58 67 3c
       0.336949 -0.058453 -0.29504588 0.014120219
0002e0 2a a5 33 bd 06 df 88 be d1 9f 46 3e 89 67 9c be
       -0.043858685 -0.26732653 0.19396903 -0.3054774
0002f0 b9 3c b7 3d 17 c0 d1 3d 1e 87 8b be 2d b7 30 be
       0.08947129 0.10241716 -0.27251524 -0.17257376
000300 4e 96 d6 3e 37 e2 9c 3e 7b b3 0d 3f ed 9e 76 bf
       0.41911548 0.30641338 0.5535199 -0.9633625
000310 18 c2 9b be 66 60 05 bf 48 9c 5e bf 79 d4 2e be
       -0.3042152 -0.5210022 -0.86957216 -0.1707324
000320 4e d4 2f be ea 2c 1e bf da 18 17 bf a7 23 8e be
       -0.17170832 -0.61787283 -0.59022295 -0.27761576
000330 94 51 38 bf b7 36 07 3f 86 ac f3 3e b4 7c 27 3f
       -0.7199948 0.52817863 0.47592562 0.65424657
000340 29 94 de bc 1a 35 09 bf ed 00 84 3d 7b 6b a2 3e
       -0.027170258 -0.5359665 0.06445489 0.31722626
000350 fb 72 49 3f 7d 48 8d be 58 06 97 3e 5e ed 4c 3e
       0.7869107 -0.27594367 0.29497027 0.20012423
000360 2d fb 10 3f 94 a0 fb 3e 3d 21 89 3e ba 77 5f 3e
       0.56633264 0.4914595 0.2678317 0.21823016
000370 04 8a ff 3c be f5 62 be ca 55 4d bf 5e e7 27 be
       0.03119374 -0.22164056 -0.8020903 -0.16396853
000380 f0 2d 3d be 88 0e 5a 3d b7 d9 5a bd b8 d7 56 be
       -0.18474555 0.053236514 -0.053430285 -0.20980728
000390 70 a5 91 bc b1 37 b8 3c 36 f4 4b bd 6d d3 c0 3c
       -0.017779082 0.022487493 -0.049793445 0.023538316
0003a0 18 54 2e 3d af fd 43 bd 0d 95 d8 bc 22 df 1d 3d
       0.042560667 -0.047849353 -0.02643826 0.038542874
0003b0 2b 04 01 be e8 a7 b6 bd 8f 9f 20 be 20 5a d8 3d
       -0.12599246 -0.08918744 -0.15685867 0.10564065
0003c0 a9 bd fa bd 98 3d c2 bd 68 b8 61 3d ee c9 bf 3d
       -0.12243206 -0.09484404 0.055107504 0.09364687
0003d0 cf cb 34 bd 5f dc 2c be 08 4b 06 bc c0 fb 6b bc
       -0.04413968 -0.1688094 -0.0081966 -0.014403284
0003e0 cb a5 a5 3d 31 ba a2 3d 98 da f9 3c 9a 69 0d 3d
       0.08088263 0.079456694 0.030499741 0.034524538
0003f0 9a fc b4 3d d4 aa 42 3d b7 ed 29 be 1a 3b 0b 3d
       0.088372424 0.047526196 -0.16594587 0.03399191

model.2.bias f4 [32]
000000 7f 86 9a 3c 2b 28 4e be 55 4a c0 bd 8a 56 c6 3e
       0.01886296 -0.2013251 -0.09389178 0.387379
000010 80 3a d1 bd 80 d6 22 3e af c6 58 39 4c 05 27 be
       -0.10216236 0.15902138 0.0002067338 -0.16310614
000020 eb 33 4d be 78 95 c6 bd 21 1a ea bd 86 5e a8 bd
       -0.20039336 -0.09696478 -0.11430765 -0.08221154
000030 21 35 d4 bd f1 4b 1f be 48 8b 60 3d 69 aa 5b 3e
       -0.10361696 -0.15556313 0.05482033 0.21451725
000040 bf 4d 51 3d 77 fe 8b bd c9 5d 50 be b1 e6 a0 3e
       0.051099535 -0.06835645 -0.20348276 0.31426004
000050 86 71 5e 3d 48 ce 1f 3e 5c 94 11 be 3b b6 a4 bc
       0.054307483 0.15606034 -0.14216751 -0.020106426
000060 9f a2 1a be ac 30 cc bd ec 37 57 bd 4f 6b b1 bc
       -0.15101098 -0.09970221 -0.052543566 -0.021657614
000070 d1 59 30 3d 59 bf ad 3e 91 67 91 3e 3c b6 85 bd
       0.043054406 0.3393505 0.28399327 -0.06528899

model.4.weight f4 [3125, 32]
000000 a6 d9 a4 bd c8 f5 32 3d ba 74 56 bd 85 66 66 3f
       -0.08049326 0.043691427 -0.052357413 0.9000018
000010 8f b8 eb bd b9 54 db 3e 18 52 ac 3e 3f 0a 2b bd
       -0.11509811 0.42838076 0.33656383 -0.04175782
000020 bd 13 0c be 4c 4a c8 3c 17 68 03 bd 81 f2 91 bd
       -0.13679405 0.02444949 -0.03208169 -0.07126332
000030 2e 8a 1b be 40 e4 30 3c b0 11 84 bc 76 43 b4 3e
       -0.1518943 0.010796607 -0.016121715 0.3520772
000040 0d 38 f1 bd 44 2b 26 3e c6 64 04 be 13 c6 7c 3f
       -0.11778269 0.16227442 -0.12929067 0.9873974
000050 be de 0c bd 9a e1 7e 3f 47 ac 33 3e 7d 73 4e be
       -0.03439211 0.9956299 0.17546187 -0.20161243
000060 c0 f6 1d be d6 55 25 be 5b 60 33 be 58 1d eb be
       -0.15426159 -0.16146025 -0.17517225 -0.45920825
000070 51 9a a5 3e bb 01 6b 3e cf f5 00 3f 7b 91 d1 bd
       0.32344297 0.22949879 0.50375074 -0.10232826
000080 f8 1d 09 bf a9 4c f8 3d 4e 65 74 bd 11 45 91 3f
       -0.53561354 0.12123997 -0.059666924 1.1349202
000090 4e c3 34 3e 05 05 1a 3e d0 c9 86 3c 0d 31 3e 3b
       0.17652628 0.15040977 0.016453654 0.0029020936
0000a0 a4 ae af 3d 80 8d f7 3d 71 91 16 3e 65 f2 30 be
       0.08578232 0.12087536 0.14703919 -0.17279966
0000b0 a2 5a ef bd 08 96 86 bd f2 61 4a bf b1 41 63 3e
       -0.11687209 -0.06571585 -0.790557 0.22193028
0000c0 fc d1 6a bf 2b 9f 38 bf 6d d1 2a 3d 8e 75 49 3f
       -0.9172666 -0.7211787 0.04170363 0.78695
0000d0 d6 52 37 3e d5 f8 7f 3f 04 40 12 bd de 13 cd bd
       0.17902693 0.9998906 -0.03570558 -0.10013555
0000e0 b0 f5 3f 3d e5 64 2d 3e 43 72 93 bf 90 a5 43 bf
       0.046865165 0.1693302 -1.1519245 -0.76424503
0000f0 53 b5 58 3e 91 d1 4d 3e 8f 56 a1 3e 3d 89 25 3e
       0.2116292 0.20099474 0.3151135 0.16165633
000100 a7 06 62 3e 0d 3b 05 3e 08 f2 08 3e c9 b3 e2 3e
       0.2207285 0.13010807 0.13373578 0.4427779
000110 65 78 42 3e b8 78 40 3e 09 d4 ef 3e df a1 74 bd
       0.1899124 0.1879605 0.46841457 -0.059724685
000120 ce fb b9 3b 17 72 42 bc 8e 62 1c 3e 36 f4 8d bc
       0.0056757694 -0.011868021 0.1527197 -0.017328363
000130 c3 8d 2f be 48 6f d0 bd 70 5f ca 3d bf 47 97 3e
       -0.17143922 -0.10177475 0.098814845 0.29546925
000140 d7 ec 1e be 8a 42 b1 3e 1b 3b 83 3d bc f1 2f 3f
       -0.15520035 0.34621078 0.06407758 0.6872823
000150 cf 6b 16 bd 08 9e 33 3f fb 5e 2a be b8 c9 06 be
       -0.036723908 0.7016301 -0.16637795 -0.13162887
000160 f5 dc 01 3e 02 35 c7 3d 8d 78 80 be 42 ac d7 bd
       0.12681945 0.09726907 -0.25091973 -0.105309024
000170 71 94 95 3e fa 94 b4 3e 0d 21 fa 3e b0 8e 33 be
       0.29214814 0.3526991 0.4885334 -0.175349
000180 58 4d 35 3e ae ac e2 3c 9d 11 5a be e1 8f 3a 3f
       0.17705286 0.02767023 -0.21295781 0.7287579
000190 48 38 18 3d 12 c8 0c 3f 23 62 5a 3e df d3 48 bc
       0.03716305 0.54992783 0.21326499 -0.012257545
0001a0 35 d5 02 3e fa 2f ae 3c 83 22 72 be cc 28 ee bc
       0.12776645 0.021263111 -0.23645978 -0.029072188
0001b0 a3 93 1a 3d 30 7b cd 3c 07 32 65 3d 9f 6f ba 3d
       0.037738454 0.025083154 0.055955913 0.09103321
0001c0 e4 12 ab bc 86 5d de 3d 92 70 ec bd 55 24 13 3f
       -0.020883031 0.10857682 -0.115449086 0.57477313
0001d0 4a 22 87 3e 39 24 51 3f cc 8a 45 3d ce 45 4c 3d
       0.26393348 0.81695896 0.04822807 0.04987126
0001e0 d2 9a c7 3d 4c d7 2c 3e 26 72 17 be da 61 62 be
       0.097463265 0.16879004 -0.14789638 -0.2210764
0001f0 bf 5c cc 3e 25 60 ac 3e 69 db 09 3f d7 d4 07 be
       0.3991451 0.33667102 0.5385042 -0.13264786
000200 9a 13 91 bd d7 5e 44 bc 9f 52 fe 3d 91 93 37 3f
       -0.07083817 -0.011985502 0.124181025 0.71709543
000210 28 34 47 3e 1f 2c b6 3e 78 47 63 3e d9 71 07 3e
       0.1945349 0.35580537 0.22195232 0.13227023
000220 fd 2b bb 3d eb 15 af bd 46 44 24 3e 9e dd 8c 3d
       0.091392495 -0.085491024 0.16041669 0.068782076
000230 ea 01 08 bd 1a c8 9a 3d cf 75 87 3d f1 dd 6d 3d
       -0.03320495 0.075576976 0.06614267 0.058072988
000240 0c cd ef bd 98 69 2e 3e 36 b7 ba 3d 32 7f 19 3f
       -0.117090315 0.17032468 0.09116976 0.5995971
000250 e1 5f f4 3d 22 bc 3b 3f 35 88 f8 bd ee 33 0e be
       0.1193235 0.7333394 -0.121353544 -0.13886997
000260 f8 8e 8b bc ef eb 7c 3c 4c a0 cb be 14 b5 83 be
       -0.017035946 0.01543711 -0.39770734 -0.2572409
000270 fd e0 aa 3e f2 e0 53 3e ac c7 f0 3e 93 4f 2d be
       0.33374777 0.20691279 0.47027338 -0.16924886
000280 36 97 25 3e 27 ff de bd 83 9c b1 3d 3e c1 bf 3e
       0.16170964 -0.1088851 0.0867243 0.3745212
000290 a2 c7 83 3c 6f d7 7c 3e 93 a4 21 3e 09 4d c0 bd
       0.016086403 0.24691556 0.15785436 -0.09389693
0002a0 db 16 cd bd 4b 4a a7 3a d5 c7 32 3d b5 5f 28 be
       -0.10014125 0.001276323 0.043647606 -0.1644276
0002b0 96 de 0d 3e a2 51 89 3d 08 8f bf 3d 2b ea e8 3b
       0.13854441 0.06705023 0.09353453 0.007107993
0002c0 66 c5 1c bd 8f 37 54 3e 79 3b 1b bc 33 58 44 3e
       -0.03827419 0.20724319 -0.009474629 0.1917427
0002d0 82 6a 2d 3d 35 54 d4 3e 4e f4 79 bd a1 5b 2e bd
       0.042337902 0.41470495 -0.061024003 -0.042567853
0002e0 f4 20 81 bd 20 8b 30 be 2d 89 9d be 2a 43 16 3d
       -0.063051134 -0.17240572 -0.3076872 0.036685146
0002f0 c8 20 7b 3e 39 36 07 3e 41 9e 77 3e 14 b1 b5 3a
       0.24524224 0.13204278 0.24181463 0.0013861977
000300 ff f7 3f bf 7f d6 09 be 48 de 81 bc e3 a3 0a 3f
       -0.74987787 -0.1346073 -0.015853062 0.5415632
000310 a1 85 ba bd 19 d4 e0 3d 42 08 2b be 55 c4 0e be
       -0.09107519 0.109779544 -0.16702369 -0.13942082
000320 64 83 32 3e b2 15 ee 3c 05 c5 0a 3e b3 03 e1 bd
       0.17432934 0.02906308 0.1355172 -0.10987034
000330 e1 4e 91 ba aa 2e 87 3d 54 09 2e bf 3f 75 9b 3e
       -0.001108613 0.06600697 -0.67982984 0.3036289
000340 18 14 64 bf 52 ed 4c bf d1 a1 0f 3e cb b2 01 3f
       -0.8909316 -0.8004962 0.14026572 0.5066344
000350 ce fa ac 3e 52 b9 2a 3f 9f ec cf bd ce 03 97 bd
       0.337851 0.66689026 -0.10152554 -0.073737726
000360 48 ed 95 bc 22 86 25 3e f5 74 85 bf c6 99 6d bf
       -0.018301621 0.16164449 -1.0426317 -0.92812765
000370 86 8b 61 bd c9 c3 6b 3e f3 9a 29 3e b0 72 29 3c
       -0.0550647 0.23023905 0.16563015 0.010342285
000380 79 57 9d be 0a 21 04 3e c2 2e 63 be db 71 64 3f
       -0.307308 0.12903228 -0.22185805 0.8923623
000390 c3 69 b6 bd 60 27 92 3e 59 e9 42 3e d1 e2 84 3d
       -0.08906891 0.28545666 0.19034328 0.06488574
0003a0 32 ba 32 be 2c 38 06 be 3c 04 64 be 7a 0d 01 be
       -0.1745384 -0.13107365 -0.2226724 -0.12602797
0003b0 8f 82 c3 3d de 60 82 3d f6 20 0f bf 05 2f 7f 3d
       0.095463865 0.06366132 -0.5590967 0.0623007
0003c0 86 fe 1b bf bc 75 e0 be b3 58 4f 3e 5c 13 92 3e
       -0.60935247 -0.43839824 0.2024868 0.28530395
0003d0 94 53 2e be 16 16 55 3f d5 4a 02 3e df d2 c2 3c
       -0.1702407 0.83236825 0.12723859 0.023782192
0003e0 8b 7d 25 3e 31 42 dd bc e9 59 48 bf 11 ea 14 bf
       0.16161172 -0.027009102 -0.7826219 -0.58169657
0003f0 f3 a6 d4 3d 06 68 54 3d 88 23 1a 3f 7d 2d 20 3e
       0.103834055 0.051857017 0.60210466 0.15642352

model.4.bias f4 [3125]
000000 24 0f b4 3e f9 74 fd be 98 6a dd 3e a3 26 1b 3e
       0.351678 -0.49503306 0.43245387 0.15151457
000010 24 f7 01 3e 6f d6 12 3e ba ff cb be 0e 2c 03 bf
       0.12691933 0.14339612 -0.3984354 -0.512391
000020 c4 27 4b be c3 6c a4 be 70 33 a2 3e 26 79 ad be
       -0.19839388 -0.3211423 0.3167987 -0.3388149
000030 4e de 92 3e c8 10 73 3e 91 73 28 3e a8 c6 0b 3c
       0.2868523 0.2373687 0.16450335 0.00853125
000040 be c1 87 be cf 4b 77 3e e0 41 49 3e 43 51 1f 3e
       -0.26515 0.24150012 0.19654036 0.15558343
000050 d8 b8 2a 3e 17 c7 ea bd 98 3a 9a 3e d1 a9 20 3e
       0.16672075 -0.114637546 0.30122828 0.1568978
000060 09 03 93 3e 17 2d d1 3d 5c 91 9d 3b d0 96 ae 3d
       0.28713253 0.10213678 0.004808588 0.08524859
000070 7c 71 4a 3d 11 42 20 3e c8 91 7f 3d 4e 60 e7 bd
       0.049424633 0.15650202 0.062394887 -0.112976655
000080 b8 42 02 be 31 99 94 be 5e e9 f2 bc 53 d6 49 3d
       -0.12720764 -0.29023126 -0.029652294 0.04927666
000090 8e cc bc 3d 8c d6 0f 3e 11 31 3d be cb 37 16 39
       0.09218703 0.14046687 -0.18475749 0.00014325899
0000a0 dc b0 02 3d b6 b5 0b be d5 79 03 be 17 ec da 3d
       0.031906947 -0.13643536 -0.12839444 0.10689562
0000b0 92 31 0d bc 78 b1 7c 3e 54 e4 e4 3c 24 5e 35 be
       -0.0086177755 0.24677074 0.027940907 -0.17711693
0000c0 75 d5 ab b9 9d ee 1a bd 40 df 94 3e 53 6c 95 be
       -0.000327747 -0.037825216 0.29076576 -0.29184207
0000d0 c3 d7 e7 3e e2 3c 1f 3e ad a0 55 3e 2c 56 c8 3d
       0.452818 0.15550569 0.20862074 0.09782061
0000e0 7b 53 4f be 5a b1 3a 3e 7b 92 aa 3b 7a 2e 30 3c
       -0.20246689 0.18231717 0.00520545 0.010753268
0000f0 14 c5 8d 3e 1e fa 4f 3d 01 68 8d 3e 5a 0e 1d 3e
       0.2768942 0.05077564 0.2761841 0.15337506
000100 f4 dc 84 3d da a5 01 3e 45 be a8 bc d1 1c 29 3d
       0.06487456 0.12660924 -0.02059854 0.041287247
000110 b3 7d a4 3e be 67 3a bd 39 cc 60 3e ed 89 3c bb
       0.3212715 -0.045509093 0.21952905 -0.0028768734
000120 bf 66 52 3e 8e 60 0c 3e 34 88 a7 3d 35 64 b5 3d
       0.20547007 0.13708708 0.081802756 0.088570036
000130 74 b2 a7 be d5 e5 c9 3d 95 4e e8 3d 8a 01 ba 3e
       -0.32753336 0.0985829 0.11343113 0.363293
000140 ca 9f b3 3e 0e e9 8e bd de 39 b1 bd 93 77 00 bd
       0.35082847 -0.069780454 -0.086536154 -0.031364035
000150 3c 57 26 bd f1 8d 4f 3e 63 31 7b 3d 16 3f dc 3d
       -0.040610537 0.2026899 0.061326396 0.1075422
000160 1c ae 16 3e 9c 87 6a 3e ce 7b 9a 3e 88 2d 7b 3d
       0.14714855 0.22903293 0.3017258 0.06132272
000170 5f 16 01 3d 62 56 ad 3d fb 7d 9c 3e 49 a9 07 3e
       0.031515475 0.08463742 0.30564865 0.13248171
000180 63 a5 c5 bd 6c 6c 3f 3e 8d cf 97 3e d6 9c 1f 3e
       -0.09650686 0.18693703 0.29650536 0.15587172
000190 05 bb 34 3e 51 77 b2 be 5b 24 9c 3d 0a d3 38 3e
       0.17649467 -0.34856656 0.07624122 0.18049255
0001a0 18 43 99 3e cd 16 8d 3e d1 3c 49 bd ee ea 1b be
       0.29934 0.27556458 -0.049130265 -0.15226337
0001b0 fe 33 97 bd bd 48 9c bd 0c a1 1c 3e 59 d3 96 3d
       -0.073829636 -0.07631061 0.1529581 0.0736453
0001c0 77 5c 3d 3e 09 35 18 3e ad bd ba 3d 5c 8f 5f 3e
       0.18492304 0.14863981 0.09118209 0.21832031
0001d0 5b dd 64 3d c0 c7 6f 3d 8d eb 49 3e ff 31 b6 3d
       0.055875164 0.058540106 0.19718762 0.08896255
0001e0 aa 22 8f 3e 42 66 1d 3d 82 0f 35 3e 33 46 d6 3b
       0.27956134 0.0384276 0.17681697 0.00653913
0001f0 5e aa 55 3e 51 f5 26 3e d2 08 fb 3d 4a f7 f7 3d
       0.20865771 0.16304518 0.12257542 0.121077135
000200 ad 8a 88 3d ae 4a 4d 3e 32 49 19 3e 6e 99 6c 3b
       0.06667075 0.2004802 0.14969328 0.0036102193
000210 51 18 dc 3c 1a 57 1a 3d fb d9 fb bd 2f 55 f6 3d
       0.026867064 0.037680723 -0.12297436 0.12027966
000220 92 22 d1 bd d9 19 41 3e 9a f8 54 3a 90 8f 4a 3d
       -0.10211672 0.18857516 0.0008124203 0.049453318
000230 7a 5d 35 3e 9b 7a 5d be 75 9f 96 3b ab 84 d1 3d
       0.1771144 -0.21628802 0.0045966455 0.102303825
000240 e9 69 fa 3d 29 2b f6 3d 37 1c 15 be 41 f8 38 3d
       0.12227232 0.12019951 -0.14561544 0.04515863
000250 a6 b8 85 bd 4d 6c 94 bd 82 68 f5 bd 56 17 b6 3b
       -0.065293595 -0.07247219 -0.11982824 0.005556981
000260 ed 2b 0f be 76 bd b1 bd e1 0a eb bd d9 29 61 be
       -0.139816 -0.08678715 -0.11476684 -0.2198862
000270 82 3f ed 3d 60 1c e2 3d f1 39 91 3e ae 1d f0 3d
       0.11584379 0.11040568 0.28364518 0.11724411
000280 87 10 1d bd f9 2c 57 3e 23 b4 b2 3c e8 4e f0 bd
       -0.03834584 0.2101325 0.021814412 -0.117338
000290 4b 2d 89 bd bf 97 60 bc eb f1 99 3d b6 0d 33 be
       -0.06698092 -0.013708054 0.07516845 -0.17485699
0002a0 f9 b7 00 3e 8f 0b 6e 3c a7 a2 0d be f1 3a 39 3e
       0.1257018 0.014529123 -0.13831578 0.1808889
0002b0 9a 69 0d 3d 10 08 e5 3c ff 58 ee 3a 4a 48 f3 bc
       0.034524538 0.027957946 0.0018184482 -0.029697556
0002c0 8a c3 94 bd 36 0b 05 3e 33 52 24 bd b8 02 0c 3e
       -0.072638586 0.12992558 -0.040117454 0.13672912
0002d0 dc 09 55 bd 4f 2e 3b 3e ba 23 a4 3d e7 6f 8e bd
       -0.052011356 0.18279384 0.08014627 -0.069549374
0002e0 18 c7 93 3c 50 e3 f9 3d e4 7c 21 3e 9f 4d 24 3e
       0.018039271 0.122015595 0.15770298 0.16045235
0002f0 05 4f a1 3b fd 89 6a 3e 35 91 b5 3a d1 7e 16 be
       0.00492275 0.22904201 0.0013852479 -0.14696814
000300 88 84 65 be b7 ef 79 3d b2 45 4c be 58 87 fa bd
       -0.22413838 0.061019626 -0.19948462 -0.12232846
000310 0e db 2f bd d7 dc 93 3e a0 dd 9f be 91 81 c0 3c
       -0.042933516 0.28879425 -0.31223774 0.023499282
000320 c6 5c 23 bc bc 1b 19 be e5 80 ca bd 52 1c 39 3d
       -0.009970849 -0.14951986 -0.09887866 0.045193024
000330 b8 70 77 bc 19 e3 63 bb ab 2e 31 3d c2 92 28 be
       -0.015102558 -0.0034772812 0.043257397 -0.16462234
000340 b3 2b 2c 3e 8a 41 71 3c 97 2e b1 bd b5 84 58 3d
       0.16813545 0.014725098 -0.086514644 0.052860934
000350 6e 35 81 bd b7 68 c5 bd 35 a7 97 bc 7c 39 af 3d
       -0.06309019 -0.096391134 -0.018512348 0.08555886
000360 df 1d 2a 3e 1e f6 41 be 37 27 36 3e 2d 3d a1 3d
       0.16612957 -0.18941543 0.17788397 0.078729965
000370 5f 00 61 bd 77 db 2f be fa c6 44 be c7 aa a7 3d
       -0.054931995 -0.17173563 -0.19216529 0.0818687
000380 54 15 c1 bd aa f8 12 3e 81 0e 1a 3e fc 06 a3 3c
       -0.09427896 0.1435267 0.15044595 0.019900791
000390 49 5c 64 bd 28 26 d7 3c 8e 11 70 bd 44 7c 1b 3d
       -0.055752072 0.026263312 -0.05861049 0.037960306
0003a0 46 e9 34 bd 98 63 c3 3d eb 49 e2 bd 16 79 0c 3e
       -0.04416778 0.095404804 -0.11049255 0.13718066
0003b0 06 59 9e 3d cb 55 9b 3d cd e2 c6 bd a8 8f 32 3d
       0.077318236 0.07584723 -0.097112276 0.043594033
0003c0 70 ac dd bd 2f 4f 1d be b4 1a 0a be 2b 40 49 bc
       -0.108239055 -0.15362237 -0.13486749 -0.012283365
0003d0 cd a0 d3 bd bc d6 29 bd 8e 50 0f 3d aa ab 52 be
       -0.10333405 -0.041464552 0.034988932 -0.20573297
0003e0 81 aa 2a be 32 fc 11 3c bc c2 c9 3d 03 c7 b6 be
       -0.16666605 0.008910226 0.09851596 -0.3569871
0003f0 09 01 5d 3e 5d 4a 22 3e 3b 8b e4 3d 05 ef c5 3d
       0.21582426 0.1584868 0.111593686 0.0966473
