models/var-info-max/empowerment_2_steps/CrossRoom-v0_phi.pth (torch_old, 14372 bytes, 5 tensors)

model.0.weight f4 [32, 68]
0	0xbe4ee752	-0.20205429
1	0xbe1fc38f	-0.15601943
2	0x3ce50765	0.027957628
3	0x3d9fe913	0.07808127
4	0x3e01d943	0.12680535
5	0x3df16297	0.11786383
6	0x3c3e457b	0.011613245
7	0x3d477906	0.0486994
8	0x3cd973f3	0.026544547
9	0x3dd7ed85	0.1054335
10	0x3e2a93f2	0.16657999
11	0x3dfe331a	0.124120906
12	0x3d3ae587	0.04562905
13	0x3d30b7b3	0.04314394
14	0x3e1d4681	0.15358926
15	0x3cb8d13e	0.022560712
16	0xbd90934d	-0.070593454
17	0x3d8d96c0	0.06913519
18	0x3e19b724	0.15011269
19	0xbd090fad	-0.033462215
20	0x3e0c8c93	0.137255
21	0x3e20ba8a	0.15696159
22	0x3d45af8f	0.04826313
23	0x3c872efa	0.016501892
24	0x3e663090	0.22479463
25	0x3e20377c	0.15646166
26	0x3e21c2f3	0.15797023
27	0x3e072c9e	0.13200614
28	0x3e042370	0.12904143
29	0x3d262a76	0.040567838
30	0x3dca6c21	0.09883905
31	0x3e03b738	0.12862861
32	0x3dedbdec	0.1160849
33	0xbccca306	-0.02498008
34	0xbe69e93d	-0.2284288
35	0xbe2af27a	-0.1669406
36	0xbcafbe77	-0.021453125
37	0x3d3a63c3	0.045505296
38	0x3e14ea4e	0.14542505
39	0x3dcde46e	0.10053335
40	0x3db9d666	0.090740964
41	0x3e225fc7	0.15856849
42	0x3ea1f6f7	0.31633732
43	0x3e6bf75d	0.2304358
44	0x3e541441	0.20710851
45	0x3e0db43a	0.13838282
46	0x3ceb8b9b	0.028753093
47	0x3dda66ff	0.10664176
48	0xbdbc6b48	-0.0920015
49	0xbcbd659e	-0.023119744
50	0x3dede53e	0.1161599
51	0xbde59f03	-0.1121197
52	0x3da8a572	0.08234681
53	0x3e44184e	0.19149897
54	0x3cfcb574	0.030848242
55	0x3e103cef	0.14085744
56	0x3df2aa92	0.1184894
57	0x3dbc5dbe	0.091975674
58	0x3d0131f1	0.03154177
59	0x3e24d3a0	0.16096354
60	0x3d6d2ba6	0.057902955
61	0xbbf95104	-0.007608535
62	0x3dc99fb6	0.098449156
63	0x3d9a1887	0.075242095
64	0x3d26a3cd	0.040683556
65	0x3e1c5835	0.15268023
66	0xbe1233d6	-0.14277586
67	0xbddd5e1a	-0.10808964
68	0xbdc12f77	-0.09432881
69	0xbdc84a84	-0.09779838
70	0x3d9d90a5	0.076936044
71	0xbcd7f9a9	-0.026364164
72	0x3dae6cf7	0.08516877
73	0x3dfee8aa	0.12446721
74	0x3c242f41	0.010021032
75	0x3e0f50ce	0.13995668
76	0x3ddd020b	0.10791405
77	0x3dcde583	0.100535415
78	0x3d69be66	0.057066344
79	0x3ca4f5fd	0.020136828
80	0x3da82b53	0.082113884
81	0x3d9df193	0.07712092
82	0x3cd7a408	0.026323333
83	0xbcf5ce8b	-0.030005714
84	0xbdc279a6	-0.09495859
85	0x3dc269da	0.09492846
86	0x3dbbe193	0.09173884
87	0x3d40e776	0.04709574
88	0x3e2c1333	0.16804199
89	0x3d5db56a	0.054128088
90	0x3e229dc5	0.15880497
91	0x3e342218	0.1759113
92	0x3dd0109d	0.10159419
93	0x3da373a5	0.07981042
94	0x3e4898c9	0.19589533
95	0x3dddba24	0.10826519
96	0x3cd9f46c	0.026605807
97	0x3ddaaf11	0.106779225
98	0xbce9938f	-0.028512744
99	0x3dd0f68e	0.102032766
100	0xbe06709f	-0.13128899
101	0xbe191720	-0.14950228
102	0xbdb86968	-0.0900448
103	0x3d0776ff	0.033072468
104	0x3d41e66d	0.04733889
105	0x3e35d1e5	0.1775585
106	0x3ca43fd0	0.02004996
107	0x3d9aa0a6	0.075501725
108	0x3d3629b6	0.044473372
109	0x3e48bcc9	0.19603266
110	0x3e6d6ea3	0.23186736
111	0x3e2d6749	0.16933931
112	0x3d86160f	0.06547176
113	0x3e35ae99	0.17742385
114	0x3de7180b	0.11283883
115	0x3d75e50d	0.060032893
116	0x3d4a876e	0.049445562
117	0x3e3e9e26	0.18615016
118	0x3d4d85bc	0.050176367
119	0xbd2c6f24	-0.04209818
120	0x3dffe986	0.12495713
121	0x3d163645	0.03667285
122	0xbd8c9817	-0.06864946
123	0x3e295a71	0.16538407
124	0x3e268bf3	0.16264324
125	0x3e238b10	0.15971017
126	0x3e0fb4ac	0.14033765
127	0x3e4fc590	0.20290208
128	0xbd4bac91	-0.04972512
129	0x3d55bbdb	0.052181106
130	0xbd2a890c	-0.041634604
131	0x3e1f0157	0.15527855
132	0x3e07d560	0.1326499
133	0x3d185761	0.037192706
134	0xbe4886e8	-0.19582713
135	0xbe102eca	-0.14080349
136	0x3dd5a9a1	0.10432745
137	0x3dcd1b25	0.10014943
138	0xbda83d06	-0.08214764
139	0x3de66065	0.112488545
140	0x3cd6ee30	0.026236624
141	0xbda4a978	-0.08040136
142	0xbdf160db	-0.11786052
143	0x3ddd4424	0.108040124
144	0xbd68ec66	-0.056866072
145	0x3cb5d9a0	0.022198498
146	0x3cda27b3	0.026630258
147	0xbdba85ff	-0.09107589
148	0x3cd3543d	0.025797004
149	0x3d27e6c2	0.040991552
150	0xbd3d0076	-0.046143018
151	0xbdba6ed4	-0.0910317
152	0x3df4c763	0.119520925
153	0x3df4fcf9	0.11962313
154	0x3cde3ae9	0.0271277
155	0x3bf23380	0.007391393
156	0x3dcb0668	0.09913331
157	0x3cb58ee0	0.022162855
158	0xbd448426	-0.04797759
159	0x3d03ad0c	0.032147452
160	0xbde960a8	-0.11395389
161	0x3c4e6c0a	0.012599001
162	0x3cea30ad	0.028587664
163	0xbbcccf00	-0.0062502623
164	0xbcfbec78	-0.030752406
165	0x3d034aa5	0.03205361
166	0xbbfa05e0	-0.007630095
167	0xbd9e2c94	-0.07723346
168	0xbdb51055	-0.08841006
169	0x3d8c211c	0.068422526
170	0xbd4aebd0	-0.049541295
171	0xbd6ab9da	-0.057306148
172	0xbd3bb9f2	-0.04583163
173	0x3daeadb1	0.08529223
174	0x3cce2745	0.02516521
175	0x3cea5fa8	0.028610066
176	0x3d273a22	0.040826924
177	0x3d1232ba	0.035692908
178	0xbba204a0	-0.004944399
179	0x3c8303db	0.01599305
180	0x3c3f5cf0	0.011679873
181	0xbd887c78	-0.066643655
182	0x3cb43f64	0.022002883
183	0xbda4739d	-0.08029864
184	0x3cd24838	0.025669202
185	0xbdb6025c	-0.08887169
186	0xbc5af920	-0.01336506
187	0x3dd9ab2e	0.10628353
188	0xbdc632d3	-0.09677663
189	0xbd8a9337	-0.0676636
190	0xbc10fec0	-0.0088498
191	0xbcbfcd84	-0.023413427
192	0x3d823d89	0.06359393
193	0x3c2beee0	0.010493964
194	0xbd9a454c	-0.075327486
195	0xbd272c36	-0.040813647
196	0xbcb829f4	-0.022480942
197	0x3db619ef	0.08891665
198	0x3cd40a82	0.025883917
199	0x3bb95100	0.005655408
200	0x3cecb402	0.028894428
201	0xbd36311e	-0.044480436
202	0x3df2fb3d	0.11864326
203	0xbde4f37c	-0.111792535
204	0xbe4f768b	-0.20260064
205	0xbe378d03	-0.17924885
206	0x3d340b8a	0.043956317
207	0x3ba7de09	0.005122904
208	0x3bc552d9	0.006021839
209	0x3e062164	0.13098675
210	0x3caf8bf0	0.021429032
211	0xbccf3fd1	-0.025298985
212	0x3dc4127b	0.09573837
213	0x3e139c4b	0.1441509
214	0x3d195ae9	0.037440214
215	0x3d8d312d	0.06894145
216	0x3dfaaaee	0.122396335
217	0x3d9eb036	0.07748453
218	0x3d97ed2a	0.07418282
219	0x3e51f48f	0.20503448
220	0xbe920fd9	-0.28527716
221	0x3d22dfac	0.03976409
222	0x3ddbfd95	0.10741726
223	0x3d96f844	0.07371572
224	0x3e1c71f5	0.15277846
225	0x3e45b95c	0.1930899
226	0x3d0c363b	0.034231406
227	0x3e595969	0.21225514
228	0x3e8a83bf	0.2705364
229	0x3e5bf5a8	0.21480429
230	0x3d90c23b	0.070682965
231	0x3ce107f3	0.02746961
232	0x3de2b93c	0.11070487
233	0x3d0237a3	0.03179134
234	0xbb6ec668	-0.0036434177
235	0x3d8f2618	0.06989688
236	0xbb9e2e70	-0.004827313
237	0xbe2b653e	-0.1673784
238	0xbd768be6	-0.06019201
239	0x3d083f14	0.03326328
240	0x3d9febd9	0.07808656
241	0x3e39e99b	0.1815552
242	0x3dee04a7	0.11621981
243	0x3df19509	0.11796004
244	0x3d2178df	0.039421912
245	0x3e2ce64d	0.16884728
246	0x3eaa9951	0.33320096
247	0x3e95f843	0.2929097
248	0x3e3f3a59	0.18674602
249	0x3d7f323e	0.062303774
250	0x3cddf42a	0.027093966
251	0x3dc6a135	0.096987166
252	0x3d8c3b52	0.06847252
253	0x3df8882a	0.12135346
254	0xbd8f032e	-0.06983028
255	0xbe66df94	-0.22546226

model.0.bias f4 [32]
0	0x3eaa7c7c	0.332981
1	0x3ea748e4	0.326728
2	0xbdf59d9b	-0.119929515
3	0x3ecdfc0f	0.40231368
4	0xbda638e6	-0.08116321
5	0xbe02dd2e	-0.12779686
6	0x3eb64f67	0.35607454
7	0x3e877125	0.2645351
8	0xbdf65994	-0.120288044
9	0xbda9e964	-0.08296469
10	0xbdd2aa3b	-0.10286375
11	0x3da9d389	0.082923
12	0x3eb6ca98	0.35701442
13	0x3e7483a1	0.23878337
14	0x3e8972f3	0.26845512
15	0xbdc547ee	-0.0963286
16	0xbe009351	-0.12556197
17	0x3ec4b7a6	0.38421363
18	0xbdf3b8c3	-0.11900475
19	0xbdf17705	-0.11790279
20	0x3e84fb79	0.25973108
21	0xbde7251e	-0.112863764
22	0x3df9ae94	0.12191501
23	0x3e8ba0ab	0.27271017
24	0xbdcf401b	-0.10119649
25	0xbdc7c655	-0.09754626
26	0xbdc9ffa0	-0.0986321
27	0x3d119625	0.03554358
28	0xbdbf5e35	-0.093441404
29	0xbde76c88	-0.112999976
30	0xbe024247	-0.12720595
31	0xbe0c2800	-0.13687134

model.2.weight f4 [32, 32]
0	0xbc587242	-0.013210835
1	0xbd2c8917	-0.042122927
2	0xbdaf0ab1	-0.08546961
3	0xbde71e70	-0.11285102
4	0xbe0ea561	-0.13930275
5	0xbd2dd00a	-0.04243473
6	0xbdd950cd	-0.10611115
7	0xbe1138d6	-0.14181837
8	0xbe876f06	-0.26451892
9	0x3da6fbf4	0.08153525
10	0xbbc22c1f	-0.00592567
11	0xbe2cc0c2	-0.16870406
12	0x3a921f9f	0.001114834
13	0xbcb551e7	-0.02213378
14	0xbe868b03	-0.26277933
15	0xbd43db27	-0.04781642
16	0x3d36eae0	0.044657588
17	0x3d76431f	0.060122605
18	0xbdd0ea72	-0.10200967
19	0x3df60eea	0.120145634
20	0xbc23452a	-0.0099652205
21	0xbdf3640a	-0.11884315
22	0xbdbc37f2	-0.09190358
23	0xbd697e7a	-0.057005383
24	0xbd76d7ba	-0.060264327
25	0x3d09fcc2	0.033688314
26	0x3cd41878	0.025890574
27	0xbe2bb7b0	-0.1676929
28	0xbdd8f340	-0.10593271
29	0xbe1762cd	-0.14783783
30	0x3e0d0ce5	0.1377445
31	0xbe396d09	-0.18108
32	0xbd3e3434	-0.046436504
33	0x3d8886ad	0.06666312
34	0x3d86ab82	0.06575681
35	0xbaad8f08	-0.0013241479
36	0x3d8a2f23	0.06747272
37	0xbdf85ffd	-0.12127683
38	0xbda4c2b9	-0.08044953
39	0xbd806f91	-0.062712796
40	0xbd02fb39	-0.031977866
41	0xbe395c67	-0.18101655
42	0x3e259adc	0.16172355
43	0x3e34da94	0.17661506
44	0x3cd3d458	0.02585809
45	0xbd7a47d9	-0.061103676
46	0x3e017122	0.12640813
47	0xbd55f1d0	-0.052232563
48	0x3e1002dd	0.14063592
49	0x3e5f9d78	0.21837413
50	0x3e01576f	0.1263101
51	0xbdd9e7fa	-0.10639949
52	0xbdc4670e	-0.095899686
53	0xbe24b548	-0.16084778
54	0x3d0de986	0.034646533
55	0xbd1f4a2e	-0.038889103
56	0xbdec68fe	-0.11543463
57	0x3e040587	0.12892734
58	0x3dc6c0c8	0.09704739
59	0x3e224bc8	0.15849221
60	0x3d3e373b	0.04643939
61	0xbdf7dce3	-0.12102678
62	0xbcb13dd2	-0.021635924
63	0xbac7c703	-0.0015241805
64	0xbe0ee3f3	-0.13954143
65	0xbd3ef252	-0.046617813
66	0x3d3b62b8	0.045748442
67	0x3d9475ea	0.07249053
68	0x3dce07e6	0.100601
69	0xbd04929e	-0.032366388
70	0x3dd65bf1	0.10466755
71	0x3d99dcb3	0.07512798
72	0xbd77d142	-0.0605023
73	0x3c468602	0.012116911
74	0xbdcc2103	-0.09967234
75	0x3ce50859	0.027958082
76	0x3ded678b	0.11592015
77	0x3d711456	0.058857284
78	0xbccbb9ed	-0.02486893
79	0xbe3488a3	-0.17630248
80	0xbcdf8188	-0.027283445
81	0xbc030b58	-0.00799831
82	0x3dc74e9a	0.09731789
83	0x3ce4e612	0.027941737
84	0xbdfa58b6	-0.122239515
85	0xbda2b53d	-0.07944725
86	0xbdfa68f1	-0.12227047
87	0xbe13b402	-0.14424136
88	0xbe0c875c	-0.1372351
89	0xbe33ded8	-0.17565477
90	0x3e123b3f	0.14280413
91	0x3e0894b1	0.13337971
92	0x3df08efb	0.11746021
93	0x3de58c91	0.112084515
94	0xbe1fce53	-0.1560605
95	0x3e150dab	0.14555995
96	0xbd573167	-0.052537348
97	0xbdc9e479	-0.09858031
98	0xbe1e6f19	-0.15472068
99	0x3dca18b0	0.0986799
100	0xbd4e9980	-0.050439358
101	0x3d1b2232	0.037874408
102	0xbbe5dbe4	-0.0070147384
103	0xbdf3c56e	-0.11902891
104	0x3deee54b	0.11664828
105	0xbd0eb184	-0.03483726
106	0xbdbbb103	-0.09164622
107	0xbdc4dbbd	-0.09612224
108	0x3d69b5d0	0.057058156
109	0x3d11dadf	0.035609122
110	0xbcafba65	-0.021451185
111	0xbdd2696f	-0.10274016
112	0x3e13d60e	0.14437124
113	0x3e5f5d5b	0.21812956
114	0xbc707bc1	-0.014677943
115	0xbdc3772f	-0.09544217
116	0xbd63893b	-0.055550795
117	0x3e0906e8	0.13381541
118	0x3d20472e	0.039130382
119	0x3db54491	0.08850969
120	0xbdd21154	-0.10257211
121	0x3e08d134	0.13361055
122	0xbdcaf587	-0.09910112
123	0xbd2c6d73	-0.042096566
124	0xbb1cf0c7	-0.0023947225
125	0xbda6ae74	-0.08138743
126	0x3e37b078	0.17938411
127	0xbc968d36	-0.018377881
128	0x3dde8162	0.108645216
129	0x3ca90be9	0.020635562
130	0xbd8a452b	-0.06751474
131	0x3dd48281	0.10376454
132	0x3c759f80	0.014991641
133	0xbcf18c58	-0.029485866
134	0xbdd9c3df	-0.106330626
135	0xbd78b554	-0.060719803
136	0xbcb63c00	-0.022245407
137	0x3caec6f8	0.02133511
138	0x3da86ba4	0.08223656
139	0x3dc2045e	0.09473489
140	0xbe48079c	-0.19534153
141	0x3e0dbd61	0.13841774
142	0xbc9ca1e2	-0.01912016
143	0x3d3a3ecc	0.045470044
144	0xbd1340c4	-0.035950437
145	0x3d109903	0.035302173
146	0x3e0b3f41	0.13598348
147	0xbd640abc	-0.0556743
148	0xbd3740c8	-0.044739515
149	0xbdfdca8d	-0.12392149
150	0x3de9123e	0.113804325
151	0xbde5ab56	-0.1121432
152	0xbd251ca4	-0.040310517
153	0xbe53da8a	-0.20688835
154	0xbbd2c660	-0.0064323395
155	0xbdf36ac5	-0.11885599
156	0xbbbf5020	-0.005838409
157	0xbe15620f	-0.14588188
158	0x3d913bee	0.07091509
159	0x3e29a041	0.16565038
160	0x3dabd5a0	0.08390355
161	0xbd13310b	-0.035935443
162	0x3d28dffb	0.04122923
163	0x3e197465	0.14985807
164	0x3dc55180	0.096346855
165	0xbd2ac1c6	-0.041688703
166	0x3e04cbe3	0.12968402
167	0x3e4b2870	0.19839644
168	0xbaf38649	-0.0018579449
169	0x3d2825c5	0.041051645
170	0x3b1f65c1	0.0024322125
171	0xbd2eb3f8	-0.0426521
172	0x3e06d200	0.13166046
173	0xbcfecbd8	-0.03110306
174	0xbe353c68	-0.17698824
175	0xba899cbf	-0.0010498984
176	0x3e05ccd3	0.13066415
177	0x3e02a9e3	0.12760119
178	0x3e065e36	0.13121876
179	0x3e262fac	0.16229123
180	0x3cf4b622	0.029872004
181	0xbe13ae69	-0.14422001
182	0x3e069372	0.13142183
183	0x3de86b7a	0.113486245
184	0xbc855ca1	-0.01627952
185	0x3d9cc781	0.0765524
186	0xbdb766c5	-0.089551486
187	0xbe1aeaa7	-0.15128575
188	0x3e091f67	0.13390885
189	0x3c02e5a3	0.00798932
190	0xbd6353a3	-0.055499684
191	0x3d74866b	0.059698503
192	0x3ddc27ca	0.10749777
193	0xbe374bc0	-0.1789999
194	0xbdfb1267	-0.12259369
195	0xbdf3df7a	-0.11907859
196	0xbdc49d60	-0.096003294
197	0xbd5c3b0a	-0.05376724
198	0x3d52ef7a	0.051497914
199	0xbdac7fa2	-0.084227815
200	0x3d8b62b9	0.06805939
201	0xbde34f6e	-0.110991344
202	0x3dbead5a	0.09310408
203	0x3d10d5f9	0.03536031
204	0x3e0fa312	0.1402705
205	0x3d73176b	0.059348505
206	0xbd846dc8	-0.064662516
207	0xbd657a0e	-0.056024604
208	0xbcc856b0	-0.024455398
209	0xbe1d4da2	-0.15361646
210	0xbc5f2b80	-0.013621211
211	0x3be55020	0.006998077
212	0xbbf7807a	-0.0075531574
213	0x3de62f16	0.1123945
214	0x3bb00de6	0.0053727506
215	0x3da3e880	0.0800333
216	0xbd742a8a	-0.05961088
217	0xbe0ac58e	-0.13551924
218	0xbd0ba2fc	-0.03409098
219	0x3d443c55	0.0479091
220	0x3d040cf8	0.03223893
221	0xbe1ef345	-0.15522487
222	0x3d4a4d80	0.049390316
223	0xbd589e58	-0.052885383
224	0xbd0cdf3f	-0.03439259
225	0x3e043f86	0.12914857
226	0xbd73b167	-0.059495356
227	0x3e370cf5	0.17876036
228	0xbdce442c	-0.100715965
229	0xbe2437db	-0.16036932
230	0xbd8f5b41	-0.06999827
231	0xbd122c60	-0.03568685
232	0xbc91c288	-0.017792955
233	0xbd95aeb0	-0.073087096
234	0xbd7c50ef	-0.06160062
235	0x3e1005e4	0.14064747
236	0x3d27e0dc	0.040985927
237	0x3e64e767	0.22353898
238	0x3d6eda7c	0.05831383
239	0x3c27e522	0.010247501
240	0xbdd0c6f8	-0.101942
241	0x3d4d27a5	0.050086636
242	0x3e241812	0.16024807
243	0x3b99f7ba	0.0046987208
244	0xbbf30ff6	-0.007417674
245	0xbd96f051	-0.073700555
246	0xbd806748	-0.06269699
247	0xbd001ca1	-0.031277303
248	0x3e071f30	0.13195491
249	0xbe3b0051	-0.1826184
250	0xbe09097e	-0.13382527
251	0xbe037910	-0.1283915
252	0x3dda5292	0.1066028
253	0xbe19e8ab	-0.15030162
254	0x3e508f29	0.20367111
255	0xbb9797b5	-0.004626239

model.2.bias f4 [32]
0	0x3eb230f1	0.34802964
1	0x3eddfd56	0.43357342
2	0xbe2d6528	-0.1693312
3	0x3ed43798	0.41448665
4	0xbe39932b	-0.18122546
5	0x3ece2ca9	0.40268448
6	0xbe20572a	-0.1565825
7	0x3eee71de	0.4657125
8	0x3ec96098	0.39331508
9	0x3d84264a	0.064526156
10	0x3eb4f7ad	0.35345212
11	0x3eb89e1d	0.3605813
12	0xbdd9798f	-0.106188886
13	0x3dc4ae29	0.09603531
14	0x3b84cf36	0.004053022
15	0x3ed7e368	0.42165685
16	0x3c98f5e0	0.01867193
17	0xbc82c6d8	-0.015963957
18	0xbdb07716	-0.08616464
19	0x3ea0d300	0.3141098
20	0xbcef89da	-0.029240537
21	0x3dbf4186	0.093386695
22	0xbe0cd3e9	-0.13752712
23	0x3eb8d697	0.3610122
24	0xbc96cce5	-0.018408248
25	0xbd1eba84	-0.038752094
26	0xbd931d75	-0.07183353
27	0xbcdf230f	-0.027238397
28	0x3cf6e61f	0.030139027
29	0xbdcaaa32	-0.098957434
30	0x3d29da85	0.041468162
31	0xbe1d1282	-0.15339091

model.4.weight f4 [1, 32]
0	0x3e0bf457	0.13667427
1	0x3e254920	0.16141176
2	0xbd8b2652	-0.067944184
3	0x3e861c03	0.26193246
4	0x3de7e325	0.11322621
5	0x3e161d27	0.14659558
6	0xbd46f329	-0.04857174
7	0x3ea23bfb	0.31686386
8	0x3e1324a0	0.1436944
9	0xbd7f0b03	-0.06226636
10	0x3e815bb7	0.25265285
11	0x3e89d4c7	0.2692015
12	0xbe04ff72	-0.1298807
13	0xbe0ff46c	-0.14058083
14	0xbd214ba6	-0.039378785
15	0x3e95ed0e	0.2928242
16	0xbbea72c5	-0.007154795
17	0x3d8c849a	0.06861229
18	0xbcd604a8	-0.026125267
19	0x3e96aef4	0.29430354
20	0xbd53ca41	-0.051706556
21	0x3bfba4f2	0.007679575
22	0xbd06f330	-0.032946765
23	0x3e96cd68	0.29453588
24	0xbdf03e97	-0.11730688
25	0xbe18fa24	-0.14939171
26	0xbda697ec	-0.081344455
27	0xbd7ca18b	-0.061677497
28	0xbd301dc6	-0.042997144
29	0xbcc7ae0f	-0.02437499
30	0xbdb5ac09	-0.08870704
31	0x3e0588d1	0.13040473
