models/var-info-max/empowerment_2_steps/CrossRoom-v0_source_distr.pth (torch_old, 17541 bytes, 6 tensors)

model.0.weight f4 [32, 68]
-0.12267263 -0.11587856 -0.11283324 -0.025866933 -0.11213096 -0.11667507 -0.13167532 -0.116713874
-0.12082676 0.17738612 -0.11385126 -0.12529136 -0.12043519 -0.12553191 -0.11926924 0.44387895
-0.11288214 0.38894662 0.09143713 0.024141569 -0.11666595 -0.115690425 0.28363186 -0.13667208
-0.12261515 -0.11543594 -0.120376386 0.26489174 0.2657548 0.15796036 -0.11784541 0.27375188
0.10540355 -0.12234925 -0.11076626 0.08376397 -0.11052818 -0.1381824 -0.11154236 -0.11249187
-0.022545425 -0.1284474 0.16674657 -0.1436888 0.5468424 -0.13100205 0.14761281 0.15960017
-0.11035468 -0.0032180126 -0.038032267 -0.081331834 0.4740612 -0.14149697 -0.14177506 -0.13907416
-0.118636265 -0.02324123 0.1365387 -0.11563752 -0.11094004 -0.004733769 -0.13414043 -0.13344659
-0.11394395 -0.13409068 -0.13356906 -0.1265032 -0.16119413 -0.17666845 -0.121422336 0.05690935
0.1871037 0.35742941 0.07654806 0.52444667 0.30597913 0.30878866 0.15930706 0.24515721
0.2201443 0.38783866 -0.07963138 0.17196321 -0.16980922 -0.12387814 -0.09510784 -0.18229848
-0.15990691 -0.18181862 -0.16479634 0.21916848 -0.16737008 -0.12513702 -0.20005131 -0.15740882
-0.08911073 -0.15482207 -0.16549443 -0.15805408 -0.16922918 -0.17451468 -0.14433524 0.18721664
-0.17282328 -0.13806255 0.08984516 -0.16389576 -0.15111648 0.06001192 -0.17371854 -0.20393503
-0.17371228 -0.2026253 -0.16348624 -0.15503682 -0.1259875 -0.17575687 -0.17746693 -0.16456366
0.33456376 -0.1226861 0.24667773 0.083502084 0.1678077 0.17465216 0.08194797 0.40202254
0.16813931 0.38300815 0.05863091 0.21917777 -0.046523206 0.18738039 -0.19956297 0.4164755
0.38933554 -0.14350267 0.1363143 -0.14723 0.016718328 -0.14209415 0.15283537 -0.09447322
0.15960619 -0.12843491 0.19102022 -0.13730255 0.04608034 -0.104270145 0.12589252 -0.1613844
0.20352201 0.3834389 -0.083693095 0.13335899 0.17519574 0.06583094 0.28066406 -0.033114623
-0.087759815 -0.14221716 0.55300367 0.049745977 -0.027694028 0.36672127 0.26415294 0.089209355
0.32374206 -0.111140765 -0.105478965 -0.025351752 -0.14094734 -0.09002137 -0.10348256 -0.07229564
-0.18525243 -0.07125249 -0.077111624 -0.14161721 -0.06638226 0.01534906 -0.06431692 -0.091780305
-0.104671516 -0.043894142 0.2295449 -0.17040664 -0.18159762 -0.17059514 0.14657126 -0.16770194
0.1947897 0.039212238 -0.011405115 -0.1700631 -0.08411368 -0.032655817 0.06346052 -0.13791691
0.22586066 -0.16790713 -0.09190202 -0.17302068 -0.13690132 -0.053625766 -0.049106326 0.0831737
-0.080223754 -0.11900389 -0.0634721 0.36863545 -0.12730865 -0.119271174 -0.14411664 -0.121979
-0.09705856 -0.1420589 -0.14590533 -0.050451044 -0.15693498 0.20811002 -0.07214192 -0.13812408
-0.14638647 -0.05760847 -0.14119077 -0.07449311 0.24646296 -0.084478185 -0.046759784 -0.1613691
-0.14194468 -0.1268606 -0.08637813 -0.14295453 -0.1430676 -0.13885322 0.35727674 0.42634097
-0.0071286345 -0.052220818 0.115207165 -0.048633445 -0.04406336 0.94530874 -0.104302086 -0.14507534
-0.120153256 0.10696245 0.26825988 -0.150647 -0.07003472 0.13625646 0.2789314 -0.13903677
00000000: ca3b fbbd bd51 edbd 1d15 e7bd e4e6 d3bc
00000010: eba4 e5bd 57f3 eebd e5d5 06be af07 efbd
00000020: 0574 f7bd b5a4 353e d92a e9bd 614c 00be
00000030: baa6 f6bd 708b 00be 6e43 f4bd 1a44 e33e
00000040: c02e e7bd 0324 c73e 6443 bb3d 8ac4 c53c
00000050: 8fee eebd 1aef ecbd 3238 913e c4f3 0bbe
00000060: a71d fbbd ae69 ecbd e587 f6bd e49f 873e
00000070: 0311 883e 5cc0 213e ef58 f1bd 3529 8c3e
00000080: d1dd d73d 3e92 fabd 6cd9 e2bd 728c ab3d
00000090: 995c e2bd b07f 0dbe 5270 e4bd 2362 e6bd
000000a0: 2fb1 b8bc b787 03be 9dbf 2a3e 2823 13be
000000b0: ddfd 0b3f 6725 06be d027 173e 3a6e 233e
000000c0: a201 e2bd 4be5 52bb b9c7 1bbd 4e91 a6bd
000000d0: 26b8 f23e 95e4 10be 7b2d 11be 7569 0ebe
000000e0: 92f7 f2bd 6464 bebc cdd0 0b3e 5dd3 ecbd
000000f0: 8834 e3bd bc1d 9bbb 1c5c 09be 39a6 08be
00000100: 725b e9bd 114f 09be 54c6 08be 0e8a 01be
00000110: 1310 25be 93e8 34be 46ac f8bd c719 693d
00000120: 1d98 3f3e fd00 b73e 3bc5 9c3d 2342 063f
00000130: 4ca9 9c3e 8c19 9e3e 6421 233e 7e0a 7b3e
00000140: 826d 613e ca92 c63e c715 a3bd 2017 303e
00000150: 78e2 2dbe d2b3 fdbd e6c7 c2bd 74ac 3abe
00000160: a3be 23be a92e 3abe 5fc0 28be b46d 603e
00000170: 1063 2bbe eb23 00be 40da 4cbe c72f 21be
00000180: b07f b6bd ad89 1ebe 5f77 29be eed8 21be
00000190: 6a4a 2dbe fab3 32be 9ecc 13be b8b5 3f3e
000001a0: 96f8 30be 4560 0dbe bd00 b83d 4ad4 27be
000001b0: 47be 1abe 0fcf 753d 46e3 31be 58d4 50be
000001c0: a2e1 31be 027d 4fbe f068 27be f9c1 1ebe
000001d0: de02 01be 9cf9 33be e4b9 35be 6083 28be
000001e0: f14b ab3e da42 fbbd 1699 7c3e 2403 ab3d
000001f0: c8d5 2b3e 04d8 323e 56d4 a73d e6d5 cd3e
00000200: b62c 2c3e a519 c43e f726 703d 2370 603e
00000210: 1e8f 3ebd a5e0 3f3e 3c5a 4cbe 473c d53e
00000220: fd56 c73e 5df2 12be fa95 0b3e 76c3 16be
00000230: e0f4 883c 2181 11be e080 1c3e 2d7b c1bd
00000240: ce6f 233e 7184 03be ce9a 433e 0a99 0cbe
00000250: bdbe 3c3d 968b d5bd f8e9 003e f441 25be
00000260: 1368 503e 1a52 c43e 4967 abbd 428f 083e
00000270: 8366 333e 5fd2 863d 33b3 8f3e 33a3 07bd
00000280: 6bbb b3bd 60a1 11be a691 0d3f 70c2 4b3d
00000290: 96de e2bc e4c2 bb3e 0e3f 873e 65b3 b63d
000002a0: 85c1 a53e c59d e3bd 5b05 d8bd 7aae cfbc
000002b0: 8054 10be 205d b8bd aaee d3bd bd0f 94bd
000002c0: d0b2 3dbe d3ec 91bd b3ec 9dbd 1a04 11be
000002d0: 6cf3 87bd a07a 7b3c 97b8 83bd 50f7 bbbd
000002e0: 055e d6bd 58ca 33bd d10d 6b3e 147f 2ebe
000002f0: baf4 39be 7eb0 2ebe c716 163e 0fba 2bbe
00000300: f376 473e 039d 203d 85dc 3abc 0525 2ebe
00000310: cb43 acbd 1bc2 05bd 97f7 813d 173a 0dbe
00000320: 0448 673e d9ef 2bbe 2037 bcbd 552c 31be
00000330: dc2f 0cbe b1a6 5bbd b723 49bd f956 aa3d
00000340: 5a4c a4bd 50b8 f3bd a9fd 81bd c9bd bc3e
00000350: 335d 02be 7244 f4bd 5093 13be 20d0 f9bd
00000360: a3c6 c6bd e377 11be 3568 15be c1a5 4ebd
00000370: 90b3 20be cb1a 553e 25bf 93bd 6670 0dbe
00000380: 56e6 15be dcf6 6bbd 5094 10be d88f 98bd
00000390: c960 7c3e e602 adbd 3087 3fbd f13d 25be
000003a0: f259 11be bfe7 01be 04e7 b0bd ac62 12be
000003b0: 5080 12be 8a2f 0ebe faec b63e 5d49 da3e
000003c0: 5297 e9bb 7fe5 55bd bcf1 eb3d dd33 47bd
000003d0: c87b 34bd c1ff 713f 559c d5bd a18e 14be
000003e0: e912 f6bd 210f db3d 5c59 893e 3543 1abe
000003f0: 5d6e 8fbd d086 0b3e 19d0 8e3e a85f 0ebe

model.0.bias f4 [32]
-0.07894965 0.057780113 -0.09261314 -0.0008499203 0.019223824 0.055704564 -0.012028267 0.07164966
0.10509613 0.11621323 0.10413532 -0.112687744 -0.024974437 0.100320034 0.12841992 0.007926625
-0.015329415 -0.09810654 -0.038465295 -0.12288046 0.07517801 -0.048079547 -0.123872146 0.06850538
-0.04120877 0.016499566 -0.026985683 0.080625445 0.015367257 -0.102498405 -0.113403164 0.03179014
00000000: 5bb0 a1bd d7aa 6c3d f5ab bdbd 30cd 5eba
00000010: 487b 9d3c 782a 643d 3512 45bc 0fbd 923d
00000020: a43c d73d 3401 ee3d e644 d53d d5c8 e6bd
00000030: 3197 ccbc 9774 cd3d 8380 033e adde 013c
00000040: 3a28 7bbc 15ec c8bd c98d 1dbd c0a8 fbbd
00000050: eef6 993d 0fef 44bd aeb0 fdbd 8c4c 8c3d
00000060: 87ca 28bd 192a 873c 1411 ddbc f41e a53d
00000070: f3c6 7b3c afea d1bd eb3f e8bd 6136 023d

model.2.weight f4 [32, 32]
0.2728756 0.081084475 -0.0036024575 0.21335448 -0.22202547 0.034484196 0.28031963 -0.71272755
0.4108912 -0.7719432 0.20944017 -0.17949918 0.40012813 0.17102279 0.31954816 -0.10715362
-0.6287176 -0.501821 -0.4593933 0.048622772 0.08208574 0.24784641 0.34847695 -0.5657557
-0.31377882 0.4313058 0.24138193 0.30669037 0.12515585 0.22025128 -0.13202323 0.45766875
-0.24717508 0.111348584 -0.42166704 0.20785652 0.0019200568 -0.07921586 0.49211052 -0.047356587
-0.7980664 -0.5306 -0.286453 -0.4608437 0.16151644 0.06956622 -0.31704837 0.17906809
-0.33185235 0.0030054643 0.23968248 -0.007998573 0.04955453 0.21322468 0.6643812 0.3020428
-0.02841766 -0.041142303 -0.7314382 -0.3714137 -0.15609233 0.109858826 -0.049976427 -0.48334908
0.54068154 -0.049542114 -0.07353479 -0.33894905 -0.14019012 -0.016698575 -0.6044227 0.2552432
-0.02184473 0.060411766 -0.009005349 -0.6410979 -0.18437436 -0.34170014 0.5366524 -0.107711665
-0.18009946 -0.37889633 0.12608185 0.05749978 -0.40239084 0.24791145 0.080123015 0.09567391
0.119418986 0.17511308 0.13991582 0.012515396 0.009792954 -0.7133626 0.11759482 0.08418195
0.02566938 0.26520124 0.09855931 0.50315094 0.15330365 0.5515711 -0.08262499 -0.041193265
0.34471548 0.36647174 -0.052921925 0.0068368674 -0.19158635 -0.49623987 -0.12532693 0.40787134
0.11722188 0.04876115 0.041914754 0.027794957 -0.22812235 0.30630857 -0.015813902 -0.7725615
0.3334718 -0.35048738 -0.15172133 0.20743524 0.11516744 0.015188192 -0.07932881 -0.50354576
-0.6227746 0.108741455 0.016446505 0.3023377 -0.20862411 0.058932483 0.11099555 0.32597557
-0.24307075 -0.24032897 -0.1087931 -0.28310174 -0.36685863 -0.15469469 -0.3948376 -0.420165
0.03845937 0.13488694 0.075725794 -0.042207405 0.109094664 0.3415929 -0.38143602 -0.15415248
0.42046532 -0.3243981 0.45025486 0.24040857 0.15638563 -0.19660516 0.11258671 -0.4072542
0.35525206 0.021579128 -0.16281988 -0.2883681 0.02201804 -0.183473 -0.14856893 -0.4027808
-0.15876757 -0.52054894 -0.50872856 0.25315142 -0.14532457 0.094761744 -0.24038585 -0.3596898
0.2936183 -0.5164001 -0.10561413 0.033073097 -0.28935757 0.48036632 -0.60126853 0.115280904
-0.005322673 -0.42972744 -0.12689263 -0.23579316 0.16038948 -0.19653735 -0.070509315 0.6820209
-0.13506943 0.41788992 -0.120878525 -0.061752673 0.27638254 0.29171327 -0.113166474 0.16539511
-0.09949168 0.137205 -0.16242412 0.041560546 -0.54567987 0.0034882135 0.2641558 -0.067473754
-0.036660384 0.41927382 -0.14048322 0.13340692 0.30956072 -0.06584828 0.057451267 0.082073376
-0.18922205 -0.57262874 0.02416721 -0.21151091 0.027404476 -0.3110824 0.027983189 -0.041343607
0.032982223 -0.4651479 0.0914182 -0.5606559 0.31212166 -0.28372648 0.019195657 -0.33246878
0.20798784 -0.09860621 0.39984232 0.050176844 -0.16156478 -0.093651354 -0.049451362 0.5696181
0.037207343 0.002803022 -0.21058562 -0.0029600535 0.32974255 -0.16523969 -0.4845093 0.09647652
0.54005784 0.0068948576 -0.07742456 -0.62274504 -0.5271974 -0.020009924 -0.13807191 -0.24515054
00000000: 5ab6 8b3e 9e0f a63d 3517 6cbb 9979 5a3e
00000010: a55a 63be 4d3f 0d3d 0e86 8f3e 5075 36bf
00000020: 5560 d23e 129e 45bf 7c77 563e a2ce 37be
00000030: 98dd cc3e 9920 2f3e d19b a33e 5b73 dbbd
00000040: a3f3 20bf 5777 00bf 9935 ebbe ac28 473d
00000050: 921c a83d 73cb 7d3e 926b b23e 5ed5 10bf
00000060: 9ea7 a0be 1dd4 dc3e d32c 773e 8506 9d3e
00000070: db28 003e 8d89 613e 1931 07be 8f53 ea3e
00000080: 771b 7dbe ba0a e43d bee4 d7be 57d8 543e
00000090: 6aaa fb3a ed3b a2bd e9f5 fb3e fbf8 41bd
000000a0: 144e 4cbf 67d5 07bf f8a9 92be b5f3 ebbe
000000b0: 9164 253e bc78 8e3d 2a54 a2be a05d 373e
000000c0: 8de8 a9be 53f7 443b 536f 753e 720c 03bc
000000d0: b1f9 4a3d 9257 5a3e e314 2a3f 5ba5 9a3e
000000e0: 27cc e8bc d584 28bd 893f 3bbf f029 bebe
000000f0: abd6 1fbe aafd e03d 15b4 4cbd 8879 f7be
00000100: 1b6a 0a3f acec 4abd 6899 96bd bb8a adbe
00000110: 008e 0fbe 73cb 88bc 72bb 1abf 3daf 823e
00000120: b8f3 b2bc 5472 773d 2c8b 13bc fe1e 24bf
00000130: a2cc 3cbe 52f3 aebe 0d62 093f ef97 dcbd
00000140: fe6b 38be b3fe c1be 9a1b 013e e484 6b3d
00000150: 2c06 cebe 80dc 7d3e 8917 a43d aff0 c33d
00000160: f191 f43d d850 333e 1846 0f3e 600d 4d3c
00000170: a072 203c ee9e 36bf 8ed5 f03d 9667 ac3d
00000180: 9748 d23c 75c8 873e 77d9 c93d 80ce 003f
00000190: a2fb 1c3e c333 0d3f 4a37 a9bd 45ba 28bd
000001a0: 8c7e b03e 2fa2 bb3e a9c4 58bd cd07 e03b
000001b0: 362f 44be 2713 febe b455 00be 83d4 d03e
000001c0: 0612 f03d c6b9 473d ceae 2b3d 40b2 e33c
000001d0: e898 69be 7ad4 9c3e 288c 81bc 97c6 45bf
000001e0: d1bc aa3e 1573 b3be d65c 1bbe e769 543e
000001f0: e8dc eb3d e5d7 783c 2577 a2bd 60e8 00bf
00000200: 286e 1fbf d7b3 de3d d2ba 863c 02cc 9a3e
00000210: 8fa1 55be 3063 713d a351 e33d 45e6 a63e
00000220: 8ae7 78be cc18 76be ebce debd b6f2 90be
00000230: e5d4 bbbe 4968 1ebe 2728 cabe de1f d7be
00000240: 9387 1d3d cd1f 0a3e 2016 9b3d ace1 2cbd
00000250: 066d df3d 44e5 ae3e 954b c3be 26da 1dbe
00000260: 3b47 d73e 8217 a6be ce87 e63e aa2d 763e
00000270: 8e23 203e dd52 49be dc93 e63d 9f83 d0be
00000280: 99e3 b53e b6c6 b03c 41ba 26be fca4 93be
00000290: 2d5f b43c 59e0 3bbe 7422 18be 4939 cebe
000002a0: f793 22be b242 05bf 093c 02bf 109d 813e
000002b0: f7cf 14be 7212 c23d b527 76be 4329 b8be
000002c0: 2355 963e cc32 04bf 394c d8bd a877 073d
000002d0: ad26 94be 93f2 f53e bcec 19bf 6518 ec3d
000002e0: d169 aebb 3c05 dcbe 24f0 01be c373 71be
000002f0: 243d 243e 1641 49be 3067 90bd ec98 2e3f
00000300: a44f 0abe abf5 d53e 298f f7bd 5ff0 7cbd
00000310: 0382 8d3e 715b 953e d3c3 e7bd 565d 293e
00000320: 4bc2 cbbd 787f 0c3e 8252 26be 643b 2a3d
00000330: adb1 0bbf 839a 643b 6e3f 873e ae2f 8abd
00000340: 3329 16bd 0fab d63e d5da 0fbe d39b 083e
00000350: be7e 9e3e 77db 86bd 0552 6b3d 1616 a83d
00000360: 6dc3 41be cc97 12bf 50fa c53c 5196 58be
00000370: 5a7f e03c 3146 9fbe 003d e53c ea57 29bd
00000380: 5e18 073d de27 eebe 7739 bb3d 2587 0fbf
00000390: 69ce 9f3e 9944 91be 3640 9d3c 5939 aabe
000003a0: c4fa 543e 0df2 c9bd 22b8 cc3e 3c86 4d3d
000003b0: 3d71 25be 48cc bfbd 838d 4abd 7ed2 113f
000003c0: ba66 183d e8b2 373b c2a3 57be 75fd 41bb
000003d0: 04d4 a83e 9834 29be 9a11 f8be 7b95 c53d
000003e0: 3b41 0a3f 42ee e13b c590 9ebd 386c 1fbf
000003f0: 69f6 06bf daeb a3bc b962 0dbe be08 7bbe

model.2.bias f4 [32]
0.13974728 0.17422967 -0.07559588 -0.016079035 0.10330315 0.08885166 -0.011726521 0.01782658
0.03032594 -0.12342437 -0.024610776 0.2225299 0.23117846 0.10296824 0.030164314 -0.0022584733
-0.014284614 -0.08499776 -0.045743488 0.03182335 0.008962977 -0.031068929 -0.14624065 0.21521448
0.05368736 0.06729678 -0.22708818 0.06929364 0.009812022 0.097767584 -0.18549618 0.15201604
00000000: e919 0f3e 4369 323e 03d2 9abd 2eb8 83bc
00000010: 9a90 d33d dcf7 b53d 9820 40bc 0c09 923c
00000020: 1b6e f83c ebc5 fcbd 8a9c c9bc e1de 633e
00000030: 0cba 6c3e 03e1 d23d 271b f73c e502 14bb
00000040: 030a 6abc 4e13 aebd 865d 3bbd 3359 023d
00000050: 73d9 123c 4484 febc 1cc0 15be 2f61 5c3e
00000060: 47e7 5b3d e5d2 893d ce89 68be d3e9 8d3d
00000070: 9ac2 203c 5f3a c83d b6f2 3dbe 18aa 1b3e

model.4.weight f4 [25, 32]
-0.9625557 0.5477077 -0.026938023 -0.09319706 0.655144 -0.08635356 0.97736675 -0.5017722
-0.2141105 0.003875063 -0.50009173 0.37513193 -0.18947706 -0.7030644 -0.023364212 1.3024478
-0.14466888 0.10325411 0.43447217 0.5617416 0.6722765 -0.5753241 0.064438455 -0.3082784
-0.59237 -0.008763539 0.17405398 1.1333225 0.2905619 -0.2882273 0.21417217 0.3465714
0.08877022 -0.10703086 -0.016632795 0.15494291 -0.48733383 -0.15738913 -0.20464955 0.26497424
-0.47940946 0.005954077 -0.37416553 -0.055507593 -0.21518722 0.23859282 0.12099307 -0.14142294
0.2360846 -0.016136872 0.31207582 -0.10572122 -0.31716162 0.047045697 0.16573612 0.111282215
0.11246995 -0.24276333 0.112412296 -0.10252049 -0.33319938 0.44775352 -0.0017125054 -0.21861103
0.35668612 -0.12458639 -0.11968287 0.11314107 0.60941017 -0.02153676 0.077486746 -0.12035587
0.17770673 -0.088341795 -0.0796154 -0.8438312 0.50808316 -0.24032341 0.5686572 0.3478736
-0.10551174 0.17112504 0.5252958 -0.09369841 -0.16563314 -0.20244968 -0.02571696 -0.19286415
0.2291894 -0.23371394 0.05162983 0.29208666 0.34154102 -0.3835775 0.13131636 0.13823348
-0.07862874 0.086335145 0.0604376 -0.2624341 0.023158992 0.20215319 0.63437444 -0.16151772
-0.049842864 0.103982225 0.72827315 0.097993396 0.52278215 0.33749047 -0.5017983 0.57970023
-0.16874671 0.11470175 -0.34139743 -0.07472269 -0.33027062 -0.029560544 -0.0048481626 0.3255529
0.00035004516 0.16465712 0.08408968 0.26845106 -0.19470288 -0.41797027 -0.07222681 0.34829915
-0.17597534 0.10297155 -0.040854942 -0.2409552 -0.020066572 0.063040726 -0.14439736 -0.23431766
-0.22903189 0.09075255 0.079558246 -0.13299994 0.2163176 0.14483164 -0.12832019 0.1890723
-0.32906696 -0.018003838 0.046996057 0.3104976 -0.08058468 -0.17352441 -0.09265903 0.08140091
0.07297838 -0.04889147 -0.12982954 0.059837267 0.12429926 -0.5112603 -0.12230707 -0.13898727
0.3097453 -0.37094724 -0.2221607 0.2056235 -0.41611302 0.44681978 -0.19361979 0.21091855
-0.12358384 -0.0009806238 -0.4856475 0.044598676 0.5377911 0.23838021 0.12846082 -0.016749188
-0.2926694 0.12234448 0.05528188 0.11809579 -0.24453487 -0.05022876 0.08091995 -0.13354039
-0.1195972 -0.20112447 -0.11760055 0.1821811 0.096844405 -0.09678896 0.025438402 0.074457325
-0.30101115 0.108213045 -0.16787933 0.0038830477 0.3637277 -0.39872897 0.39335057 0.41198647
0.3844595 0.2582451 0.1680849 0.9404673 -0.34867102 0.06653549 0.20728625 -0.22465299
0.10699214 -0.081012174 0.35570687 0.11325614 1.0825047 -0.80190265 -0.15287846 -0.3269328
1.5194807 -0.4410634 0.058798295 -0.9123544 -0.5317243 -0.30729303 -0.052507486 -0.4414474
0.115588166 -0.06334101 0.57281053 0.22369047 -0.23649737 -0.12682109 -0.108712286 0.21271496
-0.01644681 0.04960283 0.38490075 -0.16158193 -0.604005 -0.5932259 0.45611736 -0.27087057
-0.28208455 -0.057154384 -0.045578815 -0.44321218 0.5182999 -0.22461218 -0.07693153 0.012171313
0.14270228 -0.41137934 0.14887042 0.004903906 0.3925856 0.58242524 -0.16736595 0.1004985
00000000: 0d6a 76bf 9236 0c3f 21ad dcbc 1ade bebd
00000010: 84b7 273f 23da b0bd b534 7a3f 2574 00bf
00000020: c83f 5bbe c5f4 7d3b 0306 00bf 4b11 c03e
00000030: 4606 42be 07fc 33bf 4e66 bfbc 9cb6 a63f
00000040: 1424 14be e476 d33d 2373 de3e 4cce 0f3f
00000050: 501a 2c3f 7148 13bf 4ff8 833d abd6 9dbe
00000060: 8fa5 17bf f294 0fbc 353b 323e b610 913f
00000070: 88c4 943e 8792 93be f34f 5b3e ce71 b13e
00000080: 29cd b53d ff32 dbbd 8041 88bc 5ba9 1e3e
00000090: d283 f9be 9e2a 21be a78f 51be b4aa 873e
000000a0: 2875 f5be 6b1a c33b a092 bfbe ee5b 63bd
000000b0: 0a5a 5cbe ad51 743e 37cb f73d 2dd1 10be
000000c0: 29c0 713e 7931 84bc 67c8 9f3e 5e84 d8bd
000000d0: 0263 a2be fdb2 403d bbb6 293e eee7 e33d
000000e0: a556 e63d f396 78be 6b38 e63d 43f6 d1bd
000000f0: 1c99 aabe f33f e53e 2576 e0ba 92db 5fbe
00000100: 909f b63e 2627 ffbd 4b1c f5bd 81b6 e73d
00000110: 4e02 1c3f dc6d b0bc 5fb1 9e3d 237d f6bd
00000120: c1f8 353e 8bec b4bd 660d a3bd 5205 58bf
00000130: bd11 023f 5717 76be 8593 113f 7d1c b23e
00000140: 8a16 d8bd 673b 2f3e c979 063f f4e4 bfbd
00000150: bc9b 29be f84e 4fbe 60ac d2bc 2e7e 45be
00000160: a0b0 6a3e b552 6fbe cd79 533d 628c 953e
00000170: 77de ae3e 4564 c4be cc77 063e 148d 0d3e
00000180: 1b08 a1bd 7bd0 b03d 6b8d 773d c35d 86be
00000190: edb7 bd3c 3f01 4f3e 5d66 223f e764 25be
000001a0: 0828 4cbd a2f4 d43d 1c70 3a3f c3b0 c83d
000001b0: 0dd5 053f 8dcb ac3e da75 00bf 3c67 143f
000001c0: f0cb 2cbe c0e8 ea3d a5cb aebe 3608 99bd
000001d0: 3b19 a9be f428 f2bc 56dd 9ebb dfae a63e
000001e0: 4486 b739 e09b 283e 3637 ac3d 6b72 893e
000001f0: 3160 47be 3300 d6be a6eb 93bd 4454 b23e
00000200: e132 34be bfe2 d23d 8357 27bd f6bc 76be
00000210: a762 a4bc 7f1b 813d e7dc 13be f8f0 6fbe
00000220: 5687 6abe 79dc b93d 6fef a23d 2331 08be
00000230: 5c82 5d3e bf4e 143e 5e66 03be 2b9c 413e
00000240: 777b a8be c97c 93bc f07e 403d 8bf9 9e3e
00000250: 9509 a5bd 62b0 31be 04c4 bdbd 85b5 a63d
00000260: b075 953d 6c42 48bd 09f2 04be ec17 753d
00000270: 9c90 fe3d f4e1 02bf 217c fabd ae52 0ebe
00000280: f096 9e3e ccec bdbe 187e 63be f78e 523e
00000290: c40c d5be 90c5 e43e 4444 46be 08fb 573e
000002a0: 8619 fdbd 4688 80ba caa6 f8be 1aad 363d
000002b0: adac 093f f119 743e 3c8b 033e 9835 89bc
000002c0: c3d8 95be be8f fa3d 416f 623d 35dc f13d
000002d0: 5967 7abe acbc 4dbd 5cb9 a53d d0be 08be
000002e0: 60ef f4bd 93f3 4dbe 8fd8 f0bd af8d 3a3e
000002f0: 5c56 c63d 4a39 c6bd 3264 d03c 157d 983d
00000300: 221e 9abe cd9e dd3d 8fe8 2bbe bb7a 7e3b
00000310: 843a ba3e 3426 ccbe 3f65 c93e e4ef d23e
00000320: e0d7 c43e b438 843e 731e 2c3e 77c2 703f
00000330: 0285 b2be c243 883d d942 543e 6f0b 66be
00000340: b21e db3d b6e9 a5bd 361f b63e d6f2 e73d
00000350: 848f 8a3f 7e49 4dbf 2c8c 1cbe bc63 a7be
00000360: 587e c23f 10d3 e1be 7bd6 703d 0f90 69bf
00000370: 151f 08bf 8355 9dbe 1712 57bd 6505 e2be
00000380: 7db9 ec3d eeb8 81bd b6a3 123f 1d0f 653e
00000390: 5e2c 72be 63dd 01be 8ca4 debd f3d1 593e
000003a0: 76bb 86bc 562c 4b3d b611 c53e bc75 25be
000003b0: 12a0 1abf a7dd 17bf 3788 e93e 8caf 8abe
000003c0: 636d 90be b71a 6abd dab0 3abd b5ec e2be
000003d0: 4daf 043f bc00 66be 478e 9dbd 306a 473c
000003e0: 8c20 123e 50a0 d2be 7d71 183e f2b0 a03b
000003f0: fb00 c93e d219 153f fb61 2bbe 28d2 cd3d

model.4.bias f4 [25]
0.31534928 -0.2739381 0.25107586 0.2403384 0.10286708 -0.41970974 0.28447017 0.25611997
0.016181868 -0.0704555 0.06524755 -0.013656537 -0.02104688 -0.28356162 -0.16144037 0.19807772
0.18235007 -0.14890026 0.14878915 -0.055274528 0.07790891 -0.02367209 0.034329616 -0.04491275
-0.21810687
00000000: 7675 a13e 9d41 8cbe 048d 803e 451b 763e
00000010: faab d23d 32e4 d6be 13a6 913e 2822 833e
00000020: d68f 843c f94a 90bd 82a0 853d abbf 5fbc
00000030: 826a acbc fd2e 91be a050 25be e3d4 4a3e
00000040: fab9 3a3e 4f79 18be 2f5c 183e 8b67 62bd
00000050: b58e 9f3d f9eb c1bc 369d 0c3d 6ff6 37bd
00000060: 6857 5fbe
