models/var-info-max/empowerment_2_steps/CrossRoom-v0_decoder.pth (torch_old, 26245 bytes, 6 tensors)

model.0.weight f4 [32, 136]
00000000: 31ef 70bc 3084 35bc c860 fbbe bdfd 2dbf
00000010: c34a 07bf 232d 6abf efd6 60be b898 5dbe
00000020: de15 ea3e e5fd 003f 10ca 3bbf 288d 773d
00000030: 0481 8cbf 07be 8cbf 02a9 e9be 29bb 49bf
00000040: 7f17 0b3e c581 613d c40d cfbc d974 9d3d
00000050: 31b3 53ba f7fb 7d3b 0b40 093e fb45 ccbc
00000060: 1a2f 033e ff1f ecbb 8606 543e 716a 05be
00000070: 8efe 6ebd 67f1 ca3d a929 813c aaa1 a3bc
00000080: 0501 e43c ec89 eebd a2fc 883e bca0 b33e
00000090: 5cc4 783e 0ffc 7d3e 3334 013e a14e 9e3e
000000a0: 89ad 923e cafd 973c c538 913e 08b2 cb3e
000000b0: 2cce 003f 7d5b 013e 61a3 2d3e e230 5d3e
000000c0: eab6 6d3e ec66 033e 055d 623e 35c2 4e3c
000000d0: 08c8 0ebf fe76 8fbe 55d0 f83e 6f7a 2e3f
000000e0: 12b3 3c3f 2c7c 283f 3eee 41bf ce94 dcbe
000000f0: 7827 1abf 95ae 1ebf ca56 863e f8c8 42bd
00000100: 3b21 c43e 1e0c 9d3e f0c6 953e 2eb2 1d3e
00000110: 3515 203e 9673 0d3f 4ac3 9dbe d870 94be
00000120: bf56 613e bb6a 013f e07a 7d3e 1e2a 153f
00000130: 1cee c8bd 7d46 2abe c845 4bbf 98bf 5dbf
00000140: 539d b83e c3c4 adbe be1a 303f 0578 4e3f
00000150: 47c8 a53d 49c0 d03e b21b 193e 50fd e03e
00000160: da2b bf3e 427a 743e b4ed 483e 76a2 b73e
00000170: f19a 593e 19bc c53e 4c54 fe3e 7bf0 423e
00000180: e34b e23d 8dbd fc3e 88f6 923e a0d0 b93e
00000190: 5793 803e c271 ee3d e904 0cbe 1ed9 45be
000001a0: 3e74 63be bee1 dfbd 7085 15be 3120 f9bd
000001b0: 356a f8bd 33f9 e5be d8c0 d0be 75f7 5cbc
000001c0: 72cc 5a3d f19c c5bc 5d64 03be f7da 91bd
000001d0: b2f6 bfbd 3f97 c5bd 4330 5dbe 2c08 d0bd
000001e0: 1dd1 883e 3b41 2ebf 9895 c13d c156 ca3b
000001f0: 6426 68bf 465d 85bf 10ec 84bf 1802 49bf
00000200: a5d1 f73e 9093 0d3e c632 cc3c 7923 af3e
00000210: 9c5d ffbe 0a47 7abe 27e7 94be 83a9 f6be
00000220: b9b4 5b3e a3ff dc3e b9fe 883e a708 983e
00000230: e709 2b3e e315 0f3e f100 3a3e f244 85bd
00000240: 596d c0be 6bf9 06bf 772a ccbe 5f40 b6be
00000250: 89fc d53d be03 123f 8994 e03d 9afe 873e
00000260: 84ea e53c 651c 903e 734c d33e 09ab 703e
00000270: a29b 923e 1fb8 7e3e 8bf3 6d3e 8fa6 cf3e
00000280: c252 083e b917 91bd 6fb7 693e 87a0 233e
00000290: 121c 7c3e fb4d 713e edec 1e3e cdbf 7b3e
000002a0: 1336 313e 1721 0b3e a943 73bd 762b 20bd
000002b0: 9779 bebd 324d 08be e962 2d3e 8cd2 08be
000002c0: 96c5 24be f47d 2bbc bec6 cc3e a9f1 853d
000002d0: 6b3e 69be 03a9 ddbd 92eb 80be e333 633e
000002e0: 1ba4 61be f2b0 85bc 1820 cdbd 8722 7dbe
000002f0: 79a2 2bbf 5ecf a1be 67e2 7cbf a7f7 3bbf
00000300: 7d32 7ebf 63de 8ebf af70 4dbf 9586 68bf
00000310: 3513 9a3e 8cd2 4f3e 9e83 4b3e f797 de3e
00000320: 6b4c 83be 7ea8 8fbe fb3f afbe d03b b4be
00000330: 41ae dbbe 9b67 09bf 99c8 9fbe 6a13 dabd
00000340: 28f5 993c 5054 7f3e fe25 d43d eaec 583d
00000350: b5a1 ebbe b390 5abf 7f40 efbe 61eb 59bf
00000360: 5a42 adbd 97e5 4bbe a0ca 2bbf 09d0 4fbf
00000370: f5a9 0fbe bd4c a7be 0bd9 13be 2bc6 8fbd
00000380: 4cc0 aabd 5d97 06bd b82b 13bd 2496 b5be
00000390: b530 8a3d a8f6 763e 15c2 19be 47e6 0dbe
000003a0: 2848 a43b 6030 ebbd 36bf 45be 6fb3 683d
000003b0: 5ae6 0cbe 00fd 76bd 79a7 a23e 3772 923b
000003c0: 49f4 e23e 38ae 833e 13c1 e43e 60d9 553e
000003d0: 2936 de3e 5bcc 3cbc 413a e63e 336b d63e
000003e0: 2930 9a3e dd5f b63e f256 c23e 33e4 da3e
000003f0: 5ada 7c3e cd40 bc3e 48f0 f9bb 4556 af3e
-0.014705465 -0.011078879 -0.49097276 -0.679653 -0.5284845 -0.91475123 -0.2195699 -0.21640289
0.45719808 0.5038741 -0.733552 0.06043735 -1.0976872 -1.0995492 -0.45636755 -0.7880121
0.13583182 0.0550554 -0.025275119 0.076883025 -0.0008075713 0.003875492 0.13403337 -0.024935713
0.12810937 -0.0072059627 0.20705613 -0.13028885 -0.05834823 0.09909325 0.015766935 -0.019974548
0.027832517 -0.116474 0.26755244 0.35083568 0.24293655 0.24803184 0.12617569 0.30919364
0.28648022 0.018553633 0.28363624 0.39784265 0.50314593 0.12632556 0.16956855 0.21600679
0.23214307 0.1283223 0.22105797 0.012619545 -0.55773973 -0.2802047 0.48596445 0.6815557
0.7371074 0.6581447 -0.75754154 -0.4308228 -0.60216475 -0.6198514 0.2623809 -0.04755494
0.38306603 0.30673307 0.2925334 0.15400001 0.1563309 0.55254495 -0.30813056 -0.28992343
0.22005747 0.5055348 0.24753904 0.5826739 -0.09811041 -0.16628452 -0.7940335 -0.86620474
0.3605753 -0.3393918 0.68790805 0.80651885 0.080948405 0.40771702 0.14951971 0.43943262
0.37338144 0.23874763 0.19621927 0.35866135 0.21250512 0.3862007 0.49673688 0.19037049
0.110496305 0.49363366 0.28703713 0.3629198 0.2511241 0.11642791 -0.13673748 -0.19321105
-0.22212312 -0.10931729 -0.14601684 -0.12164343 -0.121296324 -0.44916686 -0.40772128 -0.013486733
0.05341763 -0.024122687 -0.12831254 -0.07121842 -0.09373225 -0.096479885 -0.21600442 -0.10157809
0.2672204 -0.68068284 0.09452361 0.0061748927 -0.9068358 -1.041909 -1.038454 -0.7851882
0.48402134 0.13825822 0.024926554 0.3420675 -0.49876106 -0.24441162 -0.29082605 -0.48176202
0.21455659 0.43163785 0.26756838 0.296941 0.16702996 0.13973193 0.18164422 -0.06507291
-0.37583426 -0.5272433 -0.39876148 -0.35595986 0.10448558 0.5703696 0.10965831 0.26561433
0.028065927 0.28146663 0.41269264 0.23502745 0.28634363 0.24874924 0.23237436 0.40556762
0.1331282 -0.07084603 0.2282388 0.15979205 0.24620083 0.23564903 0.15520068 0.24584885
0.17305784 0.13586842 -0.059390698 -0.039103948 -0.09300535 -0.13310698 0.16932262 -0.13361567
-0.16090998 -0.010467041 0.39995378 0.06540234 -0.22777717 -0.10823252 -0.25179726 0.22187762
-0.22035258 -0.016319726 -0.10015887 -0.24720202 -0.6704479 -0.3160352 -0.9878296 -0.7342476
-0.9929579 -1.1161617 -0.80250067 -0.90830356 0.3009278 0.20295161 0.19874427 0.43475315
-0.2564424 -0.28058237 -0.342285 -0.35201883 -0.42906383 -0.53673714 -0.3120773 -0.10648234
0.018793657 0.24934506 0.10358809 0.052960314 -0.4602181 -0.85377043 -0.46728894 -0.85124785
-0.08459921 -0.199118 -0.67106056 -0.8117681 -0.14029677 -0.32675734 -0.14438264 -0.070202194
-0.08337459 -0.032859195 -0.035930365 -0.3546611 0.067475714 0.2411753 -0.15015443 -0.13857375
0.0050134845 -0.11483836 -0.19311222 0.056811746 -0.13759747 -0.060299873 0.31768396 0.004469182
0.44327 0.25718856 0.44678554 0.20883703 0.43400696 -0.0115233315 0.4496632 0.41878662
0.30114868 0.35620013 0.3795696 0.42752227 0.2469267 0.3676819 -0.0076275207 0.34245506

model.0.bias f4 [32]
00000000: 91c9 8b3e 97ad 8a3e 96dd 123e 8d93 033e
00000010: 34c0 443e 441d 903e 7a90 c43e 42f0 043e
00000020: 129b a73d 7246 fe3d 8275 273e e977 463e
00000030: eee3 e13e 5716 4e3e 72bb 2c3e 7537 b93e
00000040: 240b 863e bfb6 183e fba0 813d f317 1c3e
00000050: 8a7e 223e 8a74 5a3e 03ce 3d3e e853 8f3e
00000060: d05c 7d3e 43b8 ae3e 96e0 373e 34f2 5e3e
00000070: cd00 c73e a175 083e 9d52 463e 6b39 a03e
0.2730222 0.27085564 0.14342341 0.12849255 0.19213945 0.28147328 0.38391477 0.12982276
0.08183874 0.1241578 0.1635342 0.1938168 0.4411921 0.2012571 0.1686838 0.36175123
0.26180375 0.14913462 0.06329533 0.15243511 0.15868583 0.21333519 0.18535618 0.27993703
0.24742436 0.34124956 0.17956766 0.2177208 0.38867798 0.13326122 0.19367452 0.31293806

model.2.weight f4 [32, 32]
00000000: c589 d4be cb40 c23c dd57 133f e4c9 193f
00000010: 1e3e 713d 9fcd 3a3e 9fbd 2dbe 218b b83f
00000020: 5a28 80bd b9dc e4bd 0399 553f 5359 13be
00000030: fdd2 f03e 265f b4be 358f fe3c 80b8 133f
00000040: de66 e7bd 7003 4b3e 133d 773f 2626 8b3e
00000050: 378f d1be 08b2 31be aa90 9e3e 7c16 95be
00000060: 889e f33e b0e0 033f 043d b2be c05e f33e
00000070: 24c6 bbbd 37e5 963f 3c15 da3e 97af 963d
00000080: 073c 983f c22f c1be 0875 f53e 69a4 26bf
00000090: 58b3 1b3f 5b72 5abe d8f7 d73f 4c25 4ebf
000000a0: fe06 f83d 2e75 14bf 9ac8 b13e 7046 633f
000000b0: a3f8 e93e ceb9 b23f db99 bebe 2df4 c03e
000000c0: e52a 99be d592 68bf bc91 5f3f 1c14 1cbf
000000d0: 29b2 5c3e 72f6 8b3f e9bf 23bf 5f27 583f
000000e0: ba85 51bf 335e febe 80f2 d6be 3e13 9b3e
000000f0: 3bc3 5d3f 226d 01bf c6d1 55bf 8a6c 283f
00000100: d65b fdbe 002c 953f f66b 25bf 9b4f 663f
00000110: ad37 12bd c626 7c3e b95c 30be 7f05 b13e
00000120: bdae 2c3f dcfb a83f a743 73bf afa9 7abe
00000130: 8852 c7be 7403 71bf 260f 9f3f af2d 83be
00000140: e657 c9be c8ea 933f 0b56 1dbf edd6 943f
00000150: f4fa 153f 5b76 a3bd 9086 5c3f db4a 18bf
00000160: e526 c73e 56fc 083e 08ac 7b3f 29b6 433e
00000170: a96b 22be 65e4 09be 7413 9d3f 0f08 a9be
00000180: ab13 083d 524a 0dbe fa02 963d c3e4 323f
00000190: 149c af3e 4a0e 8fbf b463 033e bf00 5dbf
000001a0: 5d70 f5be 1565 d13e e2fb 41bf f47d 6b3e
000001b0: 2060 943f bcce 393f 5fdd 88be 60e5 033f
000001c0: 98f8 41bf 9396 cc3f 0d76 a93e 070c e03e
000001d0: ac04 13bf ce39 a13d ee47 2d3d e6d9 41bf
000001e0: 3bb4 34bf 6766 103f 7324 293f e4a0 d93e
000001f0: 3a39 ec3d e081 cb3d 6d84 53be 808c 11bf
00000200: 5afe d8bd a9c3 773d 5b05 82bd ec07 2ebe
00000210: 8740 1ebe 8ac9 eabc aec7 9ebd 870b 12be
00000220: 9c53 d13d 72df 04bb 458d f73d 2f7f c93b
00000230: bc7b 69bd a53d 06bc 7673 efbd 5079 28be
00000240: cddc 84bd 209a 92bc 237e 523d 0340 18be
00000250: b4cb a8bd b588 08be f63e c7bd 85a4 f73c
00000260: 5236 dcbc e195 d93c 7122 2bbd 6151 22be
00000270: aec1 cebd e516 0fbd 96bc 8c3d ad42 d5bd
00000280: b1b3 10bf 53db 3c3f 4066 8ebe b596 9a3f
00000290: 9f60 82be 3c52 0c3f ccb3 043d cbf7 c03f
000002a0: b578 3cbe fc35 883f 1be9 5c3d c94e 413d
000002b0: 1769 633e d066 55bf a1ec 9e3f 12ca 1a3e
000002c0: 3a43 803e 5492 403f 24fc 2f3e 493f 5f3f
000002d0: 2d30 c13e ba04 febd 709d a83f 2d8c ebbe
000002e0: cf2b b43e 5f23 b13e 3c76 143f 37e9 fc3d
000002f0: daae 8bbe bfdd 103f 1481 2a3f 2850 a5bd
00000300: b49e 51bd 63dd 44be 6dc8 1abf 15b1 d93e
00000310: caa9 1bbf c8b8 f43d dfbf 673f 754f f13c
00000320: 8fd0 31bf 7d92 0b3f c384 a13f e3c8 b53f
00000330: dbf7 6d3e f1eb 54bc a590 8c3f cf05 e5be
00000340: e02b cc3e 91e7 2c3f ad47 e93f 840b 51bf
00000350: 001e d03e 9491 943f f300 e83e 5574 ec3e
00000360: 81d9 4c3f 3e6c 42bf e284 ff3e 2f9c d6be
00000370: e210 1b3e 6d28 f43e a38d 4e3e 9db0 1e3f
00000380: a9f1 0cbe bdfc 0a3f 50c5 b1be 9770 e73c
00000390: 80ee f7be 7c77 183f ef80 6c3f e362 b93e
000003a0: 5be7 8fbf c6f7 6dbe ae27 9b3f d5b0 823f
000003b0: 71c7 693e aaa9 8c3e 11d4 993f a04b 68bd
000003c0: 469c 9abe fb76 a6be bb07 3e3f 069a 1ebf
000003d0: 10c5 d93e 3014 3b3f 4b05 7a3e f9a0 e43e
000003e0: 9786 393f 7754 50bf 733a 83bd 4644 34bf
000003f0: 96ed 1f3e 75ef b03e c902 933e a886 fb3e
-0.4151136 0.023712536 0.57555944 0.60073686 0.05889713 0.182425 -0.16966866 1.4417459
-0.062576964 -0.11174912 0.834366 -0.14389543 0.4703597 -0.35228842 0.031074146 0.577034
-0.11298917 0.1982553 0.96577567 0.27177542 -0.40929577 -0.1735307 0.30969745 -0.29118717
0.47581887 0.5151472 -0.34812176 0.47533226 -0.09168652 1.1788701 0.42594326 0.0735771
1.1893319 -0.3773175 0.4794085 -0.6509462 0.6082053 -0.21332686 1.6872511 -0.8052566
0.12110709 -0.579913 0.3472336 0.88779354 0.45697507 1.3962953 -0.37226757 0.3768629
-0.29915538 -0.9084905 0.8733175 -0.60968184 0.21552338 1.0934584 -0.63964707 0.84435076
-0.81844676 -0.49681243 -0.41981888 0.30288118 0.86626023 -0.5055715 -0.83523214 0.6579062
-0.49484128 1.1654053 -0.6461786 0.8996522 -0.035697628 0.24624166 -0.17222871 0.34574506
0.6745413 1.3201861 -0.95025104 -0.24478792 -0.38930154 -0.94145894 1.2426498 -0.2562079
-0.39324874 1.1556025 -0.61459416 1.162809 0.5858605 -0.07981559 0.86142826 -0.5948922
0.38896862 0.13377509 0.98309374 0.19112457 -0.15861382 -0.13466032 1.2271562 -0.3301396
0.03322188 -0.13797882 0.073247865 0.6988031 0.34298766 -1.1176236 0.12831002 -0.86329263
-0.4793729 0.40897432 -0.7577497 0.22997266 1.1591835 0.72581077 -0.26731393 0.51521873
-0.7576995 1.5983452 0.33097878 0.43759176 -0.57429004 0.078723535 0.042304926 -0.7572311
-0.7058751 0.56406254 0.6607124 0.42505562 0.115343526 0.09936881 -0.20655985 -0.5685501
-0.10595389 0.06048933 -0.06348678 -0.1699521 -0.15454303 -0.028660554 -0.0775293 -0.1426221
0.10221025 -0.0020274785 0.12087492 0.0061491947 -0.057002768 -0.008193408 -0.11691944 -0.16452527
-0.06487427 -0.017895758 0.051389825 -0.14868169 -0.08241978 -0.133334 -0.09728806 0.030229816
-0.02688137 0.026560726 -0.041780893 -0.15851356 -0.10095535 -0.034933943 0.068719074 -0.10413108
-0.5652419 0.7377216 -0.27812386 1.2077242 -0.2546434 0.5481298 0.03239803 1.507562
-0.18405421 1.0641475 0.053933244 0.047194276 0.22208057 -0.83360004 1.2415963 0.15116146
0.2505129 0.7522328 0.17186028 0.8720594 0.37732068 -0.12403245 1.3173046 -0.46005383
0.35189673 0.34597299 0.5799291 0.1234917 -0.2728184 0.5658836 0.6660321 -0.08071929
-0.05117674 -0.19225077 -0.60462075 0.42517915 -0.6080595 0.11949307 0.9052715 0.029456833
-0.6945886 0.545204 1.2618641 1.4201931 0.2323908 -0.012995706 1.0981642 -0.44730994
0.39877224 0.6754084 1.8224999 -0.81658196 0.40647888 1.1606927 0.45313224 0.46182504
0.80019385 -0.75946414 0.4990607 -0.41916034 0.15143159 0.47687092 0.20171218 0.6198824
-0.13764061 0.542919 -0.3472085 0.02825193 -0.4842415 0.5955732 0.9238424 0.36208257
-1.1242479 -0.2323905 1.2121484 1.0210215 0.22829987 0.27473193 1.2017843 -0.056712747
-0.30197352 -0.3251265 0.74230546 -0.6195377 0.4253316 0.7307768 0.24416082 0.44654062
0.7247099 -0.81378883 -0.06407633 -0.70416677 0.15617976 0.3455769 0.28713062 0.49126172

model.2.bias f4 [32]
00000000: 1b60 c4be 5dc3 323f 7904 993e 30be 353e
00000010: ea77 15be 65ea 60be 2ee7 0d3d 614b eabd
00000020: 2cdc c1bd 4cef 8f3e 89c7 123f 300a 7dbd
00000030: 2c11 473c 11e8 db3d 0124 063f 9aec 67bd
00000040: 1bba e93d b40b ae3b cbdb 99bc 277c 8a3e
00000050: 05ed c03e 74ad 4f3e 6545 1abd ba74 aebd
00000060: 2d53 0f3c 689c cf3e 0c8d 3e3c 5130 ec3e
00000070: 400f 0f3e 7d6d 99be 0bfe c93e c16f 833e
-0.38354573 0.6982935 0.29886225 0.17748332 -0.14596525 -0.21964414 0.0346443 -0.11440159
-0.094658226 0.28112257 0.57335716 -0.061777294 0.01215009 0.107376225 0.5239869 -0.056622125
0.1141245 0.0053114537 -0.018781563 0.27047846 0.37680832 0.20281011 -0.037663836 -0.085183576
0.008747858 0.40549016 0.011630308 0.46130612 0.13970661 -0.29966345 0.39451632 0.256712

model.4.weight f4 [25, 32]
00000000: 878d c73e af77 ac3e 732d f5bf 0127 38bd
00000010: bab2 bdbd a6ac f2bc ede2 993e f2f8 363e
00000020: 653b bd3b e498 2bbe 99af f5bd be34 febe
00000030: 3f9a 5b3f 0310 96be 33e7 f73d 1240 09c0
00000040: bd19 973f 9e09 2cbe 9de8 3dbe 76b1 bb3f
00000050: 5d1d 18bd 435b cfbd e576 c13f ebad 80bd
00000060: 3145 d4be 972b 4ebf 836c 8c3e aa13 c23e
00000070: 68e6 223f 9752 bcc0 4eab 623e 91fb 9c3e
00000080: 5910 fa3e 98c8 88be b3b9 abbe 49f3 8e3d
00000090: 582c 01be 0095 633e 28ef 673e f3d4 963e
000000a0: 4804 a2be c483 3b3c 6569 53be b052 393e
000000b0: ca8b 88be 8a94 48be 1d36 febd 4e03 af3e
000000c0: b3d0 e93e ea3c d53c cb8c 50be 340a c5be
000000d0: e8fe 5abe 7233 a73e bef4 4ac0 39d4 9e3e
000000e0: 5606 a5bd 5d3d e43e 74fa 50bf 3042 a2be
000000f0: b140 b13d c87f cb3e e4ac f1be 5d64 81be
00000100: a3be 43be 16e1 d93e d613 a9be b9a8 f83e
00000110: 8c7a 0ebe 6aeb 79bf b736 afbf e441 a7bf
00000120: 194c 69be cbac a7bf ec06 9e3e 2bb6 38be
00000130: 3b05 89be 95b5 86bf 55bb 2e3f e833 a5bf
00000140: c1f7 8dbf 4037 923d 9759 adbf 59e0 0ac0
00000150: 9348 6ebf 7bd2 d73e d82e 3cc0 5186 4ebe
00000160: 72f9 4ebe 084b 18bf 0040 c83e 37d2 333f
00000170: a62e 28bf b980 bfbf 5efc 913e 2413 de3d
00000180: 3657 b1bf 6212 2a3f fd2c 1bbd 615b e7be
00000190: 9f31 15be 8eb3 a4bf 7d3b 5e3e 9b71 843e
000001a0: 097e c6bf 9e6d bc3e 83c6 ad3e c180 c2bf
000001b0: 35bb 9cbf 4e25 b93e 07f6 0fbe 820f 6cbf
000001c0: bf7d 0cc0 8394 1ebf 2b5b 103e 9fdb e4be
000001d0: 67e2 033f 7730 95bf 8933 883e b4cc 9fbe
000001e0: d343 1dc0 476b 283f a1b7 02be 9f5f d03c
000001f0: 5d16 56be fcf1 47be 033d 9f3e 0beb bc3e
00000200: b4bc 603e 2b18 d23e 7f91 11bf 70f5 ed3d
00000210: 09c2 1d3e 76f7 85bf bef5 263d 9a53 8dbe
00000220: dbb8 3cbf 157b 82be b4b7 9f3e 4aca febe
00000230: 4a72 c3bf 3e41 7ebe 7ceb f53e 226a 16bf
00000240: d974 83bf cd5f 40be c84c d6be d701 ccbf
00000250: 5435 2dbd 68ed 9abe 321d 42be 8c78 44bd
00000260: 3a42 47bf 2b0c 8f3e ef43 55be 275d ff3e
00000270: 4cb6 15bf 5e30 d9be 70e7 163e fa21 a73e
00000280: 0dfa 10be 4c9d bf3e a9e3 55bf 7c11 ebbe
00000290: 67d4 13be 437d f6bd 4c1b 46bd 2fa2 30be
000002a0: 251a b3bd cefc 28bf 9fa0 483e f1d1 0ebf
000002b0: 499b 033f f07f 293c 22f6 a83e 20a5 28be
000002c0: e6df 133f 87f8 0ebf 3a87 39bf 27eb bebd
000002d0: f859 b03e 5e85 ac3c 82fe fdc0 72cc 4dbf
000002e0: 6307 2ebe 99b1 fbbe ad86 32bf 2832 f93e
000002f0: 5ea7 a13d 2f9d d63e b6e3 dfbd 116f 633e
00000300: f5cf aabe c242 f0be aac5 c93e fe10 b93f
00000310: 8b7a fcbc 8d02 523e d2e4 9d3e ad35 9c3b
00000320: 49f9 883e 9aa2 003f 4664 19bf afde 823e
00000330: bf22 b4be bbce 9d3e 0f2b 01bf c244 5c3e
00000340: 9146 79bf 5670 bd3d 21eb b43e c22d 07bf
00000350: 386b 09be 3680 ecba bb6d b83f 4f55 0540
00000360: 93fd 0a3d 3708 68be c4e6 1540 eda1 12bf
00000370: 6b6d 15bf b9f3 8d3e 24a6 18be ef0d a5be
00000380: af8c 913c 8b7c d5bf 142c fd3e b6b0 aebe
00000390: 44d9 0fbe e047 b93e bfa6 74bf 662c d0be
000003a0: 2556 073f e10b a6bd 66c8 91bd f854 293f
000003b0: e6a9 033f 102d 35bf f7af 8e3d 4308 ad3c
000003c0: 52f4 6e3e d425 933e 766f 4abe 4c04 b83e
000003d0: 52e7 c1bf 8fd1 083f b2be 0dbe f749 0fbe
000003e0: a0f8 f83e 5b95 09bf 2904 c0bc 00dd 26bf
000003f0: e7aa 99be e2e8 d93d e0ea 87bd ebfb e8bf
0.38975164 0.3368506 -1.9154495 -0.044959072 -0.09262605 -0.02962334 0.30055943 0.17868403
0.0057749026 -0.16757542 -0.11996383 -0.49649614 0.85782236 -0.2930909 0.121046446 -2.1445355
1.180473 -0.16800544 -0.18545766 1.4663532 -0.037137378 -0.10124829 1.5114409 -0.06283172
-0.4145904 -0.8053526 0.27426538 0.37905627 0.6363282 -5.885082 0.2213566 0.3066068
0.48840597 -0.2671554 -0.33540115 0.06979997 -0.12614572 0.22224808 0.22649825 0.29459342
-0.3164389 0.01144499 -0.20645674 0.18097949 -0.2666915 -0.19587913 -0.12412665 0.3418221
0.45667037 0.026030023 -0.20366208 -0.38484347 -0.21386302 0.32656437 -3.1711879 0.31021288
-0.08057849 0.44578066 -0.8163216 -0.31691122 0.08654917 0.39745927 -0.47202218 -0.25271884
-0.19115691 0.4255454 -0.33022946 0.48566225 -0.13913935 -0.9762484 -1.3688573 -1.3066983
-0.22782935 -1.3099607 0.30864656 -0.18038242 -0.26761803 -1.0524164 0.68254596 -1.2906466
-1.1091233 0.07139444 -1.3542966 -2.169943 -0.9307949 0.4215277 -2.940359 -0.20168425
-0.20212343 -0.5948949 0.39111328 0.7024264 -0.6569618 -1.4961158 0.28512853 0.108434945
-1.385474 0.664343 -0.0378847 -0.45186904 -0.1456971 -1.2867296 0.2170238 0.25867924
-1.5507213 0.3680238 0.33940515 -1.5195543 -1.2244631 0.36161274 -0.14058696 -0.92211163
-2.195175 -0.6194536 0.14097278 -0.44698808 0.5151734 -1.1655415 0.26601818 -0.31210864
-2.4572647 0.6578869 -0.12765361 0.02543622 -0.20906968 -0.19525903 0.31101236 0.36898074
0.21946985 0.41034064 -0.56862634 0.11619079 0.1540605 -1.0466144 0.0407617 -0.27602845
-0.7371957 -0.2548453 0.31194842 -0.4976371 -1.5269253 -0.24829575 0.48031223 -0.58755696
-1.0270034 -0.18786545 -0.41855454 -1.5938061 -0.042287186 -0.30259252 -0.1895645 -0.047966525
-0.7783543 0.2793897 -0.20826696 0.49875757 -0.5848129 -0.42419714 0.14736724 0.3264311
-0.14157887 0.37424695 -0.83550507 -0.45911777 -0.14436494 -0.120356105 -0.048365876 -0.17249368
-0.08745221 -0.6601075 0.19592522 -0.55789095 0.5140882 0.010345444 0.33000284 -0.1646924
0.57763517 -0.5584797 -0.72471964 -0.093221955 0.3444364 0.021059688 -7.937318 -0.80390084
-0.16995005 -0.49158934 -0.6973675 0.4867108 0.07893251 0.41916797 -0.10932104 0.22210337
-0.33361784 -0.46925932 0.39408618 1.4458311 -0.030820152 0.20508786 0.3083864 0.004767141
0.2675269 0.5024811 -0.5991863 0.2556052 -0.3518276 0.30821785 -0.5045633 0.21510604
-0.973733 0.09249942 0.3533564 -0.52804196 -0.13419807 -0.0018043581 1.4408487 2.0833318
0.033933233 -0.22659384 2.3422098 -0.5727833 -0.58370084 0.27725008 -0.14907128 -0.32237193
0.017767278 -1.6678632 0.4944769 -0.34119195 -0.14047724 0.3618765 -0.95566934 -0.40658873
0.5286582 -0.081077345 -0.07118301 0.6614528 0.5143112 -0.70771885 0.069671564 0.021122104
0.23335388 0.28739798 -0.19769081 0.35940778 -1.5148718 0.5344476 -0.13842276 -0.13993059
0.48627186 -0.53743523 -0.023439484 -0.6518097 -0.300132 0.10640122 -0.06636596 -1.8201879

model.4.bias f4 [25]
00000000: ade4 4dbb 7c58 aebd c0de 923e 1102 543d
00000010: bdcd ac3e 29dd 753c a055 a6be 7ada f43d
00000020: 8de7 75be 3bcf 80be 8de1 243c e307 21be
00000030: 07fa 1d3d 89e7 26bc 810e 23bc 7d83 a23e
00000040: 89fd a2be 0a4b 39bd 6c33 343d 3616 b63c
00000050: 043a 7f3e f465 9bbe 2ff7 193e 0e06 d5bc
00000060: 9792 c1bd
-0.003141682 -0.08512971 0.2868557 0.051759783 0.33750716 0.015006342 -0.32487202 0.119557336
-0.24014111 -0.25158104 0.010063541 -0.15725665 0.038568523 -0.010187038 -0.0099521885 0.31740943
-0.31834057 -0.04523758 0.043994352 0.022227388 0.24924475 -0.30351222 0.150357 -0.026003864
-0.09451788
