models/var-info-max/empowerment_2_steps/RoomPlus2Corrid-v0_decoder.pth (torch_old, 17285 bytes, 6 tensors)

model.0.weight f4 [32, 66]
000000 11 63 14 bf cb 56 55 bf ac 7b 74 bf 52 09 25 be
       -0.57963663 -0.8333556 -0.9550121 -0.16116837
000010 62 f7 0a be 00 d8 9a be ac 44 3b bf d1 5f 89 bf
       -0.13570932 -0.3024292 -0.7315166 -1.0732366
000020 a8 2e 69 3e 64 ab 7e 3d ac 60 07 3e 5f dd 13 be
       0.22771704 0.06217517 0.13220471 -0.14439915
000030 5c 60 20 3e d4 4e e4 bd e0 38 e3 bd 63 0f f9 bd
       0.15661758 -0.11147848 -0.110948324 -0.12161138
000040 28 eb 65 3e 90 1f 87 3e 7d 79 21 3e 04 22 89 3c
       0.22452986 0.26391268 0.15769 0.016739853
000050 09 be 11 3f a8 ca 41 3d dc 1c 1c 3f 43 76 30 3f
       0.56930596 0.04731241 0.60981536 0.68930453
000060 d8 27 06 3f b9 b5 d6 3e e2 17 ef 3e 89 74 16 3e
       0.52404547 0.41935518 0.4669791 0.14692892
000070 a4 1f cd 3e 14 74 b4 3e d1 bc 1e 3e 5f b3 ed 3e
       0.40063202 0.3524481 0.15501715 0.46425912
000080 dd 52 b0 3e 55 ef 18 3f 24 1c 21 3f 19 e2 81 be
       0.3443822 0.5974019 0.62933564 -0.2536781
000090 c2 d9 23 be 1e c9 51 bd 05 3b 09 3d 53 a5 30 3f
       -0.16001037 -0.05121719 0.03350355 0.69002265
0000a0 5f b9 1d 3f 38 b2 f9 3e 36 39 14 3f e3 2f 37 3f
       0.6161098 0.48768783 0.57899797 0.71557444
0000b0 bd 2d ac 3e dc 62 eb 3e 09 31 91 3e 4d 45 b1 be
       0.33628646 0.4597386 0.28357723 -0.34623185
0000c0 d1 44 4f 3f 02 42 e8 3e 82 0e b9 3e 96 ac 03 3f
       0.8096438 0.4536286 0.3614388 0.5143522
0000d0 a8 e9 d6 3e 61 64 64 be 56 c3 ec bd 5c 3d 6d be
       0.4197514 -0.22303917 -0.11560695 -0.23167938
0000e0 f3 6b c3 be 7b fd 01 be 0a fd eb be 13 c9 4c be
       -0.38168296 -0.12694351 -0.4609149 -0.19998579
0000f0 70 e2 2f bf 5d 3c 54 be 13 b3 81 be d1 7e 4b be
       -0.6870489 -0.20726152 -0.25331935 -0.19872595
000100 8e 26 f2 bd 03 e4 9e be d9 e0 4c be f0 b4 ff be
       -0.1182376 -0.31033334 -0.20007648 -0.49942732
000110 23 65 92 3e 2d 46 1e 3e 99 22 cb 3e 7d 75 c9 3e
       0.28592786 0.15456457 0.39674833 0.3934745
000120 ad 32 85 bd 2b fb 9d be fb 94 8d be 4e cf 58 be
       -0.06503806 -0.30855688 -0.27652726 -0.2117283
000130 26 bd 8c 3e 61 bf 24 3f ce e8 28 3f 39 ef 19 3f
       0.2748806 0.6435452 0.6598023 0.6013065
000140 63 ba 70 bf 3d 95 f4 be 8e b6 84 be 53 19 74 3e
       -0.94034404 -0.4777011 -0.25920528 0.23837785
000150 da 21 dd 3e 4d 5f aa 3e 36 7e 98 be ab 41 30 3f
       0.4318989 0.33275834 -0.2978379 0.688502
000160 d9 cb 97 be cb 07 f1 be 38 ad e8 bb 98 54 76 3e
       -0.2964771 -0.47076258 -0.0071007274 0.24055707
000170 84 69 bf 3e e2 42 00 bf 9c 2f 3d be ec e3 21 be
       0.3738519 -0.50102055 -0.18475193 -0.15809602
000180 4a 8d cb 3d 49 89 4a 3e 46 d4 92 3e d6 f1 82 be
       0.09939058 0.19778933 0.28677577 -0.2557513
000190 35 81 82 bd 4d 56 64 3e 77 71 70 3e 08 02 76 3d
       -0.063723005 0.22298546 0.23480783 0.06006053
0001a0 e5 69 5b be ef bc 85 be 0a 22 92 bc 8d c2 fa bd
       -0.21427114 -0.26120707 -0.017838497 -0.12244139
0001b0 5c e4 c5 3e 56 9e 1f 3e 84 77 47 bd 4d c2 0a bf
       0.38650787 0.15587744 -0.048697963 -0.5420273
0001c0 33 71 21 bf 93 ac 9f 3e 45 01 0f be 5b f6 3a 3e
       -0.63063353 0.3118635 -0.13965328 0.1825804
0001d0 fe 49 9f 3e 45 0d ce 3c 89 c2 ce be de 33 5c 3e
       0.3111114 0.025152812 -0.40382794 0.21504161
0001e0 ae 55 2a 3f c2 ba 1e bf 3c b6 76 bf 78 f9 22 3e
       0.66536987 -0.6200372 -0.9637182 0.15915477
0001f0 9f db 25 3e f4 88 a5 be 7f 89 9a 3e 9f 63 00 3f
       0.1619706 -0.3233105 0.30183026 0.5015201
000200 09 0d 90 3e 77 46 63 3e f6 f5 0d 3e e9 0d 9f be
       0.28134945 0.22194849 0.13863358 -0.310653
000210 ac 20 2d bf 8e e4 2c bf 62 77 23 bf 44 69 2e bf
       -0.6762798 -0.67536247 -0.6385404 -0.6812937
000220 54 f8 b9 3d c8 4d f1 3c 84 cc 99 be 7e 1a 23 bf
       0.09080568 0.029456034 -0.30038846 -0.637123
000230 4e c8 a0 be 67 a5 92 3e e6 37 6e bf a9 4c fc bc
       -0.3140282 0.28641817 -0.93054044 -0.030798273
000240 1b 0a bf be 65 81 48 be 2a 18 e9 be 70 24 30 bd
       -0.37312397 -0.1958061 -0.45526248 -0.0430035
000250 fb 85 a7 3e 99 cf 63 3e 64 58 6c 3e 42 07 e1 3c
       0.32719406 0.22247161 0.23080593 0.027469281
000260 76 9a 01 3f 3d cd 64 be 44 bf 70 3e b7 f4 d5 be
       0.50626314 -0.22343917 0.23510462 -0.41788265
000270 0f 7c e8 3e 05 43 a0 3e 4e 17 9e 3e 40 fb ad 3e
       0.4540715 0.31301132 0.30877155 0.3398075
000280 46 9a 21 be 38 51 d1 3e e6 53 bd 3e 53 7c a3 3e
       -0.15781507 0.40882277 0.36978072 0.3193079
000290 45 65 85 3e a5 ba d2 bd 6d 0d d4 3e ce 63 ae be
       0.26053825 -0.10289506 0.41416493 -0.3406052
0002a0 c3 53 84 be 87 51 00 3e 25 28 cb 3c ed d2 5a bd
       -0.25845155 0.125311 0.024799416 -0.05342381
0002b0 8c 72 cd 3e 37 64 e4 3e b5 bc 89 3e e4 2b 24 3e
       0.40126455 0.44607708 0.26901785 0.16032368
0002c0 67 38 dc bc 5c 7f 15 3f 3c 50 d7 3e 5d 89 be 3d
       -0.026882363 0.5839746 0.420534 0.09303544
0002d0 70 6f d5 bd 75 53 44 be fe 0c 33 3f ed 0e 33 3f
       -0.10421646 -0.19172461 0.699417 0.6994465
0002e0 3f c5 c0 3e a3 c2 cb bc e1 76 21 be a4 21 3e bf
       0.37650487 -0.024873083 -0.15768005 -0.7427008
0002f0 85 0a 96 be 60 78 44 be c5 82 5c 3e 4d 16 0d be
       -0.293049 -0.19186544 0.2153426 -0.13778038
000300 fa d1 9c be 4f ab ed be 2f d9 a6 be 12 b1 83 be
       -0.3062895 -0.4641976 -0.32587573 -0.2572103
000310 45 83 c4 bd 30 38 65 be 2d c2 b3 3e c7 b3 b9 3e
       -0.0959535 -0.22384715 0.35109082 0.36269972
000320 bb f8 5d 3e be e7 23 3e 9c e0 08 3e 08 e7 7e be
       0.21676914 0.16006371 0.13366932 -0.24892819
000330 cd 27 ff 3e 08 4f 17 3e 60 69 c9 3c 89 89 eb 3e
       0.49835053 0.14776242 0.02458638 0.46003368
000340 a1 8a 2f 3e 3d a3 41 3e bd 0b 4d 3e f6 12 d3 bd
       0.17142726 0.18909927 0.20024009 -0.10306351
000350 21 f6 12 be c4 5c 0d bd 92 a1 0c 3e 73 a9 fe 3d
       -0.14351703 -0.034512296 0.13733509 0.124346636
000360 04 d5 42 3e a9 25 83 bd 2c c3 01 3e 13 2c 41 3e
       0.19026572 -0.064036675 0.12672108 0.18864469
000370 8f d7 05 3e 96 fd cf bd 84 48 78 be 93 ee 5f be
       0.1307051 -0.101557896 -0.24246413 -0.21868353
000380 7c f2 b4 be d8 22 ae 3d 45 bf b7 bd dd f7 29 be
       -0.3534125 0.0850274 -0.08972029 -0.16598459
000390 c5 5d c0 be 66 22 cb be 3a 96 28 bf be bb cf be
       -0.3757154 -0.3967468 -0.6585423 -0.40572923
0003a0 9f 08 10 bf 2f 23 57 be fe 62 c1 bd 84 8c b5 3d
       -0.56263155 -0.21009515 -0.094427094 0.08864692
0003b0 78 fe 10 3e dc 1d 07 be 19 37 84 be 6b 4d 47 bd
       0.14159572 -0.13194984 -0.25823286 -0.048657816
0003c0 94 ba 7c be 5c 3f 26 bf e7 36 95 be d5 78 0b be
       -0.24680549 -0.6494043 -0.2914345 -0.13620313
0003d0 f8 4a a4 bc 00 ea 5b 3e d3 a9 8f bd 3d ce de 3d
       -0.02005528 0.21475983 -0.07014813 0.108791806
0003e0 ab e0 35 3e 1a 1f 64 3e f5 2e a2 3e 1e 67 04 bf
       0.17761485 0.2227749 0.3167645 -0.51719844
0003f0 23 97 46 be 41 6e f3 3d 45 c6 75 3e 40 07 bc 3e
       -0.19393592 0.11886264 0.24001415 0.3672428

model.0.bias f4 [32]
000000 90 42 79 3e a9 bb 86 3e d7 15 57 3e a1 90 96 3e
       0.24341798 0.26315048 0.21004425 0.29407218
000010 5b 47 aa 3e 08 40 94 3e e6 76 a7 3e 77 f8 1e 3e
       0.33257565 0.28955102 0.327079 0.1552447
000020 39 81 7a 3e 84 46 50 3e bf ba 27 3e 41 aa 4d 3e
       0.24463357 0.203394 0.16379832 0.20084478
000030 34 bd 6a 3e 71 d9 74 3e be 71 6f 3e cb e4 ca 3e
       0.22923738 0.23911072 0.23383233 0.3962768
000040 ff bc 8f 3e 23 e0 3f 3e 1d 51 74 3e 12 b6 5b 3e
       0.2807388 0.18737845 0.23859067 0.21456173
000050 ca c3 49 3e 04 a7 9b 3e 83 ed f8 3d 45 a1 ab 3d
       0.19703594 0.3040086 0.12154677 0.08380369
000060 37 2b cf 3e 38 99 8c 3e 66 09 25 3e a9 5c 42 3e
       0.40462658 0.27460647 0.16116866 0.1898066
000070 31 ba c9 3e c7 fb ce 3d b3 e0 e9 3d b6 9e bb 3e
       0.39399865 0.101066165 0.11419811 0.36644524

model.2.weight f4 [32, 32]
000000 c7 6d 62 3f 0d ca 49 bf b5 2b 2a 3f 25 6f a2 bc
       0.88448757 -0.7882393 0.6647294 -0.019828388
000010 86 94 8d 3f af c0 79 3f 1f 42 24 3f 73 6d 1e 3d
       1.1060951 0.97559637 0.6416339 0.038678598
000020 8b 19 b4 be 3e 1d 2a bf 27 f8 47 bf f0 63 9f 3f
       -0.35175738 -0.6645087 -0.78113025 1.2452374
000030 2f 74 11 bf 28 29 2f bf e6 43 81 3f db 95 e4 3e
       -0.5681791 -0.68422174 1.0098846 0.4464558
000040 1e 64 10 3e be 81 2c 3f 37 ee 94 be c0 84 2d 3f
       0.14100692 0.6738547 -0.29087994 0.67780685
000050 1b c4 0f bf 1e dc 69 3f 03 96 9f bf 5a 99 da bd
       -0.5615861 0.913515 -1.2467655 -0.10673781
000060 9a b9 96 3e b9 73 0f 3f 27 d5 58 bf 8c 7f d8 be
       0.29438478 0.56035954 -0.84700245 -0.4228481
000070 9a 8f ec 3d 58 d0 3c 3f 3c db d2 3e f6 d5 09 be
       0.11550827 0.7375541 0.41182888 -0.13460526
000080 98 3c fb be 9a 44 75 be d1 49 6d bd f1 ec 18 3f
       -0.49069667 -0.2395195 -0.057931725 0.59736544
000090 e4 7a 26 be 36 b7 59 3f 2a c0 f2 3e 4d b9 6d bf
       -0.16257817 0.8504518 0.47412235 -0.9286087
0000a0 fa f2 02 3f 0f 23 05 3f a0 b5 24 3e b0 9c bd 3e
       0.51152 0.5200662 0.1608491 0.37033606
0000b0 c5 a8 d4 be b3 54 43 bf e4 cd 40 3f 6b 72 0b 3f
       -0.4153501 -0.76301116 0.75314164 0.5447146
0000c0 f0 9d 5e bf 5c 9f 75 be 92 82 24 3f cd 4b 91 be
       -0.86959743 -0.23986572 0.64261734 -0.28378144
0000d0 d9 5a 94 3e 43 3a 18 3f 7b 7d c4 3e 2a b0 2d bf
       0.2897556 0.594639 0.38376984 -0.6784693
0000e0 7d 8d 34 3f ca f9 33 be 9e 08 1e 3d ac 30 f0 3e
       0.70528394 -0.17575756 0.038582437 0.46912134
0000f0 06 6e 76 be c0 bf 21 bf 9a b3 54 3f 9a 23 37 bf
       -0.24065408 -0.6318321 0.8308655 -0.715387
000100 c6 5c 3b 3e aa 31 f5 be 96 1a a0 be 4c 10 04 3f
       0.18297109 -0.47889453 -0.31270283 0.5158737
000110 df 97 22 be dc c1 4d 3f 8b 45 43 3f 50 d0 36 bf
       -0.15878247 0.8037393 0.7627799 -0.7141161
000120 4c 1d 70 3f 54 b8 59 3f 28 5b d0 3e ba 7f 19 3e
       0.93794703 0.8504689 0.40694547 0.1499013
000130 8b 76 33 3e a2 04 15 bf b5 e4 30 3f 1f ae 07 3e
       0.1752569 -0.58210194 0.6909898 0.13250016
000140 6b cf 48 bf 1c e5 e3 be 45 4c 44 3f 6b 23 40 bf
       -0.78441495 -0.44510734 0.7667888 -0.75054044
000150 b8 ab 7f 3e ed b8 37 3f 8a 81 7a be 61 b2 81 3f
       0.24967849 0.7176655 -0.24463478 1.0132562
000160 ac 77 4c 3f 6e b8 4f bf b0 aa 3d 3e 22 33 32 3f
       0.79870105 -0.8114079 0.18522143 0.6960927
000170 6f e6 5d 3f 99 ba 56 be 08 73 2b 3f f8 fe 2f bf
       0.8667974 -0.20969619 0.669724 -0.68748426
000180 b2 20 86 3e 7d 22 38 3e 25 cf 36 bf eb 60 88 be
       0.2619682 0.17981906 -0.7140983 -0.26636443
000190 28 a4 91 be 56 0a 8f be 38 b2 60 be 85 0c cf 3f
       -0.28445554 -0.27937573 -0.21942985 1.6175696
0001a0 9c 14 08 be e7 40 a8 3d ee 42 14 3f 15 c1 32 bf
       -0.13289112 0.08215504 0.57914627 -0.6982587
0001b0 34 09 1b 3e 01 9c b7 3e 4b 16 4b bf 3d 26 3e 3b
       0.1514023 0.3586121 -0.7933089 0.002901449
0001c0 e9 c7 69 3f d4 d8 c5 3e 24 e6 d9 3e 3d 31 b2 3e
       0.91320664 0.3864199 0.42558396 0.3480319
0001d0 f6 1f 01 bf 81 dc 16 3d ee 0d 16 3f 78 e2 08 3f
       -0.50439394 0.036831383 0.58615005 0.53470564
0001e0 eb b2 52 be c7 24 a6 3d 22 56 c1 3d aa e6 d0 3e
       -0.20576064 0.081124835 0.09440257 0.40800983
0001f0 02 37 dd bd e5 42 35 3f 86 cb af be 22 09 cf be
       -0.108015075 0.708052 -0.34334964 -0.40436655
000200 d0 1b 4c 3f ec cf 28 bf 67 65 1d 3f 58 9b c0 bd
       0.7972994 -0.65942264 0.6148285 -0.094046295
000210 a7 18 a4 3f 28 55 b6 3e 90 52 b1 3e 38 97 72 3e
       1.2820023 0.35611844 0.34633303 0.23690498
000220 9f e6 ba be 00 dc 0b be 36 a1 35 bf 94 81 23 3f
       -0.36504075 -0.13658142 -0.70949113 0.63869596
000230 58 72 9f be fa 6c 31 be fb 0d 7c 3d 68 72 0d 3f
       -0.31141925 -0.17326728 0.06153677 0.55252695
000240 13 47 5d 3f 1e 02 1e 3f 47 02 01 bd 3f 99 69 3f
       0.86436576 0.6172198 -0.031496312 0.9124946
000250 d1 70 83 bd 4f 95 36 3f 2f 82 cb bd a4 57 f7 bd
       -0.064180024 0.71321577 -0.0993694 -0.12077263
000260 ae 52 97 be 54 3a 12 3f 92 8e 67 bf 08 64 b2 bd
       -0.29555267 0.5712025 -0.9045192 -0.08710486
000270 15 ef c2 be 09 b2 39 3f 18 c6 26 3e 30 d8 cb be
       -0.3807303 0.72537285 0.16286504 -0.39813375
000280 5c 73 bc bd 24 d2 89 3f bd 2a 99 be b5 01 27 3e
       -0.092016906 1.0767255 -0.2991542 0.16309245
000290 32 a2 29 bf 52 66 31 be a9 ad 02 bf c4 e9 7d 3e
       -0.66263115 -0.17324188 -0.51046234 0.24796206
0002a0 2d 46 88 3e 02 f8 5e 3f a9 84 3c 3f 3c f1 40 bf
       0.2661604 0.8709718 0.73639923 -0.75368094
0002b0 41 5b a6 3f 26 5a 1b 3f a6 03 8c be 2c 27 2f 3f
       1.2996598 0.6068443 -0.27346534 0.68419147
0002c0 52 36 1c be 8b 06 84 be c3 0c 57 3f ba e1 ef bd
       -0.15255097 -0.25786242 0.8400385 -0.11712976
0002d0 c6 4a 6d 3f cf 64 87 3e 04 bf bc 3f 34 29 04 bd
       0.9269222 0.26444098 1.4745793 -0.032265857
0002e0 7d 82 20 3f b1 92 8c be a4 50 2f 3f a4 5a 20 bd
       0.6269911 -0.27455667 0.6848242 -0.03914894
0002f0 f2 79 fc 3e 07 b1 2d bf 2a 85 34 be 95 b6 f2 3e
       0.49311787 -0.6784825 -0.17628923 0.47404924
000300 60 6f e4 be 44 a7 ef be d0 69 d0 be 41 c4 a0 3f
       -0.44616222 -0.468073 -0.4070573 1.2559892
000310 01 c9 05 3f 59 d9 00 3f a8 0b 41 3f ce 14 7d bf
       0.5225983 0.50331646 0.7540841 -0.9885987
000320 f5 e3 c2 3f 63 b4 a1 3f 93 f8 8e 3f bc 1b cd 3e
       1.5225817 1.2633175 1.1169609 0.40060222
000330 58 3b 3c bd 3f 50 23 bf 28 48 60 3f 14 58 82 3f
       -0.045955032 -0.6379432 0.876101 1.0183129
000340 81 d5 17 bf 36 f0 5c 3e 0f eb e8 3e 77 6c 31 3e
       -0.59310156 0.21576008 0.45491835 0.17326532
000350 8e 2f a8 3e ad d3 e9 3e d9 f1 2c be 28 70 81 bf
       0.3284878 0.45669308 -0.16889133 -1.0112352
000360 e8 a1 12 3f d6 66 a6 be 7f db 09 be a8 ae 55 3f
       0.572783 -0.32500333 -0.13462637 0.8346963
000370 b1 11 bd be 26 40 87 3e 4b 0c 58 3e d1 be 05 bf
       -0.3692756 0.2641613 0.2109844 -0.5224429
000380 c8 54 ac be a4 db 63 3f 9c 74 41 3d b6 fb be bc
       -0.33658433 0.8900702 0.047230348 -0.023313385
000390 7c db 1e bf cc 90 d9 be cf d3 2b bf c4 7e 3d 3d
       -0.62053657 -0.42493284 -0.6712007 0.04626347
0003a0 39 f9 17 3f 39 3f da 3e 15 9a 11 be 3d b7 14 bf
       0.5936466 0.4262636 -0.14218934 -0.580921
0003b0 da 2f 02 3f 79 7b 96 3f 1b 14 f2 be 64 4c 85 3d
       0.50854266 1.1756431 -0.47280964 0.06508711
0003c0 e5 3f 98 3e d3 a8 ec be 69 30 d6 3e d6 8c 68 bc
       0.29736248 -0.46222553 0.4183381 -0.014193734
0003d0 0b de 73 3f e7 b6 bb be 1d 00 b7 3f 16 c9 1d 3f
       0.95260686 -0.3666298 1.429691 0.6163496
0003e0 b7 69 b1 3e a2 2c 01 be 63 ea 87 3f f3 12 4b 3f
       0.34650967 -0.12614682 1.0618404 0.7932579
0003f0 a6 6f 6d 3f 2c 6a a2 be ea 77 00 bf b9 3f 58 3f
       0.92748487 -0.31721628 -0.50182974 0.84472233

model.2.bias f4 [32]
000000 db 0a 8c 3e 7e fa 8c 3e 17 2b 33 bc f6 1c c0 3e
       0.27352032 0.2753486 -0.010935566 0.37522095
000010 1f e4 cc bd 6e b5 00 bd 7b 1d 17 3e be c1 3f 3d
       -0.10004448 -0.031423025 0.1475734 0.046815626
000020 11 df e2 3e 34 33 d1 3d 20 f6 2a be 31 df 6a bd
       0.4431081 0.10214844 -0.16695452 -0.05734176
000030 85 b6 39 3e d3 59 93 3e 4a 08 00 3e f6 a5 41 be
       0.18136032 0.28779468 0.12503162 -0.18910965
000040 ff 6c ce 3e c8 51 b8 3d 24 18 94 3e 00 d9 2a 3e
       0.40317532 0.089999735 0.28924668 0.16684341
000050 93 93 d6 bc 5e 5a fa bd e5 f2 99 3e bf c0 bc 3e
       -0.026193416 -0.122242674 0.30068126 0.36865804
000060 1c 50 af 3e a9 e7 85 3e 5e e9 a6 3d 98 ce 19 be
       0.34240806 0.26153305 0.0814998 -0.15020216
000070 0b 8a a9 3e d0 4d 47 be 7a 25 fd 3c 8a 8f c2 3e
       0.3311313 -0.19463277 0.03090166 0.38000137

model.4.weight f4 [25, 32]
000000 25 c1 c3 3e 36 41 55 3e 35 31 3e bf ee d6 e2 bd
       0.38233295 0.20825657 -0.74293834 -0.11076151
000010 7f 39 98 3e cc 69 c3 be ec 70 2e c0 71 4f db be
       0.29731366 -0.38166654 -2.7256422 -0.42834046
000020 60 c8 8c 3c 0d 4c 89 bf ab 37 c1 3c 7b e8 0c bd
       0.01718539 -1.0726334 0.023586115 -0.0344014
000030 e1 86 41 3f 97 a2 3c 3d be ab 64 bf 79 6a 6f bf
       0.75596434 0.046053495 -0.8932456 -0.9352184
000040 c7 a7 7f be bd a4 93 3e b0 3b df 3e d9 c6 03 3f
       -0.24966346 0.28836623 0.43600225 0.5147529
000050 41 51 b2 bf 1c e5 71 3e e7 d9 43 3f 2b 32 01 3f
       -1.3931047 0.23622555 0.7650437 0.50467175
000060 e6 b4 c4 3e fc e8 60 3f 8c 10 ea be 84 e3 40 3d
       0.38419265 0.87855506 -0.4571575 0.047091976
000070 23 9c 3c 3f 54 75 8c 3d 57 72 e0 be e5 bc 34 bf
       0.73675746 0.06858316 -0.43837234 -0.7060073
000080 b9 c2 87 be fb 96 88 be 35 88 87 3d 6d ab aa 3d
       -0.2651575 -0.2667769 0.06617776 0.08333478
000090 3d f3 4c bd 7a a8 94 3c 02 35 8b 3d 70 e8 68 bd
       -0.050036658 0.018146742 0.0679722 -0.056862295
0000a0 e3 a5 3f bf 4e 75 5a be 0f 35 cb bd 13 6a a9 3e
       -0.748625 -0.2133381 -0.099222295 0.3308874
0000b0 48 42 d3 bc 16 e7 af bc c9 6f db 3e 1f 1f 8f 3e
       -0.025788441 -0.021472495 0.42858723 0.2795343
0000c0 53 89 04 3e 50 3d 3b 3e fe 8c b5 be 97 dd 14 bf
       0.1294301 0.18285108 -0.3545913 -0.5815062
0000d0 99 0e 3b 3e 49 d3 27 3e 3e ac 92 be 96 25 62 3d
       0.18267287 0.16389193 -0.28647035 0.055211626
0000e0 ac 92 c3 bc e0 2b 8b 3b 76 f7 2c bd b0 2b 73 3d
       -0.02387365 0.0042471737 -0.042228185 0.059367836
0000f0 04 6b 41 bf 68 0b e3 3e 6a c1 19 3c df df 2f 3e
       -0.7555392 0.4434464 0.009384492 0.17175244
000100 89 42 d5 3e 68 f2 b7 bd 44 65 d9 be d6 51 b3 be
       0.41652325 -0.08981782 -0.42460072 -0.35023373
000110 28 59 7d 3d 43 6a f0 bf a5 05 90 3e 7b 58 3a bf
       0.061852604 -1.8782429 0.28129306 -0.7279126
000120 33 55 03 3f 10 e6 ce bf 81 37 1b 3e 56 b9 99 be
       0.5130188 -1.616396 0.15157892 -0.30024213
000130 a7 d4 ca 3e 23 07 3d be 3a 4b 51 3e 21 c1 5c bf
       0.39615366 -0.18459754 0.20438853 -0.8623219
000140 f5 5e 07 3f 7e 28 9f bf 6f a8 83 bc a7 2c 09 3f
       0.5287927 -1.2434232 -0.016071526 0.5358376
000150 ab e3 9c bf e8 8a b0 bf d8 03 ff bd 26 59 78 3c
       -1.2256979 -1.3792391 -0.12451905 0.015157973
000160 d6 95 00 3f 50 cc 70 3e 6e 9b a0 3d 69 7b 0b be
       0.5022863 0.23515439 0.07842146 -0.13621296
000170 b9 4c d9 3e 61 cf 1b 3e ac 75 85 3e 65 ff 57 be
       0.42441347 0.15215828 0.2606634 -0.21093519
000180 1c 0e c9 bd c8 0d 5d c0 e4 fe 05 c0 71 d3 64 3e
       -0.09817144 -3.4539661 -2.0936823 0.22346283
000190 c7 7d 8a 3d f5 52 7c bc eb 7d 02 bf b8 0d 69 3e
       0.067622714 -0.015400638 -0.50973386 0.2275914
0001a0 ba 2a 70 be 4a e5 b1 3e aa fb 33 bd ac f9 41 be
       -0.23453799 0.34745246 -0.043941177 -0.18942899
0001b0 b5 80 a7 3e d8 4f 15 3f 51 fb b0 bf 5a 31 74 bf
       0.32715383 0.58324957 -1.3826696 -0.95387805
0001c0 14 e5 ca be 6b 9f c2 be 9d 11 f8 3e 50 d0 6c 3e
       -0.39627898 -0.3801225 0.48450938 0.2312634
0001d0 a2 63 4e be 1e 0a 5e 3d 41 43 05 3f 3e 69 83 bf
       -0.20155194 0.054208867 0.52055746 -1.0266492
0001e0 22 39 0e 3e 80 48 a1 bc 64 ef 94 bf 9a f9 e1 3d
       0.13888982 -0.019687891 -1.1635556 0.11033936
0001f0 ea 30 1a be a8 89 cc be 37 ee 84 bf 30 f6 2b 3f
       -0.15057722 -0.39948773 -1.0385197 0.6717253
000200 59 64 ed 3e 47 6c 72 bf b2 f6 49 bf 4b 9b b2 3c
       0.46365622 -0.9469647 -0.7889205 0.021802565
000210 e7 dc 20 3e 25 f8 e5 be bf 0d 11 bf 27 b0 15 be
       0.15709268 -0.44915882 -0.566616 -0.14617978
000220 25 0c 5a 3e c6 86 2d be c4 80 2b 3e a8 74 68 3c
       0.21293695 -0.16945943 0.16748339 0.014187969
000230 5c 36 43 bd 17 51 94 3c 0b 18 23 be e8 99 27 bf
       -0.047659263 0.018105073 -0.1592714 -0.6546922
000240 56 4c 89 3e f2 07 6c bf 42 ea b2 3e 7d 86 68 3e
       0.26816052 -0.92199624 0.3494435 0.22707553
000250 a5 d5 bb be fa 0d 5f bf 59 96 a9 3e 51 3a bd bd
       -0.36686435 -0.871307 0.3312252 -0.092396386
000260 e3 c2 30 3d 5d 62 05 3f 66 4c 11 bf f4 56 00 be
       0.04315461 0.52103215 -0.567572 -0.1253317
000270 1d 9e 41 be 3a da 02 be 42 ab ae 3d 0b 7a 9e 3c
       -0.18907972 -0.1277856 0.085287586 0.019345304
000280 e7 a6 64 3e c2 e9 85 bf 51 27 f6 be 67 42 a4 bd
       0.22329293 -1.0461962 -0.4807687 -0.08020478
000290 15 82 96 3d f5 db ab bd 1b 15 c6 bc d5 ba 7b 3e
       0.0734903 -0.08391563 -0.024179986 0.2458299
0002a0 c1 58 6b bc c0 ce 08 3f ad 44 0b be 80 f2 ce 3d
       -0.014364422 0.53440475 -0.13600416 0.10104847
0002b0 b4 cb 39 3e 50 94 81 3e d4 bb d2 3e 45 dd 99 bd
       0.18144113 0.25308466 0.41158926 -0.07512907
0002c0 90 61 73 be 2e 41 b3 be a7 3c 0d 3e 63 7d c7 3d
       -0.23767686 -0.35010666 0.13792668 0.097407125
0002d0 61 cb 60 be 7d 52 fe be 55 2e 75 bd db 6a 81 be
       -0.21952583 -0.4967231 -0.05985864 -0.25276837
0002e0 76 60 b4 bd 74 5a d2 3b 85 8b c8 bd 87 9f 0f 3e
       -0.08807461 0.0064194743 -0.09792236 0.14025699
0002f0 4f 51 37 bf d0 bd 9f 3c c0 00 1c 3e fc f7 9d be
       -0.7160844 0.01949969 0.15234661 -0.3085326
000300 da 73 a1 bf d0 53 5c 3e ae 52 20 3f b9 dc 04 bd
       -1.261348 0.21516347 0.6262616 -0.03243706
000310 8e 2e e5 bf c5 61 16 3f da 2b a1 bd 8d 3b ab 3e
       -1.7904832 0.58742934 -0.07869692 0.3344387
000320 43 48 57 bf ac 03 0c 3e bd 2d e0 bc 31 6e 2d bf
       -0.8409464 0.13673276 -0.02736556 -0.67746264
000330 46 f3 84 bf ac 8e 42 bf 54 26 3b 3e 18 d1 9d 3e
       -1.0386741 -0.7599895 0.1827634 0.30823588
000340 78 07 c2 bf 48 f1 01 3f 8f 94 9d bd 3a 45 0d bf
       -1.5158529 0.5075879 -0.07694351 -0.55183756
000350 aa a6 34 bd 10 96 29 3f 2a 7c 0b bf f1 50 01 3f
       -0.044104256 0.662446 -0.54486334 0.5051413
000360 75 11 00 bf df 9d 86 3e 0a 16 43 3f e8 f3 a5 3c
       -0.5002664 0.2629232 0.76205504 0.020257905
000370 51 ed 85 3f ec e6 77 3e 30 69 a4 3e 0d ad cc be
       1.0463048 0.24209183 0.32111502 -0.39975777
000380 97 4d d5 ba b9 e8 cb 3e 32 36 d3 3e 03 17 a9 bf
       -0.0016273734 0.3982599 0.41252285 -1.3210148
000390 46 21 0e bf 6a 4a 7a be 92 1e 0c 3f 58 5a 45 be
       -0.5551952 -0.24442449 0.54734147 -0.19272745
0003a0 da 68 2b 3f ee 1f 5b be 85 f7 23 bd 0e f7 82 be
       0.66956866 -0.21398899 -0.040030975 -0.25579113
0003b0 df d0 c8 be 42 d0 69 bf e5 22 da 3e ce a7 a2 3e
       -0.39221856 -0.913334 0.42604747 0.3176865
0003c0 ec d4 d0 3e 36 1a e1 3e 85 3d 2c c0 12 d7 03 bf
       0.40787446 0.4396531 -2.6912549 -0.51500046
0003d0 1e 6d 7f bd 4d 55 71 bc 61 2a 84 bf c2 a5 d6 3e
       -0.06235992 -0.01472981 -1.0325433 0.41923338
0003e0 d1 1d c2 3e df 05 05 bf 4a 29 0b 3f 1e f4 e6 3d
       0.37913373 -0.51962084 0.5435988 0.112770304
0003f0 a5 d4 d3 bd 79 a2 38 bd 9b 42 61 3c 71 01 0c bf
       -0.10343293 -0.04507682 0.01374879 -0.546897

model.4.bias f4 [25]
000000 68 aa 77 be 07 6d 86 be 7a 6f e9 3e 63 52 3a 3e
       -0.24186099 -0.26255056 0.45592862 0.1819549
000010 d2 0f c7 3d ae df 0a be c3 3a 74 be f2 17 74 3e
       0.09719814 -0.1356189 -0.23850541 0.2383726
000020 0d fb bc 3e f5 49 96 be ee f2 93 3c 63 03 d0 bd
       0.36910287 -0.293533 0.018060174 -0.10156896
000030 bf 55 25 bd bc 6a 55 3d 35 82 e5 3d 5e 94 31 3f
       -0.040364977 0.052103743 0.11206476 0.69367015
000040 8c a2 2d be 38 48 a4 be 53 79 f9 bd 66 4f c2 3d
       -0.16956538 -0.3208635 -0.12181344 0.094878
000050 fb 66 e2 3d 20 d0 f9 bd 2f 37 a8 3d a6 95 e5 3c
       0.11054798 -0.121979 0.082136504 0.02802546
000060 32 b5 81 be
       -0.25333554
