models/var-info-max/empowerment_2_steps/TwoRoom-v0_phi.pth (torch_old, 45478 bytes, 5 tensors)

model.0.weight f4 [32, 311]
-0.04645072 -0.041397464 -0.022464799 0.021050017 0.022081617 -0.043626696 -0.03916064 0.007031475
-0.04767829 -0.04499888 -0.011845866 0.0020490745 0.019336106 0.005926955 0.012482715 -0.04329534
-0.01805811 -0.045201257 -0.042926192 -0.014909015 0.0008534372 -0.05382243 -0.021477977 -0.044857375
-0.01924569 -0.041757643 -0.051551808 -0.011846435 0.020752447 0.0095264595 -0.02378463 0.017922487
-0.040484637 0.011843498 -0.046827305 -0.044119883 -0.016602729 0.020880288 -0.022183854 -0.016241733
-0.048124045 0.019595882 -0.04724944 -0.053662788 0.022226041 0.03682619 0.033157483 -0.016395442
0.020634051 -0.051605426 -0.042336993 0.039880905 -0.056450177 0.01908541 0.019919015 0.020501522
-0.000878056 -0.0036433365 0.019561144 -0.044580907 -0.025325047 -0.040747162 -0.05031523 0.010944752
0.014733975 -0.013101669 -0.030384365 0.01961878 0.05096743 -0.014468698 0.018755011 0.049631134
0.027328685 0.026074078 -0.048044138 -0.04807506 -0.047488555 -0.041126948 0.00558563 -0.053372104
0.0590099 0.039482746 -0.050067477 -0.022426898 -0.04829369 -0.0461033 -0.026274893 0.053427294
0.050775684 0.05204649 -0.030829681 -0.0451143 0.08146824 -0.041405514 -0.054001104 -0.022889167
-0.04866271 0.007878586 -0.009301475 -0.009237415 -0.052883975 -0.029959356 -0.043968424 -0.020012058
-0.01544272 0.040148817 0.021769745 0.027265633 -0.04782074 -0.04670726 -0.04176789 0.021257872
0.04943125 -0.05490553 -0.00010392188 0.012849319 -0.013804933 -0.048835397 -0.045407675 -0.045014106
-0.045692064 -0.049210444 0.009187339 0.059828676 0.027043045 0.03915871 0.08627605 0.13626786
-0.055830147 0.08161237 0.06002051 0.027668698 0.0058579855 0.01771522 0.0029252267 -0.027376676
-0.026594045 -0.041160893 -0.044334125 -0.007970117 -0.029153058 0.026049834 0.024274925 -0.055082582
0.08668012 -0.043346237 0.0864255 0.017621826 -0.045585014 0.025391776 0.070038624 0.011338398
0.0038111361 -0.043588728 0.08594858 0.06765383 -0.031207155 -0.013053578 0.010678554 0.0747208
0.037664924 -0.056592356 0.0275692 0.040502142 0.030788884 0.068645805 0.03996146 -0.04576142
0.019851895 -0.054567866 0.009785066 -0.040048067 -0.03519768 -0.04895452 -0.04362225 -0.04566259
-0.043839276 0.039446693 0.036104724 -0.048910428 0.07676083 -0.04751122 -0.047323503 0.03084398
0.07609919 -0.04376088 0.019138314 0.037887476 0.0020625892 -0.050150838 -0.029108798 -0.048676044
-0.042030554 -0.019233588 0.059168234 0.017655598 0.03479016 0.08426478 0.14222325 0.105080575
0.04349102 0.06429207 0.07662525 0.039002396 0.038175415 0.030444862 0.023517834 -0.034419786
-0.04602518 0.076490805 -0.043687932 0.030813664 0.025155421 -0.04533779 0.026574587 0.014036775
0.1431161 -0.045730796 -0.025074827 0.040661428 -0.055475645 -0.012657187 0.024306979 0.014886677
-0.042124398 -0.0038843825 0.021456853 -0.04613667 0.006805149 0.010091579 -0.03840407 -0.015191628
-0.0488159 0.013102464 -0.047473647 -0.04246914 -0.054090787 0.001822583 0.05900467 0.01667612
0.018974114 -0.045259006 -0.046600856 -0.047561284 -0.042072266 0.0011017503 0.021643188 0.0053580413
-0.04731092 -0.0463172 0.053251237 -0.05102845 -0.04056427 0.014055613 -0.052662384 0.024185853
00000000: 1c43 3ebd 6390 29bd 1908 b8bc 1671 ac3c
00000010: 82e4 b43c e8b1 32bd e866 20bd 4a68 e63b
00000020: 504a 43bd bf50 38bd 2a15 42bc c449 063b
00000030: c166 9e3c e736 c23b 4d84 4c3c 7456 31bd
00000040: 9aee 93bc f424 39bd 60d3 2fbd f144 74bc
00000050: 33b9 5f3a e974 5cbd 95f2 afbc 5ebc 37bd
00000060: 23a9 9dbc 100a 2bbd fd27 53bd 8d17 42bc
00000070: 0901 aa3c de14 1c3c fcd7 c2bc 2ed2 923c
00000080: 38d3 25bd 3b0b 423c fdcd 3fbd 0db7 34bd
00000090: 7202 88bc 230d ab3c eaba b5bc 620d 85bc
000000a0: b81d 45bd 8b87 a03c a188 41bd 83cd 5bbd
000000b0: 6313 b63c 0fd7 163d 24d0 073d bc4f 86bc
000000c0: be08 a93c 3660 53bd 8e69 2dbd 295a 233d
000000d0: 4d38 67bd 0159 9c3c 342d a33c cff2 a73c
000000e0: 572d 66ba 0bc5 6ebb b13e a03c 789a 36bd
000000f0: 7976 cfbc 7fe6 26bd 5817 4ebd 9e51 333c
00000100: c566 713c 62a8 56bc a2e8 f8bc 90b7 a03c
00000110: 39c3 503d 1e0e 6dbc 1ca4 993c 044a 4b3d
00000120: 68e0 df3c 4e99 d53c eec9 44bd 5bea 44bd
00000130: 5c83 42bd bb74 28bd a907 b73b b59c 5abd
00000140: 5db4 713d a9b8 213d 8e13 4dbd 9db8 b7bc
00000150: 9bcf 45bd d0d6 3cbd 723e d7bc 94d6 5a3d
00000160: 2afa 4f3d b32e 553d 878e fcbc c6c9 38bd
00000170: d2d8 a63d d498 29bd 4330 5dbd 1082 bbbc
00000180: 8d52 47bd 2f15 013c 3765 18bc 8758 17bc
00000190: de9c 58bd 536d f5bc 3c18 34bd 54f0 a3bc
000001a0: 7603 7dbc 1673 243d 7756 b23c 2d5c df3c
000001b0: aedf 43bd 1d50 3fbd cf14 2bbd fd24 ae3c
000001c0: 6c78 4a3d 9fe4 60bd a2f0 d9b8 f385 523c
000001d0: 162e 62bc a007 48bd 66fd 39bd b660 38bd
000001e0: 9a27 3bbd e490 49bd 7e86 163c ea0e 753d
000001f0: 6089 dd3c e264 203d 7fb1 b03d cd89 0b3e
00000200: 27ae 64bd 6324 a73d 11d8 753d 77a9 e23c
00000210: 58f4 bf3b 821f 913c 29b5 3f3b 0d45 e0bc
00000220: c1db d9bc 5398 28bd b397 35bd 1895 02bc
00000230: 65d2 eebc 7666 d53c 35dc c63c 469e 61bd
00000240: 5985 b13d d38b 31bd daff b03d a65b 903c
00000250: 5ab7 3abd 6a02 d03c 6970 8f3d b0c4 393c
00000260: 41c4 793b 188a 32bd cf05 b03d 178e 8a3d
00000270: 26a6 ffbc adde 55bc 1af5 2e3c 3807 993d
00000280: 8946 1a3d 63cd 67bd ced8 e13c 93e5 253d
00000290: f838 fc3c 2c96 8c3d a1ae 233d 5470 3bbd
000002a0: 71a0 a23c 8e82 5fbd 8b51 203c 7109 24bd
000002b0: 712b 10bd 8984 48bd 3fad 32bd b208 3bbd
000002c0: d090 33bd db92 213d 8ce2 133d 4d56 48bd
000002d0: c834 9d3d 209b 42bd 4ad6 41bd 84ac fc3c
000002e0: e4d9 9b3d 9c3e 33bd f4c7 9c3c e62f 1b3d
000002f0: 812c 073b f76a 4dbd 9375 eebc 8860 47bd
00000300: 3b28 2cbd c28f 9dbc 645a 723d 79a2 903c
00000310: 2080 0e3d 0393 ac3d f9a2 113e 7c34 d73d
00000320: a423 323d 90ab 833d b3ed 9c3d fac0 1f3d
00000330: d35d 1c3d 8167 f93c 79a8 c03c c3fb 0cbd
00000340: e684 3cbd 36a7 9c3d 1ef2 32bd f06c fc3c
00000350: be12 ce3c 1eb4 39bd f3b2 d93c 80fa 653c
00000360: 078d 123e 3750 3bbd b969 cdbc 998c 263d
00000370: 6e3a 63bd 1760 4fbc 6e1f c73c 40e7 733c
00000380: a28a 2cbd 2091 7ebb 48c6 af3c cef9 3cbd
00000390: bafd de3b 2657 253c 964d 1dbd 4ee6 78bc
000003a0: 2ef3 47bd b8ab 563c ba73 42bd 1ff4 2dbd
000003b0: 4d8e 5dbd bde3 ee3a e1ae 713d 5c9c 883c
000003c0: 9a6f 9b3c 8261 39bd 8ae0 3ebd 9fcf 42bd
000003d0: f853 2cbd 9b68 903a 0e4d b13c 8292 af3b
000003e0: 18c9 41bd 1bb7 3dbd f81d 5a3d 3503 51bd
000003f0: b826 26bd 8449 663c 83b4 57bd 6921 c63c

model.0.bias f4 [32]
-0.14323184 0.36673775 0.36165008 -0.18150142 -0.14927675 -0.17458947 -0.08292675 -0.16537936
0.41833407 -0.13769197 -0.062476832 -0.16842376 -0.14282848 0.34635186 -0.15983976 -0.14439814
-0.06483442 0.32930043 -0.21270223 -0.16363649 -0.16584483 -0.15376788 -0.18107398 -0.19845805
-0.13435663 0.34169865 -0.1317837 -0.102994956 -0.17455876 -0.13710998 -0.04448945 -0.16932277
00000000: 5eab 12be 0dc5 bb3e 332a b93e 82db 39be
00000010: 01dc 18be 95c7 32be 80d5 a9bd 3559 29be
00000020: e22f d63e 20ff 0cbe b5e7 7fbd 4777 2cbe
00000030: a141 12be 0855 b13e 09ad 23be 1bdd 13be
00000040: e9c7 84bd 119a a83e 9dce 59be 5390 27be
00000050: 3ad3 29be 5475 1dbe 756b 39be 9638 4bbe
00000060: c994 09be 20f3 ae3e 4ef2 06be 05ef d2bd
00000070: 88bf 32be 8f66 0cbe 923a 36bd f362 2dbe

model.2.weight f4 [32, 32]
0.013481379 0.08108114 -0.13373917 0.16600995 0.016822591 0.14310019 0.018595383 0.019945934
-0.09927153 0.11547671 0.08634324 0.052145496 -0.1433083 0.06292611 0.039785236 -0.039451838
0.11957954 -0.06651615 -0.10977994 0.07281795 -0.1388645 0.0025803596 0.107100025 -0.038233474
-0.13109653 -0.06614143 -0.0012007207 0.10785566 -0.06766668 -0.091620274 -0.16527891 0.13725044
0.06485073 0.041187946 0.098973215 0.1168165 0.13587317 -0.05823841 0.13260676 0.06778065
-0.048306502 -0.05858217 0.0980974 -0.11187337 0.15859118 0.1550553 -0.07755681 -0.05058582
-0.0020459294 0.045089055 -0.06285106 0.124416605 0.12204502 0.0742134 -0.067160465 0.16086729
-0.10247998 -0.16902803 -0.096048914 -0.031487115 0.13094603 -0.14202927 -0.12892875 -0.001717186
0.13550022 0.03740631 0.029785566 0.1478441 0.047822896 0.1615294 0.07958412 0.0023635058
0.07871488 0.14651698 0.052499823 -0.024569739 0.11019735 -0.06232461 0.032211613 -0.07445613
0.093216285 0.081236675 -0.0415491 -0.008610268 -0.0966685 0.21314108 -0.054872222 0.043968067
0.084576294 0.14403012 -0.018680036 0.25818348 0.11399099 -0.11796015 -0.06060722 0.113496006
0.054167993 0.005904821 0.13846785 0.15121563 0.03231567 -0.09154707 -0.10465468 -0.055447035
0.018222827 -0.10153142 -0.1772251 -0.13466632 -0.078744315 0.12051738 -0.07026239 0.063283585
0.031337492 0.102863066 -0.02277665 -0.063979186 -0.011463751 -0.095226295 -0.18143918 -0.15771773
-0.022209197 0.0021796636 -0.15228805 -0.11733184 -0.15205102 0.02262386 0.048507273 0.030023906
0.07420491 -0.29910114 -0.008762579 0.2209159 -0.036197744 0.051302694 -0.101985395 0.050936367
-0.07976465 0.14634909 -0.015983986 0.13216268 -0.10531274 -0.20035607 0.19850309 0.1308017
-0.01000777 -0.17107995 0.12271781 0.2006439 0.05358547 0.12095199 -0.0057363855 -0.005630252
0.1329479 0.017345453 0.01017559 -0.08887472 -0.029348055 -0.022831853 -0.02880402 -0.11714065
0.11196728 0.07446425 0.052559417 -0.07197512 0.10659577 0.053504903 -0.16071767 0.04550287
-0.13340747 -0.07897143 -0.15640481 0.032203242 0.0544582 -0.07134054 0.08337383 0.008983552
-0.12003256 0.040615864 0.097321935 -0.11513338 0.020775378 0.050209016 0.09780012 -0.09455135
-0.11975138 -0.012682384 0.11918081 0.01794903 -0.06988568 -0.064750455 0.1713709 0.054863065
-0.09157073 -0.026794076 -0.16421318 -0.11220064 0.014328942 0.010933086 -0.015033022 -0.09732803
-0.0059642196 -0.055985868 0.17200316 -0.027345568 -0.08893602 -0.05838521 -0.08777998 0.0051153153
-0.075741045 0.0073090047 -0.12441751 -0.07264899 -0.17355305 0.05908963 -0.10827184 0.15118046
0.018278673 -0.0622726 -0.10652949 -0.15739135 -0.016786471 0.102771774 -0.059177376 0.029963002
0.035345413 -0.18301173 0.049594875 -0.07539325 -0.1297044 -0.09776092 -0.093705595 0.046894893
-0.14873418 -0.18810503 0.07952695 0.09212963 -0.18228266 -0.2322361 0.14580081 -0.021259665
-0.1439366 -0.23801686 -0.11574767 0.09099559 -0.018621663 0.09180471 -0.011926079 0.0016719514
-0.06652615 -0.27626902 -0.08608846 0.0677795 -0.19986387 0.069690175 -0.01837999 -0.031519562
00000000: 00e1 5c3c de0d a63d ecf2 08be 83fe 293e
00000010: 88cf 893c db88 123e 5855 983c a865 a33c
00000020: df4e cbbd 0e7f ec3d bad4 b03d 8496 553d
00000030: 69bf 12be 68df 803d d8f5 223d 4098 21bd
00000040: 1ee6 f43d 9f39 88bd 4ed4 e0bd 9421 953d
00000050: 7f32 0ebe 401b 293b 4257 db3d b49a 1cbd
00000060: 2b3e 06be 2875 87bd 8061 9dba 6ee3 dc3d
00000070: d494 8abd 69a3 bbbd e03e 29be 618b 0c3e
00000080: 76d0 843d b1b4 283d 78b2 ca3d 7d3d ef3d
00000090: 5622 0b3e 668b 6ebd 11ca 073e 95d0 8a3d
000000a0: 0add 45bd dcf3 6fbd 4ae7 c83d de1d e5bd
000000b0: ba65 223e d1c6 1e3e 1bd6 9ebd 1433 4fbd
000000c0: 0015 06bb 4daf 383d 0eb8 80bd 22ce fe3d
000000d0: bdf2 f93d 32fd 973d 6d8b 89bd 65ba 243e
000000e0: 06e1 d1bd af15 2dbe 4bb5 c4bd a2f8 00bd
000000f0: b716 063e 1f70 11be e605 04be 3313 e1ba
00000100: 92c0 0a3e 5c37 193d dc00 f43c 7264 173e
00000110: f1e1 433d f767 253e 00fd a23d 0ce5 1a3b
00000120: 4435 a13d 8c08 163e 0e0a 573d 7a46 c9bc
00000130: 26af e13d 1748 7fbd 53f0 033d 757c 98bd
00000140: 2ee8 be3d 6a5f a63d 642f 2abd 1512 0dbc
00000150: 22fa c5bd a841 5a3e b2c1 60bd dc17 343d
00000160: 5636 ad3d a27c 133e e006 99bc a030 843e
00000170: 1c74 e93d 1795 f1bd 473f 78bd 9870 e83d
00000180: 42df 5d3d 3b7d c13b 84ca 0d3e 45d8 1a3e
00000190: 705d 043d 087d bbbd 3155 d6bd 6e1c 63bd
000001a0: 0a48 953c b5ef cfbd 7f7a 35be f8e5 09be
000001b0: b344 a1bd d1d1 f63d bae5 8fbd d39a 813d
000001c0: be5b 003d dfa9 d23d 1996 babc 8507 83bd
000001d0: 75d2 3bbc 0106 c3bd 31cb 39be c280 21be
000001e0: 10f0 b5bc b0d8 0e3b 66f1 1bbe ad4b f0bd
000001f0: 43b3 1bbe ac55 b93c 90af 463d b2f4 f53c
00000200: bef8 973d c923 99be ec90 0fbc c737 623e
00000210: 1644 14bd c622 523d b8dd d0bd a7a2 503d
00000220: a65b a3bd 89dc 153e d9f0 82bc a755 073e
00000230: 35ae d7bd 242a 4dbe 6544 4b3e e1f0 053e
00000240: a1f7 23bc 952f 2fbe 7a53 fb3d 9875 4d3e
00000250: 707c 5b3d adb5 f73d 4af8 bbbb fa7d b8bb
00000260: 7f23 083e 0d18 8e3c 85b7 263c f303 b6bd
00000270: 556b f0bc de09 bbbc 68f6 ebbc 70e7 efbd
00000280: 1a4f e53d b680 983d 8b48 573d b167 93bd
00000290: e24e da3d f527 5b3d 2c93 24be 3861 3a3d
000002a0: f89b 08be c6bb a1bd 9528 20be 8ce7 033d
000002b0: 900f 5f3d fd1a 92bd e6bf aa3d c02f 133c
000002c0: a1d3 f5bd d25c 263d b950 c73d 0dcb ebbd
000002d0: 2031 aa3c f8a7 4d3d 6e4b c83d 23a4 c1bd
000002e0: 3640 f5bd c6c9 4fbc 1215 f43d d809 933c
000002f0: 3920 8fbd e39b 84bd da7b 2f3e 18b8 603d
00000300: 6f89 bbbd 407f dbbc 8027 28be 73c9 e5bd
00000310: f0c3 6a3c b020 333c 104d 76bc eb53 c7bd
00000320: 806f c3bb 7051 65bd 9921 303e d003 e0bc
00000330: 1724 b6bd 5425 6fbd fdc5 b3bd 609e a73b
00000340: 1f1e 9bbd 6080 ef3b 9cce febd fec8 94bd
00000350: e4b7 31be f807 723d a0bd ddbd 0dcf 1a3e
00000360: 28bd 953c 8e11 7fbd 222c dabd 332b 21be
00000370: c883 89bc 027a d23d fa63 72bd f874 f53c
00000380: 5ac6 103d 6d67 3bbe ff23 4b3d c767 9abd
00000390: 3bd1 04be e136 c8bd b8e8 bfbd dc14 403d
000003a0: c64d 18be 9b9e 40be 07df a23d 76ae bc3d
000003b0: 4ea8 3abe 4dcf 6dbe cf4c 153e c028 aebc
000003c0: 1e64 13be b1ba 73be 1d0d edbd e55b ba3d
000003d0: 758c 98bc 1c04 bc3d 9a65 43bc 6125 db3a
000003e0: dd3e 88bd 2273 8dbe 264f b0bd facf 8a3d
000003f0: 1da9 4cbe b9b9 8e3d a291 96bc a81a 01bd

model.2.bias f4 [32]
-0.098477356 -0.18103413 0.48068187 0.5025304 -0.05200556 -0.09840458 -0.022490576 0.050649468
-0.10030547 -0.15554526 -0.05269557 0.51202136 -0.10140096 -0.02296103 0.0048631704 -0.06383087
0.5070525 0.03073808 0.39050952 -0.17046683 -0.1983203 0.43584043 -0.04139374 0.010065301
0.03719903 0.0027320068 -0.05436392 0.4375341 0.036560915 0.41101474 -0.1393929 -0.14459386
00000000: 7fae c9bd 0361 39be ef1b f63e d5a5 003f
00000010: c803 55bd 5788 c9bd 283e b8bc d175 4f3d
00000020: f46c cdbd 4247 1fbe 4fd7 57bd d513 033f
00000030: 4eab cfbd c518 bcbc 3b5b 9f3b c2b9 82bd
00000040: 31ce 013f 6dce fb3c ddf0 c73e db8e 2ebe
00000050: 7a14 4bbe 7a26 df3e 7b8c 29bd efe8 243c
00000060: 035e 183d 780b 333b b4ac 5ebd 7804 e03e
00000070: e6c0 153d 8670 d23e 03bd 0ebe 6a10 14be

model.4.weight f4 [1, 32]
-0.07206203 0.10267823 0.20641331 0.3524511 -0.10272684 -0.0062593827 0.11869724 0.139734
0.059724618 0.16671772 0.00021081472 0.24179925 -0.13557321 -0.10363295 0.06470228 -0.14487094
0.39534295 -0.12249094 0.30387574 -0.09609066 0.0790997 0.3367522 -0.00054705376 0.12108874
-0.0022723416 0.009845368 -0.03944358 0.25974363 -0.05323697 0.35957378 0.048783183 -0.054805968
00000000: 4295 93bd f748 d23d 035e 533e 7874 b43e
00000010: 7362 d2bd 821b cdbb 8a17 f33d 6e16 0f3e
00000020: cda1 743d 0db8 2a3e 250e 5d39 399a 773e
00000030: b4d3 0abe 833d d4bd a182 843d 0c59 14be
00000040: 646a ca3e 88dc fabd 9a95 9b3e 2ecb c4bd
00000050: 06ff a13d c96a ac3e 2868 0fba 60fd f73d
00000060: 91eb 14bb 774e 213c 978f 21bd 1efd 843e
00000070: 020f 5abd 0e1a b83e e0d0 473d 397c 60bd
