models/var-info-max/empowerment_2_steps/TwoRoom-v0_decoder.pth (torch_old, 88455 bytes, 6 tensors)

model.0.weight f4 [32, 622]
00000000: ee3e a23d d473 c1bb fdcc febd 9f93 8bbe
00000010: 217e fdbe aa79 ffbc 171b 26be 91d4 8bbe
00000020: 660d 003e 7ba2 31bd c110 bf3d e2b1 8cbd
00000030: 3915 b3be 60d3 debd bade 2abe f75d 68be
00000040: f1ff a5be 3909 0d3e 8fcc 713d 7ed6 0fbe
00000050: f3f6 b2be ca91 3dbf 90ba 5bbe bdc1 dcbc
00000060: f44e 9bbe 7586 e13d ed65 003b a98e df3c
00000070: ad03 5cbd d637 b9bd c816 15bd 3aa0 16be
00000080: 5ac5 48be 822e fabe ed79 3c3e b519 193e
00000090: a93e f33b 0850 19be b5fe b9be ac10 37bf
000000a0: e9f6 c3be e828 c2be caed 293e e069 353e
000000b0: 999b a53d b95b 14ba c6fb cabe 42a1 d9bd
000000c0: 9883 7b3e 0d30 013c 06ba a0be ddf3 933d
000000d0: 4b58 153e 04eb 203e 63c0 a93d c0fc aa3d
000000e0: e355 a4be 43d8 71bd 8c3d 33be 013a 123e
000000f0: 7860 e83d 83a6 2a3d c3c5 07be 3e57 8dbe
00000100: 0084 2abf f352 3ebe bfb8 703e 591c 09be
00000110: 4c11 5f3e 91aa 873e c6dc 1bbd 2be5 823e
00000120: a290 813e b858 20bf 61d6 58bd 08f3 5dbe
00000130: 70ce 793e 4da6 7fbd f674 933b 2303 24bd
00000140: a6d8 9dbe fbe6 36bf a0f1 41bf 8d5e 3fbf
00000150: e925 bcbe 3b45 613e ac0c c73e 465e 463e
00000160: bd2e 493e c2d1 a63e 24da 6dbd 9d66 21bf
00000170: e83f 34be 9840 643e cb91 c53e 9433 963e
00000180: a177 883e f0ed e7bd cc6a 02bf 68b5 01bf
00000190: 7b8a 47bf 3fe5 44bf e7c7 013e f0da d8be
000001a0: 5df4 96bd ca20 ae3e eff0 ab3e 107b 9b3e
000001b0: 40f2 833e 6b52 b9bd ca98 47bf 8011 a73e
000001c0: 0447 083f 3dda 813e a289 103e 4de1 dcbc
000001d0: 42a2 27bd 664a 9b3c 3906 33be 2af7 74bd
000001e0: 8f80 d73e c962 ccbe a5a2 a8be efa8 673e
000001f0: 1093 f93e 2264 a23e 8357 c13e d914 5cbe
00000200: 5bc7 5abf f661 36bf 23e6 b73e a968 093f
00000210: a1c0 87be e218 fa3c f3cc 44bd 31a7 42bd
00000220: b53c 08be 5f70 843e 54b5 723e 9694 1e3f
00000230: ff3e 18bf 9960 b1be c0a7 34be 2eab c13e
00000240: ea7a b23e 1515 283e 37d4 29bf 4157 51bf
00000250: b6b3 44bf e5ef 063f d998 84be f617 8ebe
00000260: c3f6 743d 49ab 5f3e 4366 9cbd 0a56 123e
00000270: a5da 8c3e 604e 853e 699e fd3e be41 69be
00000280: 1883 39bf 4c65 f3be 15f3 903e b400 d93e
00000290: 34cf 653e 9ed7 bcbe 6d31 60bf 668c 573e
000002a0: 74ae de3e b251 d1be 6176 39bd ba04 abbd
000002b0: 1775 b0be 9bf8 e4bc c400 17be 708b 6b3e
000002c0: cc14 843e 20c7 be3e f0ee 83be 2d96 37bf
000002d0: 25ac 58be 82bc fc3e fe4d 4a3f 5d22 fb3c
000002e0: cb91 b8be b5d0 f93c 3475 953e 96f0 7c3e
000002f0: 94a7 c5be f5ee 81be 1f9a 9bbe eba9 493e
00000300: a8a2 1b3c e625 a4bd 7a17 413e 0a84 b73e
00000310: 7279 e93e f9cd 3dbf deb6 3bbf e3dd 7bbe
00000320: 3b56 543e f4d4 e13e 1728 8cbd 99ea 273c
00000330: 7535 283e 5c94 af3d 0fb8 cb3d 7e37 d9be
00000340: 9c44 eebe 6c02 b43e ccc0 963e e2bf 27be
00000350: c69b 75bd 536b e63e 5d87 7c3e 8ce8 9f3e
00000360: 59b3 b1be fa0c 5c3e c68a 7c3e e2fc b93d
00000370: 436b 04be f21b 0fbd 7951 f73d 0819 eb3c
00000380: 0c9f 1ebd 5acb 7bbe 1d0d 913e 336d 9bbe
00000390: ca4e 013b 8b44 f43b bc61 733e 7567 a23e
000003a0: c4b0 abbb 8e0b df3b 551f 733d bdda 883d
000003b0: 8925 00b9 58d3 3d3e 4003 173e c057 8e3d
000003c0: 96d3 d0bd 881f 97be 5d10 4dbe 610c 8d3e
000003d0: 9aa3 99be 607f 93be d54f c03d bb5a f53d
000003e0: 0cc4 f9be 4d50 773e 2fe0 1f3e 184c 213e
000003f0: 0778 4c3e 8328 743d 874c d93d 0d3c 5b3e
0.07922159 -0.0059037004 -0.12441442 -0.27261063 -0.4951029 -0.031185944 -0.16221271 -0.27310613
0.12505111 -0.043367844 0.093293674 -0.06869866 -0.3497713 -0.1088016 -0.16686526 -0.22692095
-0.3242183 0.1377305 0.059032973 -0.14046666 -0.34954032 -0.7405058 -0.21457887 -0.02694785
-0.30333674 0.11011974 0.0019592002 0.027289705 -0.053714443 -0.09043853 -0.03639868 -0.14709559
-0.19606534 -0.48863608 0.18405886 0.14951213 0.007423241 -0.14971936 -0.3632714 -0.71509814
-0.38274315 -0.37921834 0.16594616 0.1771617 0.080863185 -0.00056594197 -0.39645213 -0.106264606
0.24561918 0.007884991 -0.31391925 0.072242476 0.14584462 0.15714651 0.08288648 0.083489895
-0.32096776 -0.059044134 -0.17503947 0.14279939 0.11346525 0.041662704 -0.13259034 -0.27605623
-0.66607666 -0.1858633 0.23507975 -0.1338972 0.21783942 0.2649732 -0.038052343 0.25565466
0.2530566 -0.62635374 -0.052938823 -0.2167474 0.24395156 -0.062414456 0.004500027 -0.040042054
-0.30829352 -0.714462 -0.75759315 -0.7475365 -0.36747673 0.21999066 0.38876855 0.193719
0.19646735 0.32581908 -0.058069363 -0.630472 -0.17602503 0.22290266 0.38587794 0.29336226
0.2665377 -0.1132468 -0.5094421 -0.5066743 -0.7794568 -0.769123 0.12673913 -0.42354536
-0.07370827 0.3400939 0.33582255 0.30367327 0.2577076 -0.09048923 -0.7796751 0.3263054
0.5323336 0.25361815 0.14115003 -0.0269629 -0.040926225 0.018956374 -0.17482843 -0.059806027
0.4209027 -0.39919117 -0.32936588 0.22623037 0.48745012 0.3171702 0.3776208 -0.21492328
-0.8546044 -0.71243227 0.35917768 0.53675324 -0.26514152 0.030529443 -0.048047017 -0.047522727
-0.13304408 0.25866982 0.23701984 0.61945474 -0.59471124 -0.3464401 -0.17642117 0.37825912
0.348594 0.16414292 -0.6633944 -0.81773764 -0.7683672 0.527098 -0.25897864 -0.27752656
0.059805643 0.21842684 -0.076366924 0.14290634 0.27510563 0.26036358 0.4953492 -0.22778985
-0.7246566 -0.4753822 0.28310457 0.4238335 0.22442323 -0.36883253 -0.8757542 0.21049652
0.43492472 -0.4088264 -0.04527891 -0.08350511 -0.34464332 -0.027950576 -0.14746386 0.2300241
0.25797117 0.37261295 -0.25768232 -0.71713525 -0.21159418 0.4936257 0.79025257 0.030656034
-0.3604873 0.030495027 0.2919098 0.24701151 -0.38604414 -0.25377622 -0.30391023 0.19693725
0.0094992295 -0.08015041 0.18856612 0.35842925 0.45600468 -0.74142414 -0.7332591 -0.24596362
0.2073602 0.44107783 -0.06843584 0.0102488035 0.16426642 0.08573219 0.09947216 -0.4242515
-0.4653672 0.35158098 0.29443967 -0.16381791 -0.05996301 0.45003757 0.24661012 0.31232107
-0.34707144 0.21489325 0.24662313 0.09081437 -0.12931542 -0.03493876 0.120760866 0.02869846
-0.038725898 -0.24589291 0.28330317 -0.3035675 0.00197308 0.00745446 0.23767751 0.31719556
-0.005239578 0.0068067973 0.059356052 0.06682346 -0.00012221014 0.18537652 0.14747334 0.06950331
-0.10196607 -0.29516244 -0.20025773 0.27548507 -0.3000763 -0.28808117 0.09390227 0.11980196
-0.48782384 0.24151726 0.15612863 0.15751684 0.19967662 0.059608947 0.106102996 0.21409626

model.0.bias f4 [32]
00000000: 8dff 333e dbeb 3b3e 98f1 ae3d f8d7 f93d
00000010: 1a44 ba3d b41d fe3d 6562 373e 72d4 3e3e
00000020: 7bb3 e73d 4a94 453e 6d7b ca3d d1cf 583e
00000030: 8ca9 423e 73bc 333e a545 1d3e 542f 063e
00000040: aa64 873e 6dd1 063e 5df0 363d a5d9 1b3e
00000050: 0b22 f93d 152e 1e3e 1d0f 0b3e d255 6b3e
00000060: c21b 4a3e a0b2 d23d 3fe8 533e 54ed 923d
00000070: 118c 963d 6b85 313e d941 013e a118 1b3e
0.17577954 0.1835169 0.08542174 0.12199396 0.090950206 0.12408009 0.17908628 0.18635729
0.1131353 0.19294849 0.09886823 0.21173026 0.1900999 0.17552356 0.15358599 0.13103992
0.26443988 0.13165827 0.044662822 0.15219744 0.12164696 0.15447266 0.13579984 0.22981957
0.19737151 0.10287976 0.20694064 0.07174173 0.07350934 0.17336051 0.12622775 0.15146114

model.2.weight f4 [32, 32]
00000000: ca42 ae3f e0ef ac3f f990 b5bf e278 8bbf
00000010: 1f7a 17bf 722a afbf a49a 0e3f 8e70 c3be
00000020: 0cd9 bdbe 6295 debe afda a53e 92e0 bd3f
00000030: 4d8f ae3e 3134 823f fc93 02bf 5334 85bf
00000040: 92be aa3e 3aa0 dcbf 1238 3e3e 4d1f 2a3f
00000050: 3ff8 483f 1972 173f bb0d 45bf 10ac bc3f
00000060: 5266 c3bf cdbb c4be 0d70 d53f 38a5 22bf
00000070: 9757 a5be ffc7 e8be b2d0 00bf 7534 d63f
00000080: 672c 35bf ed65 a0be a7b8 833f c0ad 6b3f
00000090: 1a06 ae3f e365 1640 272f 0abf 7e0e 603f
000000a0: 70a2 ac3f 4826 bb3e d272 843c 7086 44be
000000b0: 06c5 86bf 102d 6bbf 2b0d 973f bc3b cf3f
000000c0: 9796 43bf 2355 1940 35d4 b6bf 5363 96be
000000d0: d715 813d ca77 6b3e 8077 633f 2f5e 8c3d
000000e0: 473f 8a3f a188 7e3f 472c c1be e143 803e
000000f0: 32bb 163f 1890 043e 04cf ab3e 91a9 70be
00000100: 49b6 f43d 044d 57be 976f c53f 2876 7d3f
00000110: 7674 343f 07e9 7c3e 37ef 6ebd ae53 28bf
00000120: 0154 0dbf 6dc2 d33f 2b31 21be b43d 58bf
00000130: 0d61 ab3f 8058 9dbd 7681 84be db94 7abe
00000140: 125e 9e3f c0e1 713e 7d70 5c3f f2de 22bf
00000150: ff40 753f 5f4d 00bf 5969 7b3e 3d7a 2cbf
00000160: 54c9 f53e fed5 aa3f d410 babf 915d 9b3f
00000170: 7294 6ebf f70a 853f 46c2 963e 1e17 acbf
00000180: 943b 7abf 6ffc 4bbf f695 af3f 9668 c33f
00000190: ee09 b93f 38d3 d73f 37c2 8ebf b010 03bf
000001a0: 7720 18be e4ef de3e 44bc 4dbf d016 30bf
000001b0: eefa ea3e 23d3 6dbf f5aa 193e 169f ae3f
000001c0: 5959 043f bebd e33f 3ffc 0b3f bd59 85bf
000001d0: 9d8f 4c3f 8fd9 a6be 6285 8b3f 0083 2bbf
000001e0: 6293 1140 9960 e43f ad47 83bf 2349 173f
000001f0: b7e6 fbbe e950 a63f d32a 413f 9024 87bf
00000200: b330 2cbe da21 38be d7ff 533f bcc0 403f
00000210: 344f 953f f09b 113f f6ec 88be d886 7dbe
00000220: 6c0b 873a 87f9 a13e 00db f1be 1662 23bf
00000230: 491e 293f 6795 3dbd b634 92bd c6d9 973e
00000240: be43 153f 2a6c 203f e2df e93e 6b05 98bd
00000250: cef8 783d 4274 02bf afb0 643f fe6f 17bf
00000260: c7e5 b93f 353d 8e3f 6b44 d2be 798e c83f
00000270: d34d e33e 11dc c13f 262a d23f b622 f7bc
00000280: 9fb4 513f 1521 cbbd d6c4 b03d 20cc 373e
00000290: 13c1 a73e 2fc9 57bf 61c0 3bbe 5303 d3bf
000002a0: fca3 72bf 59ac 06be 5bd5 c3be bd95 ec3d
000002b0: 5cdf 1640 f09b 1f3f 2c3f a6bf 86c8 88be
000002c0: 326a c43f 466c 7fbf b7d9 2b40 0e2d 5ebe
000002d0: 4240 3c40 2dad d0be 7746 773e 6bdd 43be
000002e0: 77d8 1c3f c4d4 c73f 87e9 ab3e d448 323f
000002f0: 09e4 8cbf 9b5c a23f 0a37 6d3f a786 1b3e
00000300: 2443 6d3f f66c 9c3f d1ec 223f 780b d5be
00000310: 5c37 11bf 1791 70bf 05c8 b83f 8b98 363f
00000320: d109 7abe d274 4c3f 52a8 b13f 2c8a 6c3f
00000330: c83d e73d 2707 813f 0678 dbbd 104c a4be
00000340: a52b a93e 6da4 82bf 9337 08bf d963 aa3f
00000350: e2d9 29bf fcdb aa3e 9559 74bf af5b c13e
00000360: a753 8bbf 44cf 8fbf 65cc 5b3f f198 103e
00000370: be09 b6bd 17ef d4be 8222 babe bf38 173f
00000380: 0a47 b73f 071b 053f 145e 403f 625e e83d
00000390: b176 1d3f 7064 bdbf 81a5 68be 731e c4bf
000003a0: c23b eabf 1635 de3e 21c9 ba3e 2580 a2bd
000003b0: 055c 1340 baf4 833f 5eab d2bf 6b81 55bf
000003c0: 1759 f43f b4d7 ccbf 4e7c e33f fbd9 303e
000003d0: c918 2140 0331 a2bf 23ff 0dbf 7f9a 85be
000003e0: 2339 c53e 8ede 833f ee95 9abe dd3a 183f
000003f0: 3f47 03c0 504d ee3f 99ec 923f 6611 0cbf
1.3614132 1.3510704 -1.4184867 -1.0896266 -0.59170717 -1.3684828 0.5570471 -0.3817181
-0.37079656 -0.43473345 0.32393405 1.4834158 0.34093705 1.0172178 -0.51007056 -1.0406593
0.3334852 -1.7236397 0.18576077 0.6645401 0.78503793 0.59158474 -0.76974076 1.4740009
-1.5265601 -0.3842453 1.667482 -0.63533354 -0.32293388 -0.45465085 -0.50318444 1.6734759
-0.7077088 -0.31327763 1.0290726 0.92061996 1.3595612 2.3499687 -0.539782 0.87522113
1.3487072 0.36552644 0.016168032 -0.19191909 -1.0528877 -0.91865635 1.1800894 1.6190104
-0.76401657 2.3958213 -1.428351 -0.29372653 0.06302994 0.22994915 0.8885422 0.068539016
1.0800561 0.9942723 -0.37729093 0.25051787 0.5887939 0.12945592 0.33556378 -0.23502184
0.11948831 -0.21025473 1.542468 0.9900842 0.70490205 0.24698268 -0.0583336 -0.65752685
-0.55206305 1.6543709 -0.15741412 -0.8446915 1.3388993 -0.07682896 -0.2588002 -0.24470846
1.2372458 0.23621273 0.86109143 -0.6362144 0.958023 -0.5011806 0.24551906 -0.6737402
0.48005164 1.3346555 -1.4536386 1.2137929 -0.9319526 1.0393971 0.29445094 -1.3444555
-0.9774716 -0.7968206 1.371764 1.5266292 1.4456155 1.6861334 -1.115302 -0.5119734
-0.14856134 0.43542397 -0.80365396 -0.6878481 0.4589457 -0.92900294 0.15006621 1.3642299
0.51698834 1.779228 0.5468177 -1.0418011 0.79906636 -0.3258786 1.090008 -0.66996765
2.2746205 1.7841979 -1.0256249 0.5909597 -0.4919946 1.2993442 0.7545597 -1.0558033
-0.16815452 -0.17981663 0.82812256 0.7529409 1.1664796 0.56878567 -0.26743287 -0.2475847
0.0010303087 0.31635687 -0.47237396 -0.6382154 0.66061836 -0.04628506 -0.0713896 0.29658335
0.5830649 0.62665045 0.45678622 -0.074229084 0.060784154 -0.50958645 0.893321 -0.5915526
1.4523247 1.1112429 -0.41067824 1.5668479 0.44395313 1.5145284 1.6419113 -0.030167919
0.8191623 -0.09918419 0.086312935 0.17948961 0.3276449 -0.84291357 -0.18335105 -1.648539
-0.9478147 -0.13151683 -0.38248715 0.11551998 2.3573828 0.62347317 -1.2988029 -0.26715487
1.5344908 -0.9977459 2.6851633 -0.21696874 2.941422 -0.40757123 0.24147974 -0.19127433
0.612678 1.5611806 0.33576605 0.69642377 -1.1007091 1.2684511 0.9266211 0.15188085
0.92680573 1.2220752 0.63642603 -0.41610312 -0.56725097 -0.9397139 1.4436041 0.7132651
-0.24417807 0.79865754 1.3879492 0.92398334 0.11291081 1.0080308 -0.10716252 -0.3208928
0.3304111 -1.0206429 -0.532098 1.3311721 -0.6634809 0.3337096 -0.9544919 0.37765262
-1.0884904 -1.1235127 0.85858756 0.14120843 -0.08888577 -0.4158866 -0.36354452 0.5907096
1.4318554 0.51994365 0.7514355 0.11346127 0.61509234 -1.4796276 -0.22719385 -1.5321792
-1.8299487 0.43399876 0.36481574 -0.07934598 2.3024914 1.030906 -1.6458547 -0.834006
1.9089688 -1.6003327 1.777231 0.17270653 2.5171378 -1.2671207 -0.5546743 -0.26094434
0.38520154 1.0302293 -0.30192512 0.5946482 -2.0512235 1.8617344 1.1478454 -0.5471405

model.2.bias f4 [32]
00000000: d199 3d3f 5092 543d 8489 673d e0b7 cb3e
00000010: 0272 b53d 15f1 e73e 6522 ff3e 5fa9 b33e
00000020: bfe6 803e 7e21 6f3d 9310 79be 553d 043f
00000030: 6a25 cd3d 1ffd 3e3e b302 fd3e 06de af3e
00000040: c9a1 9e3d d7fc f33d d1ba b13e c62c c73e
00000050: 4f44 473e f7ac dc3e d3eb 4ebe 1cf7 bd3e
00000060: 7cfc 333e 7d6c 1ebe a27e ee3d 9759 133e
00000070: 7a1e 913e 5094 b03c 1ca9 a3be faad 7b3e
0.7406283 0.051897347 0.05652763 0.39788723 0.08859636 0.45301118 0.49830928 0.35090157
0.25176045 0.05838155 -0.24322729 0.51656085 0.10016902 0.18651246 0.49416122 0.34349078
0.07745702 0.1191346 0.34712842 0.38901347 0.19459651 0.43100712 -0.20207147 0.37102592
0.17576784 -0.15471072 0.11645247 0.14389645 0.28343564 0.021555096 -0.31964958 0.24578086

model.4.weight f4 [25, 32]
00000000: 9d7d 963e 5123 f3bf 59d0 11be 62de cbbf
00000010: 3f2e 673d 7dbe 1c3f 2dd9 213f 610e 9d3e
00000020: 45f1 22bf 1395 53be 75e9 ebbf 2441 773e
00000030: b22c edbe b877 0640 b9ed 063e e48e 5a3f
00000040: 0798 23bf 23de c63f e3ca c8be 8b3c 0c3e
00000050: bc61 ff3e 1fa3 d1bc 660b b7bd d5d1 a33f
00000060: e660 e6bf 8fcc 4dbd 72a4 a4bf c674 743e
00000070: 4525 273f 9fc9 89bf 9b48 a13e e1fa 7dbf
00000080: d6c8 263e 7fff 6b3e baa1 d2be 217d aebd
00000090: c782 a73e cc49 2dbe 63c9 b9be 1cf8 d0bd
000000a0: b68d 41bd 06e2 53be c016 9dbe 07d0 853d
000000b0: 31ca a43e aaf9 81be 7d9e c83d b8b7 a3be
000000c0: 367e 633e 6022 a3bd 2ea4 813d c0c2 0f3b
000000d0: e893 9d3d da67 353e 2ea2 13bc 993e c5bd
000000e0: 44dc f03c d80d adbd 715f a83e 33ce 66be
000000f0: fbdf aabe 0060 e8bd ac33 f1bb fdd8 043e
00000100: 45e8 3c3f 4720 f2bf f8de 353d ad28 7fbf
00000110: 3e8e 0bbf ec87 e03e 5324 203e a7e0 fe3e
00000120: 97dd 1c3f a528 00c0 3462 64bf 58ce c23e
00000130: 8a9c 09bf 0b06 8cbf ab2b 153f 697f 483e
00000140: c3df d9bf cb81 23bf 47c5 c2bf c500 223f
00000150: f7f7 d5bd 7959 d13e 63b7 323e 16b6 463f
00000160: e0b4 b1bf d8fb 86ba 3dc1 23be 8941 ad3d
00000170: 8e3f 513d a898 fdbf 6560 f5bf 1410 d73d
00000180: e5d5 39bf cd66 54be 4b6c 343f 18a8 f63e
00000190: 5e08 e53e 622d 3d3f b925 29bf 9aea 6c3f
000001a0: e2d2 803b 5567 24be da9b 11bf 486e 2abf
000001b0: 5073 21c0 bb80 80bf e8b2 7fbd 9278 e9bf
000001c0: 282d d7bc a177 efbd 688b a9bf f30d c7bc
000001d0: 1450 0f3f 6b50 59bf 0129 72bd c69c 1d3f
000001e0: 88d3 db3d 7b5a a6bd fcd0 e1bf ff56 463e
000001f0: cb62 453f 9c63 6f3d 402b 5d3e bb0e 03be
00000200: 7ee5 863e b2e4 2fbf 77cf 2d3e 0847 de3b
00000210: a776 2e3e 000c 693f 60a6 8e3e 4bfc 6e3f
00000220: 7ae1 fd3d cae1 10bf 54a4 83bf 1072 f1bc
00000230: bfe9 65bf 8243 3cbf f208 d7bd 5ccc 83be
00000240: 44e1 bebe 6dfc 063d d688 08c0 973c 903e
00000250: 2244 b43d 6fd3 b0bd 719d 30be 6051 4b3f
00000260: 4b7f f9be 05c6 19be 757d 15bf dc29 1fbf
00000270: 2e6f ce3e 40eb 23bf d4ed bcbe 7121 e13d
00000280: f754 9a3d f9ee a03d 7212 9cbe b805 ce3c
00000290: 1cf3 413e 4e65 6f3e ca0c 5bbe edeb 683e
000002a0: d643 203d 68ee 39bd aad4 06bf 7b56 06bd
000002b0: 348c 233d f976 a7be 2080 913e 166b 9fbe
000002c0: 9f57 b23c 8671 89be 05e9 f3bd 2bfe 3b3e
000002d0: a278 913e 2317 6b3e b912 28bd bf3e ce3d
000002e0: d843 8cbc 5661 233e b823 19bd 6207 a23d
000002f0: 1e1b 9bbe 8609 aabe 065f 8bbe dfb2 be3d
00000300: a9fe 55bf 6974 113f c22b 4c3e 0de4 7c3f
00000310: 4ac6 55bd 8d4a 933e 9ead 55bf 4c54 04c0
00000320: 9926 e93f bf8f dcbd c995 3d3f dcb1 833e
00000330: 1911 dc3e 7cf2 e6be 35f3 51bf 3ca8 ffbd
00000340: 3e84 90be 9242 ddbe b6a9 353f 15b1 eabd
00000350: 9015 7bbe f7fa 37bf e87f c4bd 8feb 8ec0
00000360: e3f4 123f 46c2 2cbe 4509 c53e 9d80 443f
00000370: fcc8 11c0 8e26 b13e 859c 9a3e 7b87 67bc
00000380: 55cd 273e 76a5 4bbe 0a76 9bbf 5c50 d4bf
00000390: ab3e 5ebf 4972 e3bf 50bc be3e decf 8ebf
000003a0: ba36 a53e d7e9 afbe e94a f33d 2c2c 143f
000003b0: 9b74 3a3f f508 1c3f 6e52 89be b607 303f
000003c0: 2e5d 81bf 29b9 d13e 16cc 4a3f c097 8a3e
000003d0: 1bb1 9ebf 6080 873e f0b0 23be 5d9d c6bf
000003e0: 7aea 40bf dcaa cabd 9e60 3e3f 30ed 58c0
000003f0: e002 52be f873 d9be 85be 41bc 2f54 103d
0.2939271 -1.8995153 -0.14239635 -1.5927241 0.056440588 0.6122816 0.6322201 0.30675033
-0.636494 -0.20662336 -1.843062 0.24145943 -0.46323162 2.101057 0.13176621 0.85374284
-0.6390385 1.5536541 -0.3921729 0.1369497 0.49879253 -0.025590478 -0.08937721 1.2798411
-1.7998321 -0.05024391 -1.2862685 0.2387267 0.65291244 -1.0764655 0.31500706 -0.99210936
0.1628755 0.23046683 -0.41139013 -0.0851996 0.32716963 -0.16922683 -0.36286458 -0.10203573
-0.047254287 -0.2069169 -0.3068142 0.06533819 0.3218551 -0.2538579 0.09795854 -0.31976104
0.22216114 -0.07965541 0.06330143 0.0021936148 0.076942265 0.17715397 -0.009010835 -0.0963108
0.029401906 -0.08449906 0.32885316 -0.22539596 -0.3337401 -0.113464355 -0.007360896 0.129734
0.73791915 -1.89161 0.044402093 -0.9967144 -0.5451392 0.438537 0.15638857 0.4978077
0.6127562 -2.0024807 -0.89212346 0.38048053 -0.53754485 -1.0939344 0.5826976 0.19579853
-1.7021412 -0.63869923 -1.5216454 0.63282424 -0.10447686 0.40888575 0.17452769 0.7762159
-1.3883324 -0.0010298444 -0.15991683 0.084597655 0.051086 -1.9812212 -1.9170042 0.105011135
-0.72592 -0.2074234 0.7047774 0.4817512 0.44732946 0.73897374 -0.66073185 0.92545474
0.003931389 -0.16055043 -0.56878436 -0.66574526 -2.522663 -1.0039285 -0.062426478 -1.823992
-0.02626665 -0.11692739 -1.3245668 -0.024298644 0.55981565 -0.84888333 -0.059121136 0.6156734
0.10733706 -0.081227265 -1.7641902 0.19369124 0.7710387 0.058444604 0.2159853 -0.12798588
0.26346964 -0.68708336 0.16973673 0.00678337 0.1703745 0.91033936 0.2786131 0.9335372
0.12396522 -0.56594527 -1.0284524 -0.029473335 -0.89809793 -0.7354051 -0.10499753 -0.2574185
-0.3728124 0.032955576 -2.1333518 0.28171226 0.08802058 -0.08634078 -0.17247559 0.79421043
-0.4872993 -0.15016945 -0.5839456 -0.6217325 0.40319198 -0.6403084 -0.36900198 0.109927066
0.07535737 0.078580804 -0.30482823 0.025149211 0.18940395 0.23378488 -0.21391597 0.22746249
0.039127193 -0.045393378 -0.5266825 -0.032797318 0.03992863 -0.32707956 0.28418064 -0.31136388
0.021770297 -0.26844424 -0.11909679 0.18358676 0.28412348 0.22958045 -0.04103348 0.100705616
-0.017122194 0.159551 -0.03738758 0.079115644 -0.30294126 -0.3321039 -0.27220935 0.09311461
-0.83591706 0.5681825 0.19938567 0.9878548 -0.052191056 0.28767815 -0.83468044 -2.067645
1.8214904 -0.10769605 0.7405668 0.25721633 0.42981794 -0.45106876 -0.8201173 -0.1248326
-0.28225893 -0.43214852 0.70962083 -0.11459557 -0.24519944 -0.71867317 -0.09594709 -4.4662547
0.5740492 -0.16870984 0.38483635 0.7675875 -2.277892 0.34599727 0.3019754 -0.014131422
0.16386922 -0.19887337 -1.2145398 -1.6587024 -0.86814374 -1.7769252 0.37253046 -1.1157186
0.32268316 -0.34358093 0.11879522 0.578799 0.72834176 0.6095117 -0.268207 0.68761766
-1.0106561 0.40961578 0.7921766 0.270689 -1.2397798 0.2646513 -0.15985465 -1.5516773
-0.7535778 -0.0989587 0.74366176 -3.3894768 -0.20508909 -0.4247129 -0.011825209 0.035236534

model.4.bias f4 [25]
00000000: 32d5 febd 75ff 34bd 7272 203e f2d3 4bbe
00000010: 8953 cabc 834c 5ebe 8f9f aebe 7dcf 813d
00000020: 0ffd 023c ff8b 04be a924 983d 927a 12be
00000030: 3d56 0f3e 7c36 a3bd ef59 0f3d ad37 89bd
00000040: 5ed5 8dbd 721d 943e 3c55 1d3d 092a 7a3d
00000050: b2b6 2ebc 8118 e0bd 1ae0 3a3e adc8 a8bb
00000060: 0cbd cc3e
-0.124430075 -0.044188935 0.15668657 -0.1990507 -0.024698036 -0.21708874 -0.3410611 0.063384034
0.007994904 -0.1294403 0.07428867 -0.1430457 0.13997741 -0.079693764 0.034997877 -0.067000724
-0.06925462 0.28928715 0.038411364 0.061075244 -0.010663675 -0.10942174 0.1824955 -0.0051508755
0.3998798
