models/empowerment_5_steps/CrossRoom-v0_source_distr.pth (torch_old, 426746 bytes, 6 tensors)

model.0.weight f4 [32, 68]
00000000: e490 ec3d 0386 9dbd a1f9 d4bd bd5c e9bd
00000010: 4048 8cba 884c dc3d 9aa6 87bd 7cb8 283d
00000020: 1846 973d 58d0 923c 14f6 07bd 7eec 823d
00000030: 2c22 c5bc 0146 c9bd 86a4 e43d 34c6 e73d
00000040: b095 b63c 28f5 a23d 19a4 8bbd 2ee3 b93d
00000050: 38bf 833d 40cd 963c 92f6 cf3d 0047 5c3c
00000060: c62d 84bd bc48 093d c404 94bd caf4 dc3d
00000070: e811 33bc c0d7 283b 07dd acbd 60fd 923b
00000080: a494 b8bc e499 8ebd c223 ac3d 1616 75bd
00000090: 8679 aabd fc7a 793d 2e1c 863d 3b0e e1bd
000000a0: 5847 5b3d 1ab9 ba3d 86b8 b33d f870 f9bc
000000b0: afd3 a1bd dc80 d4bd 10e5 e2bd d4df 7ebd
000000c0: 9930 79bd 342c e2bd 004f b0ba ad04 f7bd
000000d0: 90f9 d63c 8406 123d cfb5 94bd a0c2 94bd
000000e0: a09c adbb a02d fc3c f276 d0bd 4019 6ebd
000000f0: dec6 cabd 4e34 ab3d 34bd 9c3d 80f6 ba3b
00000100: d0b7 a7bb 847c b4bc 7c6d 473d 6f96 f7bd
00000110: 678b 643e f953 33be 93ba 083e d2ca 80bc
00000120: 0dbb 643e b82d 29be f768 78bd 693c 29be
00000130: 713f 3fbe 69cd 633d 679d 3fbe ff8d 08be
00000140: 2473 47be 0a0b 2fbe c0a3 9cbc 8d12 dfbd
00000150: fa58 8f3e 2078 ac3e 82f8 47be 103e d13d
00000160: 0111 7bbd 9c7c 2dbe aa2d 32be 34b1 32be
00000170: 284c 463f 6c28 913f d759 29be 7946 2bbe
00000180: 4b42 40bd 467f ab3d 4a0b 643d 45ce d73d
00000190: a1f5 34be 38af 07be 02d5 f63d 13c0 ec3d
000001a0: e19f 3fbe ea15 503d d7e5 1ebd 0815 2dbe
000001b0: 02b6 95bd 993e 10be 2a47 32be 806c 35be
000001c0: 15da 2abe 14b6 3fbe 4825 e13c 362c a13c
000001d0: 6637 323d e76e abbd 5077 8cbc 48e3 35be
000001e0: 24ef 5d3e 9093 3dbe 249c 37be 13fa 43be
000001f0: e750 3abe 981a 0cbe 1a9a 36be f9ee 2cbe
00000200: 56f9 1d39 7343 35be 9db1 41be 9db1 2dbe
00000210: 577e 36be 9ecb 45bd 8837 46be 66a8 2abe
00000220: b53a acbc 4e3b 233c b255 083d 5476 d4bd
00000230: f93c 883e 6201 b13e 6910 ad3e 787e a73e
00000240: 18c4 a93e 551a 043e cc73 483e 8bb4 863e
00000250: 9781 923e ecbc 8c3e 8624 f93d 43c0 493e
00000260: e996 55be bf63 67be a971 4dbe de6e 10be
00000270: a18d 5bbe 7674 66be 07d5 4dbe e402 75bc
00000280: df80 c23e e595 183e 5a22 d2bc cde0 40bd
00000290: 06a6 4ebe 320f 55be 7966 4ebe 54aa 4ebe
000002a0: 207d 51be 8a51 57be d8fa 4bbe d0d2 51be
000002b0: 8470 58be 231b 51be b698 4ebe 4beb 55be
000002c0: 3e8b 58be 3efe 283d 875c f9bc 0e97 52be
000002d0: 7c7d 4bbe 580c 55be bef4 4cbe 7e93 4ebe
000002e0: c5e2 4fbe 0421 56be df55 56be 4980 53be
000002f0: 4e9a c43e fd3a 263f dfca 52be 6033 583e
00000300: ee13 763e d4f1 bc3d 01b9 893e 3927 8e3e
00000310: b6d7 b73e 8eca a03e 2492 43bc b77d 1a3e
00000320: dade 53be 50a8 57be 3e87 57be c5ab 59be
00000330: 64c0 983e 3cb3 d03e e656 823d c7e2 483c
00000340: 233e a5bd 5e2d 7cbe 395c f1bd 4a70 6ebe
00000350: d9f2 6bbe 0fb5 79be 8dd2 63be 3539 75be
00000360: 0a16 8dbd 2435 6cbe 16b1 7fbe 9120 6cbe
00000370: a549 9b3e 13d1 7b3d fdf9 123e 987a 283e
00000380: e58d 1cbb 3b97 1a3e 3cc1 623e e363 6cbe
00000390: b3d1 7cbe a4f1 6dbe 4976 61be 165f afbd
000003a0: 5d27 2e3e 9552 c53d e5e0 b93e fd5f 0f3d
000003b0: e497 73be 320c 863d b7fd ad3e a096 2c3d
000003c0: 231d 803d 6dd7 233e bb95 4b3e 0483 483e
000003d0: 5c5f 5b3e 3081 df3d 9aa2 373e 66aa 69be
000003e0: faa6 73be e754 91bc bfb1 423e b25d 373e
000003f0: e685 793e 2471 6e3d 7868 70be e2db 0d3e
0.11551073 -0.07691576 -0.103991754 -0.113946415 -0.0010702685 0.10756785 -0.066235736 0.041191563
0.07386416 0.017921612 -0.033193663 0.063927636 -0.024064146 -0.09827805 0.11164193 0.11317101
0.022288173 0.07956916 -0.068184085 0.09076534 0.064329565 0.018408418 0.101544514 0.013444662
-0.06454043 0.03351663 -0.072274715 0.10788877 -0.010929562 0.0025763363 -0.08440595 0.004485771
-0.022531815 -0.06962946 0.08405258 -0.059835516 -0.0832396 0.060908303 0.065483436 -0.10989042
0.053534836 0.091173366 0.087754294 -0.030449376 -0.079017036 -0.103761405 -0.110788465 -0.062225178
-0.060837362 -0.11043587 -0.0013451278 -0.12061439 0.026242048 0.035650745 -0.0726124 -0.07263684
-0.005298212 0.030783474 -0.10178937 -0.05812955 -0.09901212 0.08359586 0.07653275 0.0057056546
-0.0051183477 -0.02203203 0.048688397 -0.1208924 0.22318803 -0.17512502 0.13352422 -0.015721712
0.22336979 -0.16521347 -0.060646977 -0.16526951 -0.18676545 0.055615816 -0.18712388 -0.13335417
-0.19477516 -0.17094055 -0.01912105 -0.1089221 0.2799757 0.33685398 -0.19528392 0.102169156
-0.061295513 -0.16942066 -0.17400232 -0.1745041 0.77459955 1.1340461 -0.16538177 -0.16726102
-0.046938222 0.08373885 0.05567483 0.1053739 -0.17671825 -0.13250434 0.12052347 0.11560073
-0.18713333 0.05080215 -0.03879341 -0.16902554 -0.07310106 -0.14086379 -0.1740996 -0.1771717
-0.16684754 -0.18721801 0.027483597 0.019674402 0.043509863 -0.08370762 -0.017146736 -0.17762482
0.21673256 -0.18513322 -0.17930657 -0.19138364 -0.18194924 -0.1368202 -0.17832223 -0.16888036
0.00015065572 -0.17701511 -0.1891541 -0.16962285 -0.17821632 -0.048289888 -0.19357121 -0.16665801
-0.021024087 0.00996287 0.03328485 -0.10374132 0.26609018 0.34571368 0.33801582 0.32713675
0.3315742 0.1290067 0.19575423 0.26309618 0.28614494 0.27487886 0.121651694 0.19702248
-0.20858349 -0.22596644 -0.20062889 -0.14104792 -0.21440746 -0.22505364 -0.20100795 -0.014954302
0.37988946 0.1490093 -0.025651146 -0.047089387 -0.2018052 -0.20806578 -0.20156278 -0.20182163
-0.20457888 -0.21027198 -0.19919908 -0.20490575 -0.21136671 -0.20420508 -0.20175442 -0.20890538
-0.21146867 0.04125809 -0.030439628 -0.20565435 -0.19872087 -0.2080549 -0.20015237 -0.20173451
-0.2030135 -0.20911032 -0.20931195 -0.20654406 0.38398975 0.6493376 -0.20585202 0.21113348
0.2403104 0.092258126 0.2689896 0.277643 0.35906762 0.31404537 -0.011936698 0.15087019
-0.2069048 -0.210603 -0.21047685 -0.21256931 0.29834282 0.40761745 0.06364231 0.012261099
-0.08068492 -0.24626681 -0.11785168 -0.23285022 -0.23041858 -0.24385475 -0.22248287 -0.23947604
-0.06888969 -0.23067147 -0.24969897 -0.23059298 0.30329624 0.061478686 0.14353175 0.16453016
-0.0023888287 0.15096752 0.22144026 -0.23084979 -0.24689369 -0.2323671 -0.22017778 -0.08563058
0.17007203 0.09634892 0.36304393 0.03500365 -0.2378841 0.06545295 0.33982632 0.042135835
0.062555574 0.16000147 0.19881336 0.19581228 0.21423095 0.109133124 0.17933121 -0.22818908
-0.23794165 -0.01774068 0.19013117 0.17906836 0.24367484 0.058213368 -0.23477352 0.1385341

model.0.bias f4 [32]
00000000: f524 f5bd 8a76 033e e04a 403e 6190 4e3e
00000010: 26c0 dbbd 3a5f 433e 2bd6 633e 0306 1d3e
00000020: 3fe9 8f3e 7e3e 823e f64c 5d3e 7b4c 913e
00000030: 9792 f6bd 227e 20bd 9cfe 633d c036 6bbe
00000040: 60a6 653e 8405 843e dd85 6a3d 93d3 883e
00000050: 5af7 e43d 1f4b f4bd 5c79 103e 63b7 993e
00000060: 49a1 393e 380a 843e 8da9 483d 3b7d ce3d
00000070: 7c70 1b3e ce39 963e f407 7c3e 0222 d0bd
-0.119699396 0.12838188 0.18778563 0.20172264 -0.10730009 0.19079295 0.22249667 0.15334325
0.2810764 0.25438303 0.2161139 0.28378662 -0.120396785 -0.03918279 0.055662736 -0.22970104
0.22426748 0.25785458 0.05725657 0.26723918 0.11179991 -0.11928391 0.14108795 0.30022725
0.18127932 0.25789046 0.04898982 0.100824796 0.15179628 0.29340976 0.24612409 -0.101627365

model.2.weight f4 [32, 32]
00000000: e128 e3bd 38c6 da3d 3c10 33bf 21b1 693e
00000010: a218 b8bb 3abd eabd b79b eebe 0ec0 9a3e
00000020: 3b4f adbe 4118 f23d 5be6 3e3d cdd6 53be
00000030: 726c b93d 9bde 453d 0124 da3d 1a54 b3bd
00000040: 7842 ee3d b7cf 243e 85b6 5a3b d7d0 9a3e
00000050: 0c22 0e3f 5b36 2bbe 64de 8ebc 4fca 4e3e
00000060: 0014 833e 7701 c5bd ce71 11be c4f6 60be
00000070: 0ace 64bc b124 5abf efd3 aabc a222 c7be
00000080: fd04 f5bd 6e10 a73d 49f9 60bd 1eae b33c
00000090: 06b7 33be db35 ef3a 7cdb 183d 8182 0bbe
000000a0: 06f4 b13d d53a 19be 4ec4 c03c 114b 07be
000000b0: 3335 0b3e b592 cbbd e395 0f3d d911 103e
000000c0: 52c7 553d aa69 dc3d 38e0 5b3d abfc 693d
000000d0: 4993 003e ab13 e3bd 0721 033e f930 91bd
000000e0: 5460 383d 73ac 1cbe b0a3 14bd 35d1 42bd
000000f0: 2ddf 8abd e5d8 b9bd 30a8 20be 80a4 0cbe
00000100: 4c26 28be 39a6 f3bc 7bc9 7fbe ae2b 91bd
00000110: 2b30 1f3e c764 3cbe c567 8ebd c895 74be
00000120: 438a 9f3d 2eb4 1ebd b959 fa3b 413b 6e3d
00000130: fd41 b33d 9c2d 163e 8cd2 14be d9ae 373e
00000140: a605 5abd 5800 6d3d 4bc0 b03c 3e61 46be
00000150: fa7f ecbd 48b7 bcbd 7950 94bb 604c 373d
00000160: 993c d4bd 3e0c 67bd f8f3 133e 13d9 04be
00000170: 487b 8e3c bf73 b0be f1b4 ecbd db84 d93c
00000180: 5daa b4bd 0da2 30bf ac09 2abe 49ff 2cbe
00000190: f351 16ba 0d48 b23e 94f9 0c3f ba1c a63e
000001a0: 4ac1 d03e d8ce 843e c91f d53d 2bc5 c33e
000001b0: 5496 273d 3db0 783e 501a 37bf a1db 3abe
000001c0: d9ff e23c 74df a53e 70f1 3abf 8fb9 53b9
000001d0: 619e 2ebf ae9c 92bd bf40 c5be fed0 84bd
000001e0: 89f4 bcbe b56a c53e 1265 b7bd 9468 063e
000001f0: 2505 d83e 7110 22be 2258 f03d c75a c03e
00000200: de62 8cbd 369d 143e 29bf 9d3e cbd2 fcbd
00000210: abe6 06be 86ea a2be a709 9dbe fdc3 29bf
00000220: d4d1 e73c c006 d1be 4f0e cebe e6ef 9cbc
00000230: 83f8 ecbb 7427 cfbc 10c7 b53e ded0 d33d
00000240: 5799 89be 2b22 1bbf c2af b23e 2ebe a83e
00000250: 421e f6bd cabd 0abe 7c14 c93e 8776 a939
00000260: 247d a33e f0c3 e4be da34 ea3e 2179 0f3e
00000270: e09f d7be fe7e fe3e 7c53 0b3e d193 85be
00000280: 5c6d dfbd 45e9 bc3d e2a4 6fbf d32e b13e
00000290: 7255 213d 3ecd e2be ae52 ddbd 94a2 983d
000002a0: 2ff6 e8bd cb7d 243d d64b c33e 5493 10bd
000002b0: 17cf 7fbb 63dc 01bc 1d29 98bd 1858 c13d
000002c0: 9b91 1fbe c679 803d fa52 1cbf 02c7 1f3e
000002d0: 30d3 883e ba0f f7bd 7750 983e b794 c93e
000002e0: 8cf1 d23e ebf3 8b3e 33a2 673c 0fcc 60bf
000002f0: 9d3a 9abe 5b60 4dbf 14ea 023f 1e8c c13d
00000300: d8a2 143d 0251 b83d 4dc4 953b 630d 47be
00000310: 781f 0bbe e055 b6bc 7a4f 363d 4825 25bc
00000320: 56a7 bb3d 44d4 753c 7c3f 0cbe 64b1 babc
00000330: 3e7e 10be de9a 69bd 5041 0ebe 94fc 34be
00000340: 0bf9 b9bb 22ad 5bbd ac88 2cbe bbce 883d
00000350: 3637 d33d 00b4 0139 be2c 75bc e0bf fabc
00000360: 93f6 433d e99f 253c b3ca 263d 7248 93bd
00000370: 74f3 8cbd 95d4 2dbc 0267 dfbd 3e63 973d
00000380: d221 33be a549 bebe 6806 c63e aeac 1cbd
00000390: 8beb 913d 7548 ac3e bc2c 003d a994 1bbf
000003a0: dc17 873c 4c7b a6be 27f6 b5bd b1a1 9dbe
000003b0: 6c7f 103e 9eac 9dbd f899 943e c278 81be
000003c0: a75e 8a3d a0df 1a3f 4b32 22be 6214 843d
000003d0: f925 373f 7775 1c3e f887 79bc 0b49 ae3e
000003e0: a51e 5fbf c12d 89be 9956 313d 4ce1 b53d
000003f0: 2598 923e a695 813e 30d7 a9be a866 82be
-0.110917814 0.106823385 -0.69946647 0.22821476 -0.005618171 -0.11461873 -0.46603176 0.3022465
-0.3384951 0.11821032 0.046606403 -0.20687409 0.090538874 0.048307996 0.106513985 -0.087562755
0.11633772 0.16094862 0.003337295 0.30237457 0.555207 -0.16719954 -0.017440028 0.20194362
0.25601196 -0.0961942 -0.1420357 -0.21969134 -0.013965139 -0.85212237 -0.020853011 -0.3889361
-0.11963842 0.081574306 -0.054925237 0.021933611 -0.17550287 0.0018250303 0.03731869 -0.13624002
0.08689122 -0.14963849 0.023531105 -0.1321223 0.13594513 -0.099400915 0.035055052 0.14069308
0.05219204 0.10762341 0.05368063 0.05712573 0.12556185 -0.11087736 0.12805568 -0.07089419
0.04501374 -0.15300159 -0.036288917 -0.047562797 -0.06780849 -0.090745725 -0.15689158 -0.13734627
-0.16420859 -0.029742347 -0.24979202 -0.07088409 0.15545718 -0.18397819 -0.06953386 -0.23885262
0.07790043 -0.03874605 0.0076400903 0.058161978 0.08752821 0.14665836 -0.14533442 0.17937793
-0.053228043 0.057861656 0.021576067 -0.19373032 -0.11547847 -0.092146456 -0.0045261947 0.04475057
-0.103631206 -0.05640816 0.14448535 -0.12973432 0.01739277 -0.34463307 -0.11557949 0.026552608
-0.08821557 -0.6899727 -0.16605252 -0.16894259 -0.0005734257 0.34820595 0.55068326 0.32443792
0.40772468 0.2593906 0.10406453 0.38236365 0.04091485 0.2428598 -0.71524525 -0.18247844
0.027709888 0.32397044 -0.73024654 -0.00020191654 -0.6821042 -0.071587905 -0.3852596 -0.064851746
-0.36905316 0.38557974 -0.089548245 0.13125831 0.42191425 -0.15826584 0.1173556 0.37569258
-0.06854795 0.14513096 0.30809906 -0.12344893 -0.1317393 -0.31819552 -0.30671427 -0.6631468
0.028298296 -0.40825462 -0.40245292 -0.019157361 -0.0072317733 -0.025287367 0.35503435 0.10342573
-0.26874802 -0.6059901 0.34899718 0.32957596 -0.1201749 -0.13548961 0.3927344 0.00032322502
0.31931412 -0.44680738 0.45743448 0.14011051 -0.42114162 0.49706262 0.13606066 -0.26089337
-0.109095305 0.0922418 -0.93610966 0.34606037 0.039388128 -0.44297212 -0.108067855 0.07452884
-0.11375081 0.040159028 0.38143796 -0.035296753 -0.0039033347 -0.007926079 -0.07429717 0.09440631
-0.15582888 0.062732264 -0.6106411 0.15603259 0.26723623 -0.120635465 0.2974889 0.39371273
0.4119991 0.27334532 0.014137792 -0.8781137 -0.30122843 -0.8022515 0.51138425 0.09450553
0.036288112 0.08999826 0.00457052 -0.194387 -0.13586223 -0.022257745 0.04450939 -0.010079689
0.09162776 0.015004221 -0.13696092 -0.022789665 -0.14110658 -0.05703246 -0.13892102 -0.17674476
-0.00567544 -0.05363191 -0.16849011 0.06680056 0.10313265 0.00012369454 -0.014964281 -0.030609071
0.047842573 0.010108926 0.040720653 -0.07191552 -0.068823725 -0.010609766 -0.10908319 0.07391976
-0.1749337 -0.3716556 0.38676763 -0.038250618 0.071250044 0.3364903 0.031292662 -0.6077371
0.01649087 -0.32515943 -0.088848405 -0.30787423 0.14111108 -0.0769894 0.2902372 -0.25287443
0.06756335 0.60497475 -0.15839498 0.064492 0.71542317 0.15279184 -0.015230171 0.34040102
-0.87156135 -0.2679272 0.043295477 0.088808626 0.28631702 0.25309485 -0.33171988 -0.25468946

model.2.bias f4 [32]
00000000: ec80 cb3d 38f0 3dbe 4b2b d1bd b807 2f3e
00000010: b9d8 533e d531 d13c 2d7f e3bd a219 2a3e
00000020: 2186 153e 51ed 3f3c b493 9f3d 8706 243e
00000030: 96ad 75bd 45f9 9d3e b085 36be d06b 11be
00000040: 5468 153e 7267 7c3e e503 34be 93ec d0bd
00000050: 2a87 c83c 1ec6 abbd 3433 d73d dfd1 a83e
00000060: 1c4e dc3e e3df 5b3e 87ab 313d b841 113e
00000070: b07c 743e b20d 29bd 728b 18bd e7ba 5d3b
0.09936699 -0.18548667 -0.102133356 0.17092788 0.20688142 0.025536457 -0.11108241 0.1661134
0.14601947 0.0117142955 0.07791844 0.16018115 -0.059979998 0.3085424 -0.17824435 -0.14201283
0.1459058 0.24648836 -0.1757961 -0.10201373 0.024478514 -0.08387397 0.10507813 0.3297262
0.43028343 0.21472125 0.04337647 0.14185226 0.2387569 -0.041272826 -0.03724236 0.0033833326

model.4.weight f4 [3125, 32]
00000000: 0a36 88bd f020 913b b940 88ba 8ff2 edbe
00000010: 1103 553f e3d3 72be a4fe 7fbc 2ea0 653e
00000020: 3d19 4fbe 27c6 793e abd2 2f3b ff35 a43e
00000030: 790e 2fbf 9f76 693f a7d3 c7bb ac52 48bd
00000040: d5c1 ff3e 99bc 37be fd9b ed3d 30de 0a3e
00000050: a9a3 3dbc 1d07 9d3d 8b7e 6b3f c098 963e
00000060: 00bb 82be 1ae0 b53e aeab 373e d9b5 f13d
00000070: c03f 47be 6f44 93bd e9f1 0dbe c8ca a93e
00000080: 8af7 01be 5a4a 07be 8169 56be 2500 32be
00000090: 07fd 803e a714 da3c 68f3 863d 2da6 c7be
000000a0: 01f1 cebe 1b5c 89bd 0f55 67bc b679 4ebe
000000b0: 4279 2abf a26c 453e 7cc9 293c 8134 333e
000000c0: 2990 11be e292 2d3e 5a20 1dbe cf90 b3bd
000000d0: 5985 26be 6e2b 9ebd 4ef6 c23d 15b7 d0bd
000000e0: c2a6 a5be ed99 27be 5a86 013d 674a 303e
000000f0: f051 10bf 26fc 82bc 6e9c 73be 7b25 21bf
00000100: 00f7 eeb9 f4e5 603d 039f 85be f3bd 0abf
00000110: 7853 263f 425c 703e 8cdd 96bd f581 ad3e
00000120: 8705 a6be c4b0 f0bd 8755 5dbc c0f2 f03d
00000130: a25b 07bf 844e 393f 6821 b5bd 17c9 23be
00000140: 3232 293f 670b 613e 4a56 f3bd bd51 84bd
00000150: 3fa0 e1bd bcfb bdbd 03f6 283f dd77 893e
00000160: 646d 62bd 869b e63e dbc2 2f3f 17cb 383e
00000170: a7a3 42be 06bb 9bbd 40ba 0cbe 2ab4 fc3e
00000180: 2fb1 ab3b feb0 abbd 5a4b 1b3d 3a7b f9be
00000190: a849 343f 813b 093e b5e9 e1bd f1d9 1d3e
000001a0: 70c0 f5bd 0363 d03e d1c7 b63d a2cd 0a3d
000001b0: 7594 67be 3070 273f 43a8 cb3d 14ad aabd
000001c0: 5e93 6d3e efd7 b13c 94cc 14bc 6a7c 863b
000001d0: 28bf 843c b36e 283d 47b2 163f 61d6 843e
000001e0: 5912 8cbe c798 ce3c aacf 043f beb3 bfbb
000001f0: 90bc 81bd 315a 913d 6d84 903e 0e88 eb3e
00000200: f115 b6bc 7f60 af3c 4e6e 7b3d 462d 02bf
00000210: 5fb3 0b3f 5ee0 5fbd 6753 9b3d d532 2a3e
00000220: 8532 92be 95ce 40bd 29ae 9c3b 1264 7f3e
00000230: 164b 0dbf abac e13e 48c6 13bd 4e11 c93d
00000240: 9778 a93e 3eaa 2e3e 6041 263e 0420 01bd
00000250: ecdc 003d 4472 44bc eb51 2a3f 5207 6c3e
00000260: 89c2 bdbe a97a a63d f090 7f3e bf4e 4a3e
00000270: 3869 f0bd 0f17 093e 1bab 923d b2a1 263e
00000280: 272f c2bc 55b2 883d 03b3 83bd 3462 97be
00000290: d7f8 d63e 9680 3dbe db67 e93c 6e11 5b3e
000002a0: 9a8f acbd c8db ef3d 6a01 42be f9e4 95bc
000002b0: 3a8a 69be f060 073f 0272 41bd 80fd 1bbb
000002c0: 6021 e63e 9abc a23d 48b9 cd3c e163 07be
000002d0: 3fc4 973d cd76 b03c 2cf2 de3e 0be1 ad3e
000002e0: 2f91 babe 0edd 1e3d 313c 883e 3ce2 5e3e
000002f0: d097 b6bc 2893 df3d 761e b2bd 1edc 483e
00000300: a88d b53e bce8 babd 6509 a13d 11c2 2cbf
00000310: 9e89 723e 110e ad3e 31e6 d23d 7d5a 5bbf
00000320: 0139 52bf 5fc6 d2bd 6dca 82be 490f 063e
00000330: 468e 5cbf 8924 093f dcea 18be 0a4d 9d3d
00000340: c142 0dbe c241 0c3f 4f75 793d 8c08 893b
00000350: fe99 6bbe 01c4 083e 351f 313e 2fa8 ee3e
00000360: 40a3 563d 5b25 663e 12e2 acbe 789b ec3d
00000370: a534 84bf 1ecb 68be 11de 6d3e b84f 14bf
00000380: 4a67 823d 9259 ffbc 5888 1dbd b37d cdbe
00000390: 1ef6 933e 569e 903e 7743 bfbd 4591 cdbe
000003a0: a01e 53be d7dc a33b b39f 22be bdae 36bd
000003b0: 3d34 d6bd 9538 2e3e 4f42 35bd 486d 8fbc
000003c0: e6a7 0d3e dd51 e9bd 735b 143d 3292 3bbd
000003d0: 60e2 0c3b 6a08 b43d 9d52 523e 4329 513e
000003e0: 4fce 6fbd 7498 41be 6005 4f3e bf97 c8bd
000003f0: a633 5fbe 763b 2c3d 4a95 903d c66b 10be
-0.06650932 0.0044289753 -0.0010395265 -0.4647412 0.83207804 -0.23713641 -0.015624676 0.22424385
-0.20224471 0.24391995 0.0026828449 0.32072446 -0.6838146 0.91196626 -0.006098229 -0.048906967
0.4995257 -0.17943038 0.11602018 0.1356132 -0.011574664 0.076673724 0.91989964 0.29413414
-0.25533295 0.35522538 0.17936584 0.11802263 -0.19457912 -0.07190787 -0.13861813 0.33162522
-0.12692085 -0.13211957 -0.20938684 -0.17382868 0.25193045 0.026621176 0.06589395 -0.3899397
-0.40418246 -0.06707021 -0.014119401 -0.20163617 -0.66591275 0.19279721 0.010362979 0.17500497
-0.14215149 0.16950563 -0.15344372 -0.087678544 -0.16261806 -0.07723127 0.09519635 -0.1019117
-0.3235379 -0.16367312 0.03162227 0.17215882 -0.56375027 -0.015989374 -0.23790142 -0.62947816
-0.00045578927 0.0549068 -0.2609788 -0.5419609 0.64971113 0.23472694 -0.073664755 0.33888212
-0.32426092 -0.11752465 -0.013509161 0.11765051 -0.52874196 0.7238543 -0.08844262 -0.15994678
0.66092217 0.21977006 -0.11881693 -0.06460903 -0.11016893 -0.0927653 0.66000384 0.2684926
-0.055280104 0.4504053 0.686567 0.18046223 -0.19007741 -0.07604031 -0.13742924 0.49356204
0.005239628 -0.08383368 0.037913658 -0.48726827 0.7042489 0.13401605 -0.11030904 0.1541517
-0.11999595 0.4070054 0.08924831 0.033887513 -0.22615226 0.6540556 0.09944203 -0.08333793
0.23200747 0.02170941 -0.009081978 0.004104187 0.016204432 0.041121196 0.5886578 0.25944808
-0.27357748 0.025219334 0.5187937 -0.0058502844 -0.063347936 0.07097281 0.28226033 0.4600224
-0.02222726 0.021408318 0.06138449 -0.5085033 0.54570574 -0.054657333 0.07584267 0.16620953
-0.28554168 -0.047072012 0.0047815037 0.24940518 -0.551927 0.44077048 -0.036077768 0.09817754
0.33099815 0.1705713 0.16235876 -0.031524673 0.031460688 -0.011990134 0.66531247 0.23049667
-0.3706248 0.08128864 0.24957633 0.19756602 -0.11738819 0.13387702 0.07161542 0.1627262
-0.023704125 0.06674639 -0.06430628 -0.2956711 0.41986725 -0.18506083 0.028491905 0.21393368
-0.08425827 0.11711842 -0.18945852 -0.01829766 -0.22806635 0.5288229 -0.047227867 -0.002380222
0.44947338 0.07946129 0.025112763 -0.13221695 0.07410478 0.021541024 0.43544137 0.33960757
-0.3643889 0.038785033 0.26608422 0.21765989 -0.022289187 0.1091674 -0.08697216 0.19615218
0.35459638 -0.09126422 0.0786312 -0.6748362 0.2368531 0.33799794 0.10297812 -0.8568495
-0.8211823 -0.102917425 -0.25545064 0.13091768 -0.8615459 0.53571373 -0.14933342 0.0768071
-0.13794996 0.5478784 0.06090289 0.004181927 -0.23007962 0.1335602 0.17297061 0.4661269
0.05240178 0.22475187 -0.33766228 0.11553091 -1.0328566 -0.22733733 0.23229243 -0.5793414
0.06367357 -0.03117064 -0.038460106 -0.40134963 0.2889871 0.282458 -0.0933904 -0.40149894
-0.20617151 0.0050006914 -0.15881233 -0.044600237 -0.104591824 0.17013772 -0.04425269 -0.017508164
0.1383358 -0.11392567 0.036220025 -0.04579372 0.0021497235 0.08790667 0.20539327 0.20425896
-0.05854636 -0.18905813 0.20216894 -0.09794568 -0.21797046 0.042048894 0.07059725 -0.14103612

model.4.bias f4 [3125]
00000000: 4f78 653e 1dab 91bd 9740 af3e 47e9 2e3e
00000010: 5818 9a3d 3a4d 063e 807e 83be 1782 bebd
00000020: b150 2abe 14e8 07bd ed8a 51bd 6305 e0bc
00000030: 9da6 173e c878 5c3e e825 843d 3c3a 0a3d
00000040: 1ef5 353c 0ff8 d03d bdd0 5b3e e4fb 263e
00000050: b1f5 053e a7a8 3fbe d118 2b3e c324 233e
00000060: 90bd 5e3e 704c b93d 8572 d9bb 9107 b23c
00000070: fd97 933d f22a c8bd 5ac5 6abe d608 14bd
00000080: 0c5f 34be 2027 543c 7c81 a7bd 2c15 133e
00000090: 01d2 83be 8946 d5bd 0fc3 a83d 0738 89bd
000000a0: 984e 9dbd 5dbb 263d e5b3 9e3d a4ac 293e
000000b0: 5d27 4abd 3c0c cc3d 5616 78bc 55ae 0b3e
000000c0: 4c21 433d fc44 38bd 7c62 893e e4c3 4fbe
000000d0: 3cc6 1f3e 140e 893d e4df 423d dee2 b7b9
000000e0: 4d37 6abe e1aa d03d 6c39 86bb 390b 003c
000000f0: 9f76 b03d da1d acbd 7b08 053e 547d 123d
00000100: 0b7d 913e 63ac 263c 1175 983d 46a3 263e
00000110: 1f4e 1a3e c95a 023e 75b5 09be 47a7 063e
00000120: 10b2 f23c 22d1 873d 3590 183e f8ba d73c
00000130: 1adf 6dbd 0077 243e ac07 773e 66e8 773e
00000140: 4cb9 17ba 4b0a 14be 2b97 13be a0ba 9e3d
00000150: 7806 953d 5dbe 513e bb66 54be 60d4 a3bc
00000160: 3373 80bc dcfe 2a3d 3d64 5f3e 6e72 eebd
00000170: 62d0 07bd 1f84 573e cd45 f7bc b151 b6bd
00000180: 2bac b23d 6951 d13c 298d 003e ceb2 4d3e
00000190: 7cb3 183d 0709 cf3c c546 4b3e 3c1f 713e
000001a0: de93 8c3c ddfb a33d a74c 83bd f4b9 c43d
000001b0: 31be a5bd bbd8 ad3c a28b 303d d3bc 0c3e
000001c0: f54d 24bd b803 85bc e77d f03b daaf 7c3d
000001d0: 0d9d 40bd 2e3b 03bd 0427 723a 9c97 803d
000001e0: 8b08 893d e755 a8bd 035f 1abd 1e18 b23d
000001f0: f2cd 953c 2616 0e3c f16b b4bd bb7a 043e
00000200: d71e a3bd 064a 8d3d 734c 3bbc f0bd 8ebd
00000210: e53d 06bc 752e fbbc 6c10 a5bd f3cd 3f3d
00000220: 1110 6ebd ff46 46bd 3450 3b3e 71d9 06be
00000230: 673c a63e ae09 2c3e 9148 70be 35c0 d93a
00000240: b3ce 15be 1402 ee3c a1f9 a6be 3442 40bd
00000250: 33b7 27bd dea1 483e 22f7 6bbd 7f0e ddbc
00000260: 5d6d 96bc 3a67 5cbe aa14 0fbc 2590 85bd
00000270: d849 4ebc 765b 4a3d bc9e 6ebd cc5c 57bd
00000280: d6ef 0e3e c34d 823d 0510 263e 6599 6a3c
00000290: 3d58 7d3d 4acd 37bd 4f31 6f3d 1aa1 013e
000002a0: e488 093d 4514 ddbb 0b47 e9bd 2038 973d
000002b0: 27a8 89bd 4d5c 5a3d 46b9 86bd 5f17 413d
000002c0: bbdb 7c3c e49b ee3d 1c43 263d 0ddd bb3d
000002d0: 2001 7f3d 71e0 c0bd 2aa5 1c3e 12e9 383d
000002e0: bd64 163e 4ba6 233e 54ee e4ba 0bf0 b4bd
000002f0: 9615 c5bd 5015 d53d c029 0a3d d827 89bd
00000300: 4204 a8bc 07e6 2f3c b203 3dbd 186a 4abd
00000310: 0e18 c5bd ce15 d9bc 0aa8 cbbd b2ff 40be
00000320: 816a 0b3d 9263 a2bd 4300 97bd 2288 8fbd
00000330: 2873 03be 7f24 22be 7179 c2bc 394f 333d
00000340: bfd8 753e 10bc 063e 2d82 25be c2ae 28be
00000350: 917a 48be 0b30 1b3c a45c 3abd b089 9bbd
00000360: 1f0c eebb d08c 07be 62bf 193e 5e22 e63d
00000370: 1b9d 803d 2ba2 063e 518b 52be 834e 71bd
00000380: 581e 90bd 06d7 2abd f5a1 81bd 5ac3 c3bc
00000390: 5834 5a3e fbd3 233d 6723 e7bd c842 573c
000003a0: 1009 44bc a5a7 35be 21dc 9b3c a949 c4bc
000003b0: 1808 6d3d 39d4 9a3b 89a2 49bd e1ee 5bbe
000003c0: 4f05 3d3e 9571 4abe ba2b 9bbe adb5 c1bd
000003d0: 8314 e03d 8b8e 163e 05b4 37be 12d8 14be
000003e0: 7c91 c23b 04f4 a0bd bcda 2b3e 86f3 f4bd
000003f0: 3988 9b3e e061 033e 2946 533e c6a4 f23d
0.22409175 -0.071127154 0.34228966 0.17081176 0.075241745 0.13115397 -0.2568245 -0.093021564
-0.16632344 -0.03318031 -0.05115788 -0.027346319 0.14809652 0.2153045 0.064525425 0.033746943
0.011105804 0.102035634 0.21466346 0.16307026 0.13082005 -0.1871668 0.16708685 0.15931992
0.21752 0.090477824 -0.0066359662 0.021732124 0.07206724 -0.09773816 -0.22926846 -0.03614124
-0.17614383 0.012948781 -0.08178994 0.14363545 -0.25746158 -0.10413844 0.082403295 -0.067001395
-0.07681006 0.040706027 0.07749156 0.16569763 -0.049353946 0.09963271 -0.015142044 0.13640721
0.047639176 -0.044987664 0.2683295 -0.2028957 0.15602964 0.06692138 0.0475768 -0.0003507351
-0.22872658 0.101888426 -0.0040962007 0.007815176 0.08616375 -0.08404131 0.12991516 0.035764053
0.28415713 0.010172936 0.07444204 0.16273221 0.15068863 0.12729944 -0.13448127 0.13149749
0.029625922 0.06631686 0.1489876 0.02633427 -0.058074094 0.1606102 0.2412402 0.24209747
-0.0005787804 -0.14457051 -0.14413135 0.0775044 0.072766244 0.20482774 -0.20742314 -0.01999873
-0.015679931 0.04174696 0.21815582 -0.116429195 -0.033157714 0.21046494 -0.03018465 -0.089023
0.08724245 0.025551515 0.12553848 0.2008774 0.037280545 0.02527286 0.19851215 0.23547071
0.017160352 0.080070235 -0.06411105 0.0960578 -0.08092917 0.02122151 0.043101914 0.13743906
-0.040113408 -0.016237125 0.0073392275 0.061691143 -0.047024775 -0.03203886 0.0009237381 0.06278917
0.066910826 -0.082195096 -0.037688266 0.08696006 0.018286679 0.008672273 -0.08809651 0.12937443
-0.079648666 0.068988845 -0.011431801 -0.069698215 -0.008193468 -0.0306618 -0.08059773 0.046827268
-0.05812079 -0.04840755 0.18292314 -0.13168885 0.32467958 0.16800568 -0.23465182 0.0016613068
-0.1462963 0.029053725 -0.32612327 -0.046938136 -0.040946197 0.19592997 -0.05760873 -0.026984451
-0.018362695 -0.21523753 -0.008732954 -0.06521634 -0.012590848 0.04940363 -0.05825685 -0.052578732
0.13958678 0.06362488 0.16217048 0.014318799 0.06185173 -0.044873513 0.058396634 0.12659112
0.033577815 -0.006746801 -0.113905035 0.07383752 -0.06721526 0.05331068 -0.06578307 0.04714143
0.015433247 0.116508275 0.040591344 0.091730215 0.062256932 -0.09417809 0.1529738 0.04514415
0.14686866 0.15981404 -0.0017466047 -0.08834847 -0.09623258 0.10404456 0.033731222 -0.06697053
-0.020509843 0.010735995 -0.046146102 -0.049417585 -0.09623729 -0.026499655 -0.0994416 -0.1884754
0.034037117 -0.07929148 -0.07373097 -0.07008387 -0.12836897 -0.15834235 -0.023739548 0.043776724
0.24008463 0.13157678 -0.1616294 -0.16472915 -0.19578005 0.009471904 -0.045498505 -0.07594621
-0.0072646285 -0.1323731 0.15014413 0.11237024 0.062799655 0.131478 -0.20560957 -0.058912765
-0.070370376 -0.04170897 -0.06329719 -0.023896862 0.2130903 0.039997082 -0.11286049 0.0131384805
-0.011965051 -0.17739733 0.019025864 -0.023960905 0.057869047 0.004725006 -0.04922727 -0.21477844
0.18459056 -0.1976989 -0.30306798 -0.0945848 0.10941412 0.14702813 -0.17939766 -0.1453555
0.0059377532 -0.07859042 0.1678266 -0.11960511 0.30377367 0.12830305 0.20632233 0.11847834
