models/empowerment_5_steps/CrossRoom-v0_phi.pth (torch_old, 14372 bytes, 5 tensors)

model.0.weight f4 [32, 68]
000000 37 90 76 3d 8c 97 d7 bb 01 a5 f3 3d e9 12 a8 3d
       0.060196128 -0.006579345 0.11896706 0.08206732
000010 13 25 ec bd e4 99 d6 bd 3c 1b e2 bd e3 ec 09 be
       -0.11530509 -0.10478571 -0.11040351 -0.13469271
000020 1c d5 d2 bd 28 cb d5 bd 84 4c 82 3c ff b6 d9 bd
       -0.10294554 -0.104391396 0.015905626 -0.10630607
000030 ba e6 11 3a ee fb e8 bd 56 e9 dd 3b 70 09 d7 bd
       0.0005565692 -0.11376177 0.0067722006 -0.10499847
000040 93 24 07 3d f3 44 e2 bd 56 12 d9 3d 13 c6 2f 3d
       0.032993864 -0.11048307 0.105992004 0.042913508
000050 cc c7 a8 3d 75 89 45 3c df 1c e4 bd ab 7a 16 bd
       0.08241233 0.012056698 -0.11138319 -0.03673808
000060 2b 9c dd bd b9 a9 bd bd d7 e6 0a bd c4 55 88 3d
       -0.10820802 -0.09260888 -0.033911552 0.066569835
000070 c5 bb 2e 3d 35 4a e9 3d 10 a8 0a 3e 7d d0 fe 3d
       0.04265954 0.11391107 0.13540673 0.1244211
000080 cf fa af 3d 41 2c 57 3d 5a 89 45 bc 1d 2d 1a 3d
       0.0859276 0.05253244 -0.012056673 0.03764068
000090 11 76 e1 bd 7b 97 2a 3e 0a 49 b1 3d 7d fa 02 3e
       -0.110088475 0.16659348 0.08656509 0.12790866
0000a0 91 71 bc 3d 5a 30 ef bd bb 8e e4 bd d0 4d d2 bd
       0.092013486 -0.11679144 -0.11160036 -0.10268748
0000b0 ac 7e b6 ba 71 d9 af 3d 1c 69 13 3d 94 0f 15 3e
       -0.0013923249 0.085863955 0.035988912 0.14556724
0000c0 61 7f 62 3d 91 a8 32 3e 9e 8d 7e 3d 0c 5c e1 3c
       0.05529726 0.17447115 0.062146775 0.027509712
0000d0 1e 2e dd bd c4 f1 1a bc d8 cd d4 bd 72 84 63 3b
       -0.10799812 -0.0094570555 -0.10390824 0.0034716395
0000e0 71 9e 8c bb a7 a3 1a 3b 9d 52 e2 bd b8 a6 f8 bd
       -0.0042913486 0.002359608 -0.110509135 -0.12141174
0000f0 27 95 07 be 2d 62 1b 3d 1e 99 e0 bd 83 3e 97 3d
       -0.13240491 0.037935425 -0.10966705 0.0738497
000100 fb 37 1b 3d 31 39 f4 bd 42 40 f5 bd 29 1d 6f bd
       0.037895184 -0.11924971 -0.11975147 -0.05837742
000110 70 3f 52 3d e3 a7 3b 3d f8 02 1e bd f5 6a 4e 3d
       0.05133003 0.045814406 -0.03857705 0.05039497
000120 ce 26 ce bd 39 0d c1 3d 11 36 bf 3d 34 67 f0 bc
       -0.10065995 0.0942635 0.09336484 -0.029346086
000130 50 fd 97 3d 8a 24 66 bd e4 6a a8 bd 96 c3 ea bd
       0.074213624 -0.05618719 -0.08223513 -0.11463086
000140 fc 30 b1 bd 20 d7 12 3e 00 00 b6 3c d0 e2 e5 bd
       -0.08651921 0.14339876 0.022216797 -0.11224902
000150 8a 09 86 bd 80 a6 32 3a 47 b6 15 3d fd b1 c6 bd
       -0.06544788 0.00068149716 0.036550786 -0.09701917
000160 9b 04 62 3d 38 0c 5e 3d 80 b6 17 ba d8 5f 87 3c
       0.055180173 0.05421087 -0.00057873875 0.016525194
000170 c7 be d8 3d 04 aa cf 3d e2 0f 0e bd db e8 c4 3d
       0.10583263 0.1013985 -0.034683116 0.09614726
000180 52 7b c4 3c f6 cd c6 bd f5 5e 46 3d 5c 38 00 bd
       0.023984585 -0.09707253 0.0484304 -0.03130375
000190 70 a0 9e bc ad c6 0c 3d 60 ae be 3c 96 a8 27 3d
       -0.019363612 0.03436916 0.023276508 0.04093226
0001a0 59 12 23 3d a0 6b 33 bc 73 f7 31 3d c0 a3 92 bc
       0.03981242 -0.010950953 0.043448877 -0.017900348
0001b0 fd fa b1 3c 10 6a 91 3c 20 09 d9 3c d6 e3 ff 3d
       0.021726126 0.01775077 0.026493609 0.12494628
0001c0 13 8a 97 3d bc 83 13 bd e4 90 f0 bc f8 07 b1 3c
       0.073993824 -0.036014304 -0.029365964 0.021610245
0001d0 65 7e db 3c 8c 19 5a bd a4 65 cd 3c 60 6d e9 bc
       0.026793668 -0.05324702 0.02507288 -0.028494537
0001e0 f0 9a bc bd 00 f2 d0 bb ce af c2 3c f2 95 b7 bd
       -0.092092395 -0.006376505 0.02376547 -0.08964147
0001f0 f1 f0 f4 bd 67 63 a7 3d 60 7f 48 3c db 68 eb 3c
       -0.119600184 0.08173256 0.0122374 0.028736522
000200 46 46 93 3d 60 33 93 bd 91 b5 71 bd 70 04 33 bd
       0.07191138 -0.071875334 -0.059011046 -0.043705404
000210 ba b6 33 3d f8 19 2a bd b0 c3 64 3d 26 db ee bd
       0.043875434 -0.041528672 0.055850685 -0.11662893
000220 84 45 7d be 46 8c 2c be ee 03 81 3c 49 f4 89 3b
       -0.2473355 -0.16850385 0.015748944 0.0042100293
000230 7f 43 3b 3e 10 56 19 3e 80 73 dc 3d 82 eb 23 3e
       0.18287466 0.14974236 0.107642174 0.16007808
000240 79 ef 0c 3e 0a c0 07 3e 40 d8 47 3d 25 3c f5 3d
       0.13763227 0.13256851 0.048790216 0.11974362
000250 47 37 d8 3d bd 79 0c 3e 4e dd 2c 3e 50 fc 58 bd
       0.10557418 0.13718314 0.16881296 -0.052975
000260 03 55 96 be 28 51 58 bd 0e d9 e6 3d 82 e6 68 bb
       -0.29361734 -0.05281177 0.11271869 -0.0035537784
000270 05 da 03 3e 69 52 c0 3d e6 a6 3f 3e 29 f3 d5 bb
       0.12876137 0.093907185 0.1871601 -0.006529231
000280 8c 68 3c 3e 11 1d 50 3e 86 d2 08 3d 14 72 9e 3d
       0.18399256 0.20323588 0.033403896 0.077366024
000290 13 81 fb 3b 3a 1f 3c 3e 34 ce ff 3c 70 b5 2e bc
       0.007675299 0.18371287 0.031226255 -0.010663375
0002a0 43 9f 46 be 0a 25 bf be ae d8 a2 be e8 47 4a 3c
       -0.19396691 -0.37332946 -0.31805938 0.012346245
0002b0 da eb 6e 3d 4d 29 26 3e 3f 45 2d 3e 2d a5 88 3d
       0.058330394 0.16226692 0.16920947 0.0667213
0002c0 f3 ab 39 3e fd 91 ef 3d 76 7d 32 3e cf f4 7e 3e
       0.18132 0.11697767 0.17430672 0.24898075
0002d0 52 92 6c 3d 2d a8 2a bc fd 02 a6 3e f5 e6 44 3e
       0.05775673 -0.010416073 0.32424155 0.19228728
0002e0 90 c8 cf 3d cc a1 19 3e f6 90 33 be 30 62 c1 be
       0.10145676 0.15003127 -0.17535767 -0.37770224
0002f0 b2 64 2f 3d 97 d4 60 3d 18 8f 4c 3e 21 35 ac 3d
       0.04282064 0.05489024 0.19976461 0.08408571
000300 6b e0 9a 3c 04 45 66 3d 2f e4 39 3e a9 9e 4e 3a
       0.018905839 0.056218162 0.18153451 0.00078819186
000310 cf 31 76 3e ad cd 6a 3e d3 ce e8 3d 90 06 26 3d
       0.24042438 0.22930022 0.113675736 0.040533602
000320 65 cd d1 3c 23 40 20 bd 84 46 6c be 15 ea 92 be
       0.025610635 -0.039123666 -0.23073775 -0.28694215
000330 88 70 64 be 66 5f 82 be b6 9a d0 bd 3b d2 5c be
       -0.22308552 -0.25463408 -0.10185759 -0.21564572
000340 ed f6 8c bc 31 b9 fd bd 7c 16 60 3d a4 df fe 3d
       -0.017207587 -0.12388838 0.054708943 0.12445
000350 6e d1 ee bc e9 b3 db 3d 66 a8 df 3d 24 27 ce 3d
       -0.029152598 0.107276745 0.10920791 0.10066059
000360 5d f6 30 3e a8 d0 ed bb 8b 21 1b 3e f0 b9 49 3e
       0.1728148 -0.00725754 0.15149514 0.19699836
000370 8d 14 78 be 61 8c 05 be 44 76 1e be 7b 5d 24 3e
       -0.2422659 -0.13041832 -0.15474802 0.16051285
000380 08 b8 38 3e 1c a9 2a 3e 41 e8 f8 ba 3f 1d 6d 3e
       0.18038952 0.16666073 -0.0018990115 0.23155688
000390 07 8f ac 3e af a2 84 3e f2 29 66 3e 82 0a 17 3e
       0.3370287 0.25905368 0.22476938 0.14750102
0003a0 3c 75 47 3e c0 9d 82 be 18 bd 29 3e c8 41 0a be
       0.19478315 -0.2551098 0.1657604 -0.13501656
0003b0 dd 72 20 be 01 f5 84 be f5 59 80 be 8e 74 84 be
       -0.15668817 -0.25968173 -0.25068632 -0.25870174
0003c0 57 73 ba bd 8e b1 79 be 83 7d 80 bd ad 74 b0 3d
       -0.091040306 -0.24384138 -0.062739395 0.08616004
0003d0 d0 b4 f4 3d 48 ca 1c 3e 92 1d 87 3e 98 df 5c 3c
       0.1194855 0.15311539 0.26389748 0.013481043
0003e0 b7 f5 16 3e c7 4e 58 3e 29 85 88 be fc 08 31 3c
       0.1474217 0.21123801 -0.26664093 0.010805365
0003f0 c0 d5 2b 3e dd 25 83 bd df e8 d9 bd f5 e1 84 be
       0.16780758 -0.06403706 -0.1064012 -0.25953642

model.0.bias f4 [32]
000000 d4 f5 32 be 65 e2 12 be c7 a9 bd 3e 1d e1 6f 3e
       -0.17476588 -0.14344175 0.37043592 0.23425718
000010 4b 4a 5e 3e 9a ac 01 be ec 45 67 3d 64 32 48 be
       0.21708028 -0.12663499 0.056463167 -0.19550472
000020 da ad 2d be 95 8e 8e bd 11 80 80 bd 46 be ca bd
       -0.1696085 -0.06960789 -0.06274427 -0.09899573
000030 c6 58 1f be 9d 34 03 be 37 f6 12 be 29 4c 98 3d
       -0.15561208 -0.12813039 -0.14351736 0.074364014
000040 0f 5d fb bd 04 45 62 bd 1d 71 42 be f6 8a f2 bd
       -0.12273609 -0.0552416 -0.18988462 -0.11842911
000050 61 a6 e7 bd 98 83 e5 3c 3c 56 24 be 02 53 29 3e
       -0.11311031 0.02801685 -0.16048521 0.16535571
000060 b6 af 8d 3e fb 62 e6 bd 79 94 d3 bd 96 99 db bd
       0.2767312 -0.11249348 -0.10331053 -0.107226536
000070 48 c4 01 be 6e e7 13 3c e6 87 17 be 96 6d 0d be
       -0.12672532 0.009027345 -0.14797935 -0.13811335

model.2.weight f4 [32, 32]
000000 3f 40 07 3e a3 33 fc 3c 62 41 67 3e 5e ff 02 3e
       0.13208102 0.030786341 0.22583535 0.12792727
000010 98 77 68 3d ac 4d d6 3d 0f 77 96 bc a7 5e 82 3d
       0.05675468 0.104640335 -0.018367318 0.0636571
000020 c5 0d eb 3d cb 72 83 bd e6 7c 8e bc 79 e4 2a 3e
       0.11477236 -0.064183794 -0.01739354 0.16688718
000030 61 2e 54 3e cf a9 4d 3d 58 46 98 bb 19 dc 0f 3e
       0.20720817 0.05021077 -0.0046470575 0.14048804
000040 dc ad 78 3d 0a ac 01 be ba b1 d2 3d ec 3c 36 3d
       0.06071268 -0.12663284 0.10287805 0.044491693
000050 32 78 24 be a0 46 0d 3d f3 f0 0e 3d b6 d0 01 3e
       -0.16061476 0.03449118 0.034897756 0.12677273
000060 1b a0 40 3e ab db 79 3c 39 40 94 3c 66 08 ec bd
       0.18811075 0.015250127 0.01809703 -0.115250394
000070 bf 28 1a bd 4c f8 31 3e e8 03 54 3d e1 a9 c7 bd
       -0.037636515 0.17379874 0.051761538 -0.09749199
000080 50 e3 d2 3d 8c bc 24 3d 53 a2 8d 3d c7 9c db 3d
       0.10297263 0.040218875 0.069157265 0.10723262
000090 7d 2b 95 bd 12 16 10 be 4c b6 f1 bc 6a 85 36 3e
       -0.07283685 -0.14070919 -0.029505871 0.17824331
0000a0 dd 29 e2 bd 93 86 c9 3c 0a d3 a7 bd 23 c3 d4 bd
       -0.11043141 0.024600303 -0.081945494 -0.10388782
0000b0 26 b1 a8 3d 3c 05 47 3e 83 ae bb 3d 1d ac 02 3e
       0.082369134 0.1943559 0.09164145 0.12760969
0000c0 e8 65 34 bd 6a 7d 97 3d 44 12 05 3c 46 a1 a3 3d
       -0.044042498 0.07396968 0.008122031 0.07989745
0000d0 df 33 30 3b 80 5e b9 3c 3d bd 06 be e2 0d 9f 3c
       0.0026886386 0.022628069 -0.13158126 0.0194158
0000e0 c0 93 87 3c 31 d5 75 bb 5a 42 ee bc f8 1b b9 3d
       0.016549945 -0.0037511105 -0.029084373 0.09038538
0000f0 1c e3 22 3e 6f ed a7 bd 8f f4 b1 bd d4 80 4f bd
       0.15906948 -0.08199584 -0.08689224 -0.05065997
000100 c3 09 10 be a5 7c 0c 3e 84 cb 8d bd 34 5b 5d 3d
       -0.14066224 0.13719423 -0.06923583 0.054042056
000110 5f 83 84 bd b0 9b 2b 3d 79 b9 f4 bd b0 48 92 3d
       -0.064703695 0.041896522 -0.119494386 0.0714277
000120 0b e4 19 3e 72 1d 16 be de e3 cf 3d 91 3c 83 bd
       0.15028398 -0.1465967 0.10150884 -0.064080365
000130 5e 31 ab 3d c0 5f 1a 3c a4 c9 10 be 47 e2 0a be
       0.083590254 0.009422243 -0.1413942 -0.1356288
000140 67 69 2e 3e 32 ca 9b 3d 40 f0 34 be 46 cb 16 be
       0.17032395 0.07606925 -0.17669773 -0.1472598
000150 d5 51 26 3e 78 84 e5 bc 50 69 7c 3d 8d 18 bf bd
       0.16242154 -0.028017268 0.06162387 -0.093308546
000160 c0 18 9e bc 8c ba e7 bd 00 3c 1b 3d 63 31 1b 3e
       -0.019298911 -0.11314878 0.037899017 0.15155558
000170 fe 00 e7 3d 0b 02 06 be 9e ea 2e be 17 e5 c2 bd
       0.11279486 -0.13086717 -0.17081687 -0.09516352
000180 fa f5 4d be cf 3c fa 3b c8 20 f6 3c b6 1b ec 3c
       -0.20113364 0.0076366435 0.030044928 0.028821807
000190 b7 7f c3 bd cf 68 d4 bd 66 5e 5b bd ca 83 5a be
       -0.09545844 -0.10371553 -0.053556822 -0.21339336
0001a0 7d 09 24 be e0 87 05 be 6e df c4 bd 9d bf 61 be
       -0.16019244 -0.13040113 -0.09612928 -0.22045751
0001b0 55 0c 37 be 28 70 3f 3c 2f 91 6b 3d 57 1d 90 bd
       -0.17875798 0.011684455 0.057511505 -0.07036846
0001c0 e8 22 10 3d 87 e9 48 be f7 e9 9e 3d 8a bd 02 be
       0.03518954 -0.19620334 0.07759469 -0.12767616
0001d0 68 69 15 be 8f 35 8f bd fb 66 c9 bd 02 8b 3d be
       -0.1459099 -0.06992637 -0.09834095 -0.18510059
0001e0 63 19 b9 bc b9 39 33 bc 62 ca 2b be 40 c2 3b be
       -0.022595113 -0.010939055 -0.16776422 -0.18335819
0001f0 d9 6c aa bd aa 4b a2 3b 75 14 69 be 55 23 78 be
       -0.08321542 0.0049528675 -0.2276171 -0.24232228
000200 05 1e 49 be 89 d2 cf bd 62 dd d3 bd d0 94 a1 3d
       -0.19640358 -0.10147578 -0.1034496 0.07889712
000210 08 d7 c8 bd 22 7c a9 3d 59 b8 d7 bd dd 86 84 bd
       -0.09806639 0.082756296 -0.105332084 -0.06471036
000220 a4 13 d6 bd b2 dc 98 bd 23 d7 7a ba 93 69 5e bd
       -0.10452965 -0.07463969 -0.0009568801 -0.054299902
000230 1e 4f 06 be fb 13 24 be b5 dc c3 3d 23 a0 9c 3d
       -0.13116118 -0.16023247 0.09563581 0.07647731
000240 c7 a6 33 be 35 c8 21 3d bc e1 b1 3d 0d 5f 07 3e
       -0.1754409 0.039497573 0.086856335 0.13219853
000250 25 a4 20 be 6c 9f 9d 3c 54 72 ea 3d 31 3a 00 be
       -0.15687616 0.019241057 0.114475876 -0.12522198
000260 b8 69 16 be d7 70 92 bd 53 30 0f 3e 4e 1a 2b be
       -0.14688766 -0.07150429 0.13983278 -0.16709253
000270 3f c5 c7 bd da e4 99 3c 2c 52 30 be 25 05 6b bd
       -0.097544186 0.018785883 -0.17218846 -0.057377953
000280 78 8d 3c be 8a 61 15 be 23 1d 31 bd e3 79 e7 3d
       -0.18413341 -0.1458799 -0.043240678 0.11302545
000290 f7 60 43 be 08 59 00 be 75 17 45 be 0e 7c 8b 3d
       -0.19079958 -0.12533963 -0.1924723 0.06810771
0002a0 00 19 5e 3b 42 a9 65 be 5b 5a a0 3d 2c 7b 8b bc
       0.0033889413 -0.22427848 0.07829734 -0.017026506
0002b0 74 d8 07 be 64 a9 9a bd d2 13 03 3e 31 bb d8 3d
       -0.13266164 -0.0755184 0.1280053 0.10582579
0002c0 b1 5f 34 bd 93 6d b3 bc 15 ae 5a 3e 9e d6 26 be
       -0.04403657 -0.021902835 0.2135547 -0.16292807
0002d0 36 43 40 3d c7 0b 29 3e c1 ec dc bd 45 93 6b 3d
       0.046939097 0.16508399 -0.10787345 0.057513494
0002e0 6e 46 b3 be 35 37 ae bc 3b db 87 be 48 1f 20 3e
       -0.3501467 -0.02126656 -0.26534447 0.15636933
0002f0 25 70 ba 3d 37 a6 aa 3d 43 63 4f 3d dd 6e 8a 3d
       0.09103421 0.08332484 0.050631773 0.06759427
000300 18 85 ae bc aa 10 37 3d 95 c8 a8 bd 1b 2a 89 3d
       -0.021303698 0.044693626 -0.08241383 0.06697484
000310 ac a4 1e 3e ff 6c 64 3d 12 d6 e6 bd 32 89 f7 bc
       0.15492505 0.05576801 -0.112712994 -0.030216787
000320 d5 d1 11 be 09 20 76 bd 71 d1 2c be a4 02 56 bd
       -0.14240201 -0.060089145 -0.1687677 -0.052248612
000330 68 f7 f0 bd f7 10 89 bd fb bb 3c 3d aa b4 64 3d
       -0.11765939 -0.06692689 0.04607771 0.055836357
000340 b7 10 dd bd a7 8c a3 3c f3 73 1b be 9a 76 89 3d
       -0.10794204 0.01996453 -0.1518095 0.067120746
000350 86 89 4e 3d bb 09 82 3d 82 2c cd 3b a4 e5 8e 3d
       0.05042412 0.06349512 0.0062614093 0.06977394
000360 16 61 2e 3d 51 2e 8c bc 79 e8 26 3e 9e 31 e2 bd
       0.042573057 -0.01711193 0.16299619 -0.1104462
000370 73 31 47 3e 26 32 81 3d 25 a8 ea 3c b0 ba 3b 3e
       0.19452457 0.06308393 0.02864463 0.18332934
000380 46 67 d9 3d f0 15 69 bd bc 60 c1 bd b8 7c 82 3d
       0.10615401 -0.056905687 -0.09442279 0.063714445
000390 a1 66 ee bd 65 3a 0f 3e b4 73 62 bd 36 e2 01 be
       -0.11640669 0.1398712 -0.055286124 -0.12683949
0003a0 d5 0e 0c be e0 e8 7b bc 78 38 23 bd ce 53 f0 3d
       -0.13677533 -0.015375346 -0.039848775 0.117347345
0003b0 e8 1a 19 3d 48 2e 2b bd a4 aa 10 be 78 96 1d be
       0.037379175 -0.041792184 -0.14127594 -0.1538943
0003c0 1e 9d cf bd fc d7 02 be e5 1b 31 3e 1a 87 02 be
       -0.101373896 -0.12777704 0.17295797 -0.1274685
0003d0 00 11 8e 3b 52 25 2b be a7 af 24 3e 56 b5 94 3d
       0.0043355227 -0.16713455 0.16082631 0.072611496
0003e0 ad d6 e5 bd 00 ad d2 3a 0e cb 07 be 30 7f 14 bd
       -0.11222587 0.0016073287 -0.13261053 -0.036254108
0003f0 f7 eb 23 3e 17 db 30 3e c2 4c 64 bd b3 94 19 3e
       0.16007982 0.17271076 -0.055737264 0.1499813

model.2.bias f4 [32]
000000 2f 5d c9 3e 5d 61 b7 3e 18 93 6d bd 67 d6 9c bc
       0.39328906 0.3581647 -0.058001608 -0.019145204
000010 73 4c 73 bb 92 07 8c bd 12 7b c9 3e ce d0 ad bd
       -0.0037124425 -0.068373814 0.39351708 -0.08487092
000020 3e 35 12 be ff 74 dc 3e 56 c2 da 3e 58 32 02 3f
       -0.14278123 0.4305801 0.42726392 0.5085807
000030 7b 30 ed 3e e8 49 0a be 9a e7 6b 3e f6 52 69 bd
       0.4632605 -0.13504755 0.23037568 -0.056963883
000040 9f 02 38 bd e1 62 d6 3e 2d 2a f2 3e c8 5d ed 3e
       -0.044924375 0.41872314 0.47297803 0.46360612
000050 91 d6 1d bd af 59 dd 3e 64 88 07 be 02 42 33 be
       -0.038534705 0.43232486 -0.13235623 -0.17505649
000060 87 e9 e3 bd 8e f0 e5 3e 2b 35 d6 bd 0c f7 8a bd
       -0.11128526 0.4491009 -0.1045936 -0.06785402
000070 c9 38 da bd a4 33 2c be a7 9d 01 3f 68 09 d7 3e
       -0.10655362 -0.16816574 0.50631183 0.41999364

model.4.weight f4 [1, 32]
000000 0f 1b 6a 3e 1a 89 64 3e da 68 02 be 2d 47 48 bd
       0.22861885 0.22317925 -0.1273531 -0.048896004
000010 e0 a6 76 bd 97 60 ab bc 7d 56 3b 3e 3c 59 13 bd
       -0.06021774 -0.020920081 0.18294711 -0.035973772
000020 c8 f0 e7 bd d9 25 46 3e 8c f0 67 3e 30 55 96 3e
       -0.11325222 0.19350375 0.22650355 0.29361868
000030 53 f4 5a 3e d6 70 ac 3d 17 b5 b8 3d 3a 32 ac bd
       0.21382265 0.08419959 0.09018915 -0.084080175
000040 5a 9c 92 3b 2b fb 7d 3e 32 db b1 3e 07 52 89 3e
       0.004474205 0.24802844 0.34737545 0.26820394
000050 e1 64 2c 3d 1e 71 52 3e 18 6e 6d 3d a3 76 94 bd
       0.042088393 0.20550963 0.05796632 -0.07249191
000060 2b 6c b5 3b a5 c6 bd 3e 0c e8 0a be 87 ea 48 3c
       0.0055365763 0.37065616 -0.13565081 0.012262947
000070 99 9d ee bd a9 eb e1 bb 6c 7d b5 3e 92 48 a8 3e
       -0.11651153 -0.006894548 0.35447252 0.32867867
