models/empowerment_5_steps/RoomPlus2Corrid-v0_decoder.pth (torch_old, 426490 bytes, 6 tensors)

model.0.weight f4 [32, 66]
00000000: 31ec 693d c5df 1c3f e372 f63e c66d 903e
00000010: 1213 243f 2c32 313f 3ec9 283e f4aa f23e
00000020: 2c8e fcbc eb45 683e 5395 413e 9df8 f13d
00000030: e605 f73e 4fa5 ef3e 3785 fabd 7c2c c0bd
00000040: 5a20 01be 2d86 873e 252e 033f ed79 153f
00000050: 0ad5 13bf 1465 26bf 469c cfbe 5e0a dd3d
00000060: 3f42 a73e f9a3 093f 91d6 e73e 9fba 60bf
00000070: 2724 36be a647 3fbd 7698 fd3d dd18 373e
00000080: d4ad fc3d 2b0f 9bbe bdb5 aabe 37c3 08bf
00000090: dd4f 93bf a9e7 6cbf b308 3bbf 2ccd 5d3e
000000a0: f99d 2ebe 257c d53e cbba 6f3d f3d4 a73d
000000b0: 87b0 86be 9431 f0be 9c65 0cbf 12d6 103f
000000c0: 481c 4a3f 1ee4 433f 81b8 0e3d c8f7 823d
000000d0: 469e 3d3d 83b3 483f 59f2 363f 94dd 323e
000000e0: 6fb6 df3e 7549 213d a830 3cbe b997 d5bd
000000f0: aea0 393f bbf3 dc3e 54ed 393e 74b2 73be
00000100: 2924 9fbe d495 d7be 4ee2 a53e e450 df3e
00000110: cd76 f43d b46b 483e ce8a 313e 75a0 43be
00000120: 8807 2a3f 6d88 313f dc3a 7c3f 37df 9d3e
00000130: 4db5 e33d bfff dfbd 7eda 8fbe 874f d5be
00000140: c4f3 463f 8df3 3d3e 2988 58bc 1f0e 2dbe
00000150: 056d 85bd 77e9 1f3e fca8 bd3d 38f0 603c
00000160: 521f 763d f6e6 79be c305 8ebe 3825 8fbe
00000170: 6013 4fbc 6bcb 9e3d 7912 e1be f861 eabe
00000180: 7226 dbbe cc10 e5be 48e4 a6be d545 33be
00000190: 6ae4 df3a 8299 88bf b3b6 f4be 1182 21be
000001a0: da3d 433e df64 afbe 517e 643d 9660 923e
000001b0: f7ad 943e 1855 29bf 0210 05be 200e 27be
000001c0: a500 743f 3224 b8bd 18e3 a73d 3291 ebbe
000001d0: 6c44 f73d dfc9 093e b7a5 353f 4621 f03e
000001e0: 705b 4bbf 60ac e4be 5fa5 b4be d40e bc3e
000001f0: 009e 1e3f b95b 873f d88f 353d fbdf fabd
00000200: 9728 bb3d 87e0 363e 8132 c93e 6333 243f
00000210: b853 473f 3569 413e c304 0f3f 329e 803e
00000220: 34a5 5abd 139a edbe d701 423f d39d 30bf
00000230: 6f5d 143f 1f43 1dbe 0684 1b3e 0386 25bd
00000240: c458 5ebe 6263 9abe 7737 083f 3cc0 173f
00000250: 6f19 0c3f b742 9a3e 3ed0 5dbc 4636 79be
00000260: 9763 793e c990 483e 51f7 7b3e 9e92 c33e
00000270: 1e37 8fbd e694 8dbe 0713 e3be 4a63 a43d
00000280: bef2 0dbd 570d 4f3d 7091 8ebe 6998 9ebe
00000290: e007 23bf 8271 1bbf 687e 0bbf 9575 5fbe
000002a0: 8cb8 ff3d e488 bcbd 49e2 8c3d b0f3 00bf
000002b0: 0086 71bf a95c 0ebf 3aff 07bf 567c 733d
000002c0: da51 a73e 00cc 223f 8b71 1b3f fec8 70be
000002d0: fdba 53be bebf d4bd dd2f 9b3e 1661 d03e
000002e0: aa33 8b3e 0050 ce3d 9cd4 57bf 6cfa af3e
000002f0: 452e 273f d203 2e3f df9f 793f 0996 753f
00000300: a743 16be d134 84bd c59b 4c3d 828d ac3e
00000310: b3eb dd3e f9e2 4c3f 0fe9 033f 5145 183f
00000320: a6c3 28bb 6ab8 bb3d 0a9d 8bbe b097 073e
00000330: 5e30 563f b6ab 563f 4bb0 2c3f 5d81 893e
00000340: 1d31 8cbd 3de4 45be a6f5 29be a6f4 60be
00000350: 6b83 663e ce29 a53e dcb8 a63e ed2a 423e
00000360: 84f3 80bc 1b7d e5bc 9e49 7abe 69b8 8fbf
00000370: 3298 18bf 05b5 41be a34e ea3d 7e41 1abe
00000380: 055f b9bd a9c3 edbd c827 febe ff41 abbe
00000390: 6b19 7ebe 898b 21bf d5e7 d7be f4fe 6ebf
000003a0: 64a5 a7be 7c38 fbba 3783 96be 8084 fa3a
000003b0: 3d59 2cbf a952 3ebf b5ff 11bf 47d0 b538
000003c0: 5adb 9bbe bed5 89bf 7800 513e bdd4 a53e
000003d0: 91c2 5cbe c45b 84bd 3095 7c3e b525 0cbe
000003e0: 473e 473b a2aa 993e a5a0 a83d 44ee ca3c
000003f0: 1c88 6dbf 563e ffbc b991 163e a283 0a3f
0.057110015 0.61278945 0.48134527 0.2820875 0.640916 0.6921718 0.16483018 0.47396052
-0.030829512 0.22682922 0.18904619 0.11814997 0.48246688 0.46805808 -0.1223244 -0.09383485
-0.12609997 0.26469555 0.51242286 0.5838917 -0.57746947 -0.6499798 -0.40548915 0.10792993
0.3266773 0.5376583 0.4528089 -0.8778476 -0.17787229 -0.04669919 0.12382595 0.17880578
0.123378426 -0.3028501 -0.3334178 -0.53422874 -1.1508747 -0.92540985 -0.7306015 0.21660298
-0.1705245 0.41696277 0.05852775 0.08194914 -0.26306555 -0.46912825 -0.54842544 0.56576645
0.78949404 0.76519954 0.034843925 0.06394917 0.04629352 0.78398913 0.71463543 0.17467338
0.43693873 0.039376695 -0.18377936 -0.104293294 0.725108 0.43154702 0.1815694 -0.23798543
-0.31082276 -0.42106497 0.3239922 0.43616402 0.11936722 0.19572335 0.17338106 -0.19104178
0.6641774 0.69348794 0.9852731 0.30834362 0.11118565 -0.109374516 -0.28096384 -0.41662237
0.77715707 0.18549938 -0.013216057 -0.16899918 -0.065149345 0.15616404 0.09260747 0.013729148
0.060088463 -0.24404511 -0.2773877 -0.27958083 -0.012638897 0.07753643 -0.43959406 -0.4577787
-0.4280277 -0.44739377 -0.3259604 -0.17507108 0.0017081622 -1.0671847 -0.47795638 -0.15772273
0.19066563 -0.34256646 0.055784527 0.28589314 0.29038975 -0.6614547 -0.12994388 -0.16313982
0.95313483 -0.08991279 0.081976116 -0.46009213 0.12073597 0.13455914 0.70955986 0.46900386
-0.794364 -0.44662762 -0.35282418 0.36730063 0.6195984 1.0574867 0.044326633 -0.12249752
0.09138601 0.17859088 0.39296344 0.6414091 0.7786212 0.1888779 0.5586664 0.25120693
-0.053380206 -0.46406612 0.7578406 -0.6899082 0.5795507 -0.15357636 0.15187082 -0.040411007
-0.21713549 -0.30153948 0.5320963 0.592777 0.5472631 0.30129024 -0.013538418 -0.2433711
0.24354397 0.19586481 0.24606062 0.38197798 -0.06992935 -0.27652663 -0.44350454 0.080267504
-0.034655325 0.05054983 -0.27845335 -0.30975655 -0.6368389 -0.60720074 -0.54489756 -0.21822198
0.124863714 -0.09205797 0.06879098 -0.5037184 -0.9434509 -0.5561014 -0.5312382 0.059444748
0.32679635 0.6359253 0.6072013 -0.23514172 -0.20676799 -0.103881344 0.30309954 0.4069907
0.27187854 0.100738525 -0.8430879 0.34370744 0.65304977 0.6797458 0.9750957 0.9593206
-0.14674245 -0.064553864 0.04995324 0.33701712 0.43343887 0.8003383 0.51527494 0.5948077
-0.0025751381 0.091660336 -0.2726825 0.13241458 0.8366755 0.8385576 0.674565 0.2685651
-0.06845305 -0.19325347 -0.16597614 -0.21968326 0.2251107 0.32258457 0.32562912 0.18961687
-0.015741117 -0.028013756 -0.24442145 -1.1228153 -0.5960723 -0.1891671 0.1144078 -0.15064046
-0.09051327 -0.11609585 -0.49639726 -0.3344879 -0.24814384 -0.6310354 -0.4216906 -0.9335778
-0.3274337 -0.0019166614 -0.29396984 0.0019112974 -0.67323667 -0.7434488 -0.570308 8.669547e-05
-0.3044079 -1.0768354 0.20410335 0.3238887 -0.21558596 -0.064628154 0.24666286 -0.13686259
0.003040211 0.30012995 0.082337655 0.024771817 -0.9278581 -0.031157654 0.14704026 0.54107106

model.0.bias f4 [32]
00000000: ade4 eb3e 5da2 b73e 5c66 a03e da59 643e
00000010: cad6 913e 9236 003f 4d0a 9e3e d3cc cf3e
00000020: 7f69 a93e c7e9 c53e f359 c33e 68b8 b33e
00000030: 3678 d73e 925a 023f 4943 bc3e 8773 e53e
00000040: a268 963e 8e98 a03e 7f5e b93e 0909 bf3e
00000050: 2bf5 9c3e d875 ff3e 34fe 773e ce4e cb3e
00000060: 4a94 c13e ddf2 0c3f 3e0a 6d3e d9eb e33e
00000070: b782 8d3e 25c4 e63e b974 d53e 5d8b 003f
0.46072903 0.3586606 0.31328094 0.222999 0.28484184 0.5008327 0.30867234 0.40585956
0.330883 0.3865492 0.38154563 0.35101628 0.420839 0.5091945 0.36770085 0.44814703
0.29376704 0.3136639 0.36204907 0.3731158 0.30655798 0.49894595 0.24218065 0.3970856
0.37808448 0.5505808 0.23148438 0.44515875 0.2763879 0.4507152 0.41690615 0.5021265

model.2.weight f4 [32, 32]
00000000: 33b6 5dbf 45e5 823f 54ce c53f 8b98 113f
00000010: 6959 243e 22f3 8d3d c96a 973f 63f6 18bf
00000020: dfc8 6bbf 200b dc3f 405c 083f a512 5bbf
00000030: 332c 3bbf 3219 873f e2fe d23e 53a6 a23f
00000040: 098f febb 84a8 21bf e170 1040 92fd 113e
00000050: e3a2 4a3f 4dd1 493e 087e b2bf 2f44 f83d
00000060: 10b7 aabf 2de2 c3bf 5d4f d3be c705 af3f
00000070: 163b 72be 831f 1cbf 6e43 a0bf 98ec cb3f
00000080: dd80 41bf 3020 993e 2e54 35bf cde8 88bf
00000090: 2054 3d3f c013 043f a62f 90be df0c f2be
000000a0: ca3c 653c 522c 443f 9d56 e43d 8949 873f
000000b0: 1ddf 533d f587 e8be b4e0 423f 1430 02bf
000000c0: a95a 883f 7bb4 04bf 5f08 323e fafe 5a3f
000000d0: 986d 49bf 1ac8 723f d537 66be fae5 db3e
000000e0: 649f d23c a27e 0f3e 101f 7abf 4d71 f23d
000000f0: ce82 24bf a44c 823f 6dab 963d 8438 1abf
00000100: 09a3 893d 9daa 713d 3800 1dbd 3465 2fbe
00000110: 6477 31bd 224b 29be fb48 30be 05f3 21be
00000120: 5ac7 743d 337e bb3c faa6 2ebe 3cad 863d
00000130: 12b1 c23d b3ba 5dbc 6d42 8abc 8215 33bc
00000140: a6e6 4dbe 0c2a 04be 9608 32bc b7ac bbbd
00000150: 5e46 febd 6ade af3d 0bd4 8dbc 8ed7 ae3c
00000160: e735 50be 65f0 10be bcbe 243d bc64 6cbe
00000170: 8e34 e7bd b3a5 673d 2b45 90bd ca6a aebd
00000180: 14e4 943f 0351 c93e e325 eb3e ba8a 13bd
00000190: d346 8b3e c3d9 8fbe 4717 a23d 337f 563c
000001a0: 62a9 c53e f712 d5bd c80a 103f 3bf1 ae3e
000001b0: 3db5 eb3d aaee 8dbd d943 b93e d412 6a3e
000001c0: d014 dabe d868 9d3e da02 4bbf 709e 04be
000001d0: 8151 463e 58a3 e6be 1a0a 5e3e 48c2 e03d
000001e0: d46b 3b3e bc2e 45bd 7c8c d93e a7be 86be
000001f0: c878 953d 4df7 1c3d c277 383f 9a2f 1e3e
00000200: 2a7f aebe f714 1bbf 5fe9 33bf 4d5d 523d
00000210: 906e 373f 0ed5 0c3f 117b ffbe 6adf 673f
00000220: 8350 8dbc 12ed afbe 8ce8 23bf 02e2 3b3f
00000230: 1ffa 1f3f ca8a 073f 91af 663e d17f bbbd
00000240: 99c4 163f 40a8 2d3f b2ae ccbe b579 163f
00000250: e23e fcbe 99fb 273f c96f 963e 81bb 43bf
00000260: 1b72 12be 0b87 3b3f f275 f33e 8797 da3e
00000270: d8db 13bf 4558 7b3f c11b a23e d8fa 21bf
00000280: ba2b bdbe e32d c73e 9300 e33e 2cb2 09bf
00000290: 1097 2cbd 023e d43e bd51 243f 3d1d d3be
000002a0: ecdd 6abf ee80 943f 76f2 363f 97d1 c93b
000002b0: fd7c 94be 323a 483f d4da 6f3f 5e5b 973f
000002c0: 6dc3 f43e 97b8 0ebf e92d 863f 0073 a43e
000002d0: 6f19 a93e 9b85 4a3e fe99 20bf 1524 f93e
000002e0: 0df8 4cbf c60a 9bbf e0ca 3ebf 7fbc 6d3f
000002f0: 94f4 48be 0942 a43e 0814 25bf 710d a53f
00000300: 172a 883e 1455 0abf 28f1 13be 8092 27bf
00000310: 15a3 87be 0faf 183e c470 29bf 5f51 863e
00000320: 5605 c9be 5b92 093f e4a6 e73e 320b 563f
00000330: e34e 693e 0747 8fbd 7fa7 073f abba abbd
00000340: 7d22 3d3e 5ca6 00bf 79e0 4dbf d482 8ebd
00000350: a699 a33e 7b7d 22be 557d 453f c9a8 f3be
00000360: 8320 6f3e a655 8b3e 0942 823e 24e4 c3bd
00000370: c58f 353e e22c 1d3f b73e 0a3e 4550 3dbd
00000380: 02d6 a33f fd4d a53a a6ec 2cbf 9281 e3be
00000390: ad0c a7bc dd10 013e 7c58 9bbe 85d1 c63f
000003a0: bf13 7e3e 022a 82bf e733 ebbe b63b 1d3f
000003b0: 6631 d43f b50e 8fbe 418b 1bbe 806f d2be
000003c0: c4d4 d73e ca9f 683f 680a 48bf 79f8 c2be
000003d0: 2725 cebe ea09 d1be 75fb ab3f c4e3 0bbf
000003e0: 9924 053f bfa4 d33f 1973 2d3f 0f9b 81bf
000003f0: 35c0 06be bb7a ef3c 00ca 953e bd0f 53bf
-0.8660614 1.0226218 1.5453591 0.5687339 0.16049732 0.069311395 1.1829463 -0.59750956
-0.9210338 1.7190895 0.5326576 -0.85575324 -0.7311432 1.0554564 0.41210085 1.2707008
-0.007768516 -0.6314776 2.2568896 0.14256886 0.79154795 0.19708748 -1.3944712 0.1212238
-1.3337116 -1.5303398 -0.41271487 1.3673638 -0.23655352 -0.60985583 -1.2520578 1.5931578
-0.75587255 0.2990737 -0.70831573 -1.0696045 0.7395649 0.51592636 -0.28161353 -0.47275445
0.013991544 0.7663013 0.11149333 1.0569316 0.05172645 -0.45416227 0.7612412 -0.5085461
1.0652667 -0.5183789 0.17386006 0.85545313 -0.7868285 0.9483658 -0.22482236 0.42948896
0.025710769 0.1401315 -0.9770365 0.11838017 -0.6426209 1.0179639 0.073569156 -0.60242486
0.067205496 0.0590006 -0.038330287 -0.1712845 -0.04332675 -0.16532567 -0.1721534 -0.15815361
0.05976043 0.022887325 -0.17055884 0.065760106 0.0950643 -0.013533282 -0.016877377 -0.010930421
-0.20107517 -0.12906665 -0.010866305 -0.09163802 -0.12415765 0.08587344 -0.017313024 0.021343019
-0.20333062 -0.14154203 0.04022096 -0.23085302 -0.11289321 0.056554507 -0.07044443 -0.08516462
1.1632104 0.3931962 0.45927343 -0.03602097 0.27202472 -0.28095827 0.07914596 0.01309185
0.3860579 -0.10404008 0.5626645 0.3416842 0.11509178 -0.06930287 0.36184576 0.22858745
-0.42594004 0.30744052 -0.79301226 -0.12951064 0.19367029 -0.45046496 0.21683541 0.10974556
0.18302852 -0.048140272 0.42489994 -0.2631733 0.07298428 0.038321782 0.72057736 0.15447846
-0.34081393 -0.60578865 -0.7027797 0.05135851 0.7165308 0.55012596 -0.4989858 0.9057528
-0.017250305 -0.34360558 -0.64026713 0.73391736 0.6249103 0.5294615 0.22527911 -0.091552384
0.58893734 0.67834854 -0.39977032 0.5877946 -0.49266726 0.6561828 0.2938216 -0.76457983
-0.1430134 0.73252934 0.47550923 0.4269373 -0.5775733 0.98181564 0.316618 -0.6327338
-0.36947423 0.38902196 0.44336376 -0.53787494 -0.042136252 0.41453558 0.6418722 -0.41233245
-0.91744876 1.1601846 0.71463716 0.0061590183 -0.29001608 0.782138 0.9369328 1.1824758
0.47805348 -0.5575041 1.0482761 0.32118988 0.33027217 0.19777529 -0.62734973 0.4866034
-0.80065995 -1.2112663 -0.7452831 0.9286575 -0.19624549 0.3208163 -0.6448369 1.2894727
0.26594612 -0.5403607 -0.14447463 -0.65457916 -0.2649161 0.1491053 -0.6618769 0.26233956
-0.39261883 0.53738946 0.45244515 0.8361083 0.22783999 -0.06995969 0.52989954 -0.083852135
0.18470187 -0.50253844 -0.80420643 -0.06958547 0.31953162 -0.1586818 0.77144367 -0.4758971
0.23352246 0.27213782 0.25441006 -0.09564999 0.17730625 0.6139661 0.13500486 -0.04621913
1.2799685 0.0012611743 -0.67548597 -0.44434792 -0.020391786 0.12604089 -0.30340946 1.553269
0.2481222 -1.016907 -0.45938036 0.61419237 1.6577575 -0.27940908 -0.1518984 -0.41100693
0.42154515 0.9086882 -0.7814088 -0.38080195 -0.4026272 -0.40827876 1.3436114 -0.5464442
0.5200897 1.6534652 0.6775375 -1.0125445 -0.13159259 0.029233327 0.29255676 -0.8244589

model.2.bias f4 [32]
00000000: cf7f 8a3e f0bd 5ebd 51ec 21be 31b5 46be
00000010: b951 f93d abf4 563d d0d1 2b3d 3b18 c23c
00000020: d22e c43d 9f88 60bd 2769 6f3e 27d6 ebbc
00000030: dedf 95be 8122 1d3e 4072 d53e 134c 45bc
00000040: f026 18be 8141 9c3e c0fd 033f eb87 683e
00000050: 3c0c a5bd 6a1d 233e e7c3 dd3b 7bbc bf3e
00000060: 6ae9 be3d 34be fc3e a2bd af3e 91c4 69be
00000070: 87a9 5fbe 174b d83e 1006 d43d 9723 88bd
0.27050635 -0.054380357 -0.15812804 -0.19405057 0.121737905 0.052479427 0.04194814 0.023693195
0.09579243 -0.054817792 0.23379956 -0.02878864 -0.2927236 0.15345193 0.41688728 -0.012042063
-0.14858603 0.30518726 0.51559067 0.22708099 -0.08058974 0.1592919 0.006767738 0.37448487
0.09321864 0.49363863 0.34324366 -0.2282889 -0.21842013 0.4224479 0.10352719 -0.06647413

model.4.weight f4 [3125, 32]
00000000: be03 18be 6f8e 93bd 506e 99bd 3433 c2bf
00000010: a2c4 3d3e c4dd 5ebf 35d6 63be fc02 96bd
00000020: e056 e53d afb8 c1be 0d07 b7be dace 673e
00000030: 0579 1bbe 9ac8 c2bd 3c99 893e f5aa 5cbe
00000040: 6927 533e 74a0 97bf fe6c 5b3e 7150 883e
00000050: c396 203b 2596 5cbf 4f29 b5bd 52eb b0bf
00000060: 7ccc 583d da08 8cbe 982f 04be a3b2 c8bf
00000070: 390c d43d 90c2 b73d 8ac6 1bbd e44e 53bf
00000080: c9d9 34bf ad73 50be 51c7 b4bd 8ccd 0dbf
00000090: 023e 39bd 8b1a 1abe b745 023e 5a44 31bf
000000a0: e98a d13d 6417 55be c4d2 b93e 0357 ea3e
000000b0: 6810 1b3e cf99 41be 8fc7 99bd 351f 8dbe
000000c0: 3de8 ef3b 8bf1 de3e a2f7 b53e faa0 e23e
000000d0: a9b4 b53d 4a90 1abf 2484 c53d 0704 c0bf
000000e0: 11de 52be 445f 92bd 504a 82be 4836 80bf
000000f0: 9b10 bbbd 49b5 153e b3a9 eabe 504b 51bf
00000100: 24de 67be 0fe5 27be 2a90 273d 7aa5 13c0
00000110: 3e81 64bd 85fe 33be 3d4a 53bd 462b febf
00000120: 8376 4cbd 5708 babd 45b4 c9be 7a0b 2ebf
00000130: f9ec 07bd 2643 653e 7e62 d03e e50d f1be
00000140: 1d87 573d 0a1d c4be 482c 133e c884 853e
00000150: e92f a63c d36b 35bf 74f0 26be a6b1 81bf
00000160: f67e 69bd 3ff4 50bf 5996 40bf 9161 8bbf
00000170: c963 f1bc 70aa ca3d 2bfa c3be 0186 22bf
00000180: 5df7 aebf b424 bdbc c2ec 28be cddf 80bf
00000190: 3a5e 923d 2e93 75bf b5f3 613d 9d95 47bd
000001a0: 1dfd 28be 8e00 cfbe cb9a c0bc 8f9f 983e
000001b0: 6812 7abe 10fb ce3d e924 513e fc2c 30bf
000001c0: 1d25 183c ebd9 37bf cd18 a73e 4cb6 14bf
000001d0: 7752 d93d 7c08 85bf fef2 9d3c b9a7 8cbe
000001e0: 4041 8e3d 575f b5bd 570c 7fbd 4335 92bf
000001f0: 4928 a43c 57c1 353e 9df4 203e 132e 6fbf
00000200: 73bb b7be 38bf 2ebd 5830 cabd bb91 d0bf
00000210: d494 2f3e 1952 c4be b83d 06be fa7c 5abe
00000220: 9d58 1bbe a492 b5be 724d 68bd 5d87 a5be
00000230: 69c7 31be cdce 58be 72c0 d53e 0194 dabe
00000240: 8ea0 883e 738f 47bf d084 163e bb6d 033c
00000250: a145 8b3c 1353 86bf 59c6 2a3d da2a 97bf
00000260: ea5c 07bd 0407 d7bd a93c b0bd 565d a4bf
00000270: 7de3 03bd ce61 83bd 3e20 5a3d 1791 87bf
00000280: 876b d9be 79eb 8bbd 90b8 623d 1460 b3bf
00000290: 71e7 1b3e 91c0 f0be 25a9 38be b35f afbc
000002a0: c277 983d 1344 25be 803f 46bb 0a70 2abe
000002b0: da9a f1bc e456 b2bd b62b 983e 56dc 3fbe
000002c0: 9c45 bdbd 7cf2 77bf 6a08 743e 1fd7 2bbe
000002d0: 699a e6bd 45e1 48bf c8f1 193d 53cc 66bf
000002e0: 9a60 bd3c 02d8 48bd b838 52be a75e c2bf
000002f0: c911 4fbe 0fbe e7bd 6a93 a9be 3967 89bf
00000300: 277a aabe 3b57 a6bd d05d 6f3d 5d26 fabd
00000310: 6b80 e6be 7719 a3be 33ab e93d b8d0 6d3c
00000320: c7a3 ac3c 0d9f 6c3e ed08 70be 4bb7 a4bd
00000330: 48b3 fabe f260 81be e4d0 80b9 5013 05be
00000340: e08a c8be 06e6 4fbf 09f7 e33c 3d77 31bf
00000350: 4261 33be 6779 653e aeb9 9e3b 171f 81bf
00000360: 44a7 c8be eb6e 69be 8807 a3bd 9491 08bf
00000370: 06ff 42be 2b47 f6bd 069b 30c0 6814 99be
00000380: f1e7 72be a595 33bd 7b97 e8bd ba44 44bf
00000390: f59a 3dbe f385 4dbe c873 e13d 87d5 21c0
000003a0: b84e 0ebd 77bc 5abe 04e3 2b3e 913b e13e
000003b0: 1f04 c6bd 70d2 f03c 1da8 423d 47c5 62be
000003c0: b3ea 50be 0741 a33e 1200 a73d a148 df3e
000003d0: 3683 153d ad75 9fbe 07f8 aa3d f1fd 30bf
000003e0: 5e3d 663c 6423 393c adec 1cbf 698f 5abf
000003f0: a226 36bc 01f9 e03c cdfa ddbf 9801 4cbf
-0.14845178 -0.072049014 -0.074917436 -1.5171876 0.1853204 -0.8705714 -0.22249682 -0.07324788
0.11198211 -0.37836215 -0.35747567 0.22637501 -0.15182884 -0.09510918 0.2687472 -0.2154959
0.20620503 -1.1845841 0.21428296 0.26623872 0.0024503923 -0.861666 -0.088457696 -1.3821814
0.052929386 -0.27350503 -0.1290878 -1.5679516 0.10353894 0.08972657 -0.03803114 -0.8254225
-0.70644814 -0.20356627 -0.08827079 -0.55391765 -0.04522515 -0.15049188 0.12721907 -0.6924492
0.10231573 -0.20809704 0.36293614 0.4576951 0.15142977 -0.1890633 -0.07508766 -0.27562872
0.007321386 0.43543658 0.3554049 0.4426344 0.08872349 -0.6037642 0.096443444 -1.5001229
-0.20592524 -0.07147077 -0.2544732 -1.0016565 -0.091340266 0.14619936 -0.45832595 -0.8175554
-0.22643334 -0.16395973 0.04090897 -2.306975 -0.055787317 -0.1757756 -0.05158447 -1.9856956
-0.04991771 -0.09083622 -0.39395347 -0.6798626 -0.03318498 0.22388896 0.40700144 -0.47080913
0.05261909 -0.38303405 0.1437236 0.26077867 0.020286517 -0.7086765 -0.16302663 -1.0132339
-0.057005845 -0.8162269 -0.7522941 -1.088915 -0.029466527 0.098957896 -0.382768 -0.63485724
-1.3669239 -0.02308879 -0.16496566 -1.0068299 0.071468785 -0.95927703 0.055164058 -0.048726667
-0.16502805 -0.4043011 -0.023511311 0.29809234 -0.24421084 0.1010648 0.20424236 -0.6881864
0.009286192 -0.7181689 0.3263611 -0.5809066 0.10611432 -1.0393214 0.019280907 -0.27471712
0.06946039 -0.08856075 -0.062267628 -1.1422504 0.02003874 0.17749535 0.15718313 -0.9342968
-0.358852 -0.04266283 -0.09872502 -1.6294473 0.17146617 -0.38343886 -0.13109481 -0.21336737
-0.15170522 -0.3546344 -0.056714483 -0.32329836 -0.17361225 -0.21172638 0.41748387 -0.42691043
0.26684994 -0.7795326 0.14699101 0.008021767 0.017000975 -1.0494102 0.041693065 -1.1809952
-0.033047594 -0.10499385 -0.0860532 -1.2840984 -0.03219937 -0.06415139 0.053253405 -1.0591153
-0.4246485 -0.06832022 0.055351794 -1.4013696 0.15225007 -0.47021917 -0.18033274 -0.021407938
0.07444717 -0.1613925 -0.0030250251 -0.16644302 -0.029492784 -0.08707979 0.2972085 -0.18736395
-0.092417926 -0.96854377 0.23831335 -0.16781281 -0.1125992 -0.78468734 0.037584096 -0.90155524
0.023117352 -0.049034126 -0.20529449 -1.5185136 -0.20221628 -0.11315548 -0.3312028 -1.0734626
-0.3329632 -0.08122107 0.058439076 -0.122143485 -0.4501985 -0.31855366 0.11409607 0.014515094
0.021074189 0.23107548 -0.23440905 -0.08042773 -0.48964906 -0.25269276 -0.00024569698 -0.12995648
-0.39168453 -0.8121036 0.027827756 -0.6932257 -0.1751757 0.22409593 0.004843912 -1.0087613
-0.39190114 -0.22796218 -0.07960421 -0.53347135 -0.19042596 -0.12025293 -2.7594619 -0.2989838
-0.23721291 -0.043843884 -0.113570176 -0.7666737 -0.18516143 -0.20070629 0.11008412 -2.5286577
-0.03474304 -0.21360956 0.16785818 0.43990758 -0.09668755 0.02939722 0.047523607 -0.22145568
-0.2040203 0.3188555 0.0815431 0.436101 0.036502086 -0.31144467 0.08348089 -0.69137484
0.014052717 0.011299942 -0.6129864 -0.85375077 -0.011117609 0.027462484 -1.7342163 -0.7968993

model.4.bias f4 [3125]
00000000: 2495 6c3b e40d f2be 50cc 9e3d f913 2abe
00000010: d148 86bd b5e6 dabd 4dfa 9abe 38fc 15bf
00000020: e672 dfbe 6f0e 9fbe abc1 9f3c f325 a2be
00000030: 9b6f a6bd b543 c8bd 7f56 b6bc 173c 8ebd
00000040: 1288 e0be 79b5 9bbd b814 e2be f8b6 aebe
00000050: b7fa 77be 04a4 ccbe be4e 87bc e3b8 a5be
00000060: cc6c e7bd 2fd7 62bd 8053 74be 2f62 353d
00000070: 00f9 f0bc abfe e1bc c184 a03d 0178 a83a
00000080: f553 e23d 756d 2bbe be2f 52be 813c 64be
00000090: 4aa1 b7bc 64ae aabd f318 08be 4e89 f93b
000000a0: a042 9e3d e46e 73be d25b 05bd ea3f d6bd
000000b0: 86b2 d0bd 1919 143d 7c93 01be 6e53 c9bd
000000c0: a6aa 303e acf3 7a3d 7435 35be dc3b 2dbe
000000d0: d8fc c9bd 3cfc 6cbd 6ea4 1c3c 53ff 48bd
000000e0: e68a 30be 5b61 a4bd b133 83be 80f3 81bd
000000f0: 8670 3fbd e8bd 70be 556b e4bd 1c51 d6bc
00000100: ef3b 9cbd 2b65 d83d 72a7 fd3c 2f95 ca3b
00000110: 6e66 58be d41e 0d3e d702 d13d dfeb 8cbe
00000120: bc49 8d3d 27eb dc3d b500 603c bfd9 16be
00000130: f0c5 9dbe 85df ac3d 053b 4abe 9ddb 00be
00000140: ab05 29be 836a d7be 1878 b3be 0739 91be
00000150: 6ff7 6fbe 8abe fa3c 99c2 29bd 952a 0e3d
00000160: a1d6 91bd 9f79 7e3e 0bc0 1bbe c790 07be
00000170: 0286 eebd 2550 25be d18a 49be e244 e43d
00000180: db6c 49bd 184c d13d dcdd 8dbe 08b9 f0bd
00000190: a731 64be c787 8ebe 1188 3ebe f20f 67be
000001a0: c735 f43b 3bb4 273e a046 39be de9a 50be
000001b0: c072 b83d 4b85 b4bd ab0a e13d 19cb b4bd
000001c0: 87ac 49be 3139 9cbd 015f fcbd 905c de3d
000001d0: 12cd 05be 3048 373e 68cb bcbe be69 6b3d
000001e0: 1c76 d2bd c911 ae3c 1345 dcbd a2b7 1fbe
000001f0: ca86 c33d 8f59 b9bd 5c48 0dbd 6455 663e
00000200: 713e 39be 5d68 2b3e b780 a1bd 0cf2 04be
00000210: 8ea1 a3bd dbe9 a93b 6787 05be 7987 db3d
00000220: eff8 87be 19bf a93d 7344 223e 7425 9fbd
00000230: c4e3 403e 50f5 39bb 87fa 743e 8955 08be
00000240: 4073 01bd b462 643d 858e 03be 80a7 22bc
00000250: d29a 133e 4ced 95bc bf07 0abe 1cb5 57bd
00000260: 3358 d83b 32bd 5cbd 9b1b bb3d 6aa4 41bd
00000270: c37a fabb 48dc ecbc d3e8 adbd 3467 87bc
00000280: faad 903d fe13 35bd a1c9 dc3d 8a09 12be
00000290: fa9b ed3d 61f1 16bd 8f56 0fbe 48e6 df3d
000002a0: e207 60be 55d5 b7bd 791f 893d cd35 e8bd
000002b0: 7f93 073e 6529 0abe e826 70bd 1acc 15be
000002c0: 12ce 5cbe b168 ff3d 0c41 ebbd 68f4 f43c
000002d0: 740e cd3d 295a 04be 6f8e 8ebd 061a 6abd
000002e0: 4968 b3bd 12ce 283d f8fd d8bd 1743 d5bd
000002f0: 8e95 9cbd fb67 17be 6169 cabc 8629 03be
00000300: bf3c df3c e6e6 2bbe 3999 95bd 5e0d 253d
00000310: ff42 a93d e48f 0a3b 56a1 8dbe 776e 603b
00000320: ad24 50bd e100 09be 52a3 3cbe 5fc2 19be
00000330: 4da5 f23c bd8a 07be 1bfd 15bd f53b ecbb
00000340: b6c2 f7bd 9528 1abe 6d27 573d 0954 7cbd
00000350: cfda 20be 1c99 423d 4a68 653d 82e5 dabc
00000360: 6e4c 3cbe fc1a 07be 99d3 de3c a185 873d
00000370: 6544 8ebd 01a0 08be ed7a 313d 4d30 69bd
00000380: 72ed cdbd 6e8b 4bbb 0126 433e c3aa 3fbd
00000390: 6a4b be3c dca2 593d 4ae1 5e3b df4d 32be
000003a0: c9d8 be3b 3aa8 c03c e536 193c b216 0ebe
000003b0: 6027 ccbd 6ca8 1fbe 01d2 36be 5b09 d53d
000003c0: d5e2 b1bd 609d 04be 6739 ce3c e853 4bbe
000003d0: 4ae2 5e3d adbb 363c 57d1 91bd 99bd f7bd
000003e0: 00f4 50be 841a 233d 9118 06be b5ea bfbe
000003f0: 8935 6fbd dd33 18bd e3e2 b93c c78f 023e
0.0036099637 -0.47276223 0.07753813 -0.16609181 -0.065568574 -0.10688535 -0.3026909 -0.5858798
-0.43642348 -0.310657 0.019501528 -0.31669578 -0.08126756 -0.09778539 -0.022258041 -0.06945055
-0.43853813 -0.076029725 -0.44156432 -0.3412397 -0.24216734 -0.39968884 -0.01651704 -0.3236762
-0.11300048 -0.055380996 -0.23859978 0.04428309 -0.029415607 -0.027587255 0.07837821 0.0012853147
0.1105117 -0.16740973 -0.20526025 -0.22288705 -0.022415776 -0.083340436 -0.13290767 0.007615245
0.077275515 -0.2377277 -0.03255827 -0.104614094 -0.10190301 0.036156747 -0.12653917 -0.09830366
0.17252597 0.06126754 -0.17696172 -0.16917366 -0.09862679 -0.057857737 0.0095606875 -0.04907162
-0.17240486 -0.080263816 -0.25625375 -0.06345272 -0.04673817 -0.23509943 -0.111532845 -0.026161723
-0.07628619 0.10566171 0.030963633 0.006182335 -0.21132824 0.13781291 0.1020562 -0.27523705
0.06898829 0.10787039 0.013672044 -0.14731501 -0.30815077 0.084410705 -0.19749077 -0.12583776
-0.16506068 -0.4207345 -0.35052562 -0.2836382 -0.23434232 0.030608434 -0.04144535 0.03470858
-0.07121015 0.24851082 -0.15209977 -0.13238822 -0.11646654 -0.16143854 -0.1968186 0.11145951
-0.04917608 0.10219592 -0.27708328 -0.11754042 -0.22284566 -0.27837965 -0.18606593 -0.22564676
0.0074527 0.16377346 -0.18093348 -0.20371577 0.09006262 -0.08814486 0.10988363 -0.088278
-0.1969472 -0.07628096 -0.12322808 0.10857499 -0.1306651 0.17898631 -0.36873937 0.05747389
-0.10276434 0.021248715 -0.10755362 -0.15597394 0.09547193 -0.09050285 -0.034492835 0.22493511
-0.18090226 0.1673903 -0.078858785 -0.12982959 -0.079897985 0.0051853484 -0.13039933 0.10719199
-0.2655711 0.08288402 0.15846424 -0.077708155 0.18836886 -0.0028374977 0.23923694 -0.13313879
-0.03160405 0.055758193 -0.12847336 -0.00992763 0.14414528 -0.018301629 -0.13479517 -0.052662954
0.006602311 -0.05389137 0.09136125 -0.047275938 -0.007644029 -0.028913632 -0.08491673 -0.016528703
0.070644334 -0.04420852 0.10780645 -0.14261451 0.11602016 -0.03685129 -0.13997863 0.109325945
-0.21878007 -0.08976237 0.06695456 -0.11338387 0.13239859 -0.13492353 -0.058630854 -0.1462864
-0.21562985 0.1247114 -0.11487016 0.029901698 0.10012522 -0.12925018 -0.06960761 -0.057153724
-0.08760125 0.04121215 -0.10595316 -0.10413187 -0.07645713 -0.14785759 -0.024708452 -0.12808809
0.027250646 -0.167873 -0.073046155 0.04029595 0.082647316 0.0021142894 -0.27662152 0.003424553
-0.050816227 -0.13379242 -0.18421677 -0.15015553 0.029619837 -0.13236518 -0.036618333 -0.007209296
-0.12097685 -0.15054543 0.052527834 -0.06160358 -0.15708469 0.047509298 0.05600766 -0.026720766
-0.1838853 -0.13193887 0.027200507 0.066172846 -0.06946639 -0.13342287 0.04333012 -0.05693083
-0.10055055 -0.0031058448 0.19057466 -0.04679371 0.02322932 0.05313383 0.0034008794 -0.17412518
0.0058241826 0.023517717 0.009351467 -0.13875845 -0.09968448 -0.15591592 -0.17853548 0.10402175
-0.08685843 -0.12950659 0.025173856 -0.19856226 0.054415025 0.011153144 -0.071200065 -0.1209671
-0.20405579 0.03982021 -0.13095309 -0.37483755 -0.058400664 -0.037158836 0.022691196 0.12750159
