models/empowerment_5_steps/RoomPlus2Corrid-v0_source_distr.pth (torch_old, 422266 bytes, 6 tensors)

model.0.weight f4 [32, 33]
000000 27 e7 30 be 51 de 14 be e0 46 62 be 97 8f b9 bd
       -0.17275678 -0.14537932 -0.22097349 -0.09060591
000010 7a fd a1 be 51 0f 97 be 71 35 95 3d 89 89 9a bc
       -0.316387 -0.29503873 0.07285584 -0.01886441
000020 da 10 2b 3d 51 fb 12 3f 16 53 99 be 09 30 a6 be
       0.041764118 0.5741473 -0.29946202 -0.32458523
000030 25 b2 a7 bd cc 69 9e be 23 36 98 be 74 9c ef 3e
       -0.08188275 -0.30940092 -0.29728803 0.46799052
000040 fb 79 12 3f 1e 8c 45 3e a9 7a d5 bd c5 1b b0 bd
       0.5721738 0.19291732 -0.10423786 -0.085990466
000050 37 90 a2 3f a2 55 98 be a7 b9 96 be 21 d0 4c 3e
       1.2700261 -0.29752833 -0.29438516 0.2000127
000060 62 06 28 3e 6e 8e 3a 3e 6c 1b d7 bd 86 f1 96 be
       0.16408685 0.18218395 -0.10503277 -0.29481143
000070 f9 30 9b be a9 9b 9c 3e b8 f3 ca bd 53 97 96 be
       -0.303108 0.3058751 -0.09909767 -0.29412326
000080 e4 c8 98 be 14 4d 53 3c f4 28 4a be c1 48 49 be
       -0.29840767 0.012896795 -0.19742185 -0.1965666
000090 e5 a3 4a be ea 4f 57 be d4 b6 33 be 14 35 5b be
       -0.19789083 -0.21026579 -0.17550212 -0.21406966
0000a0 04 86 46 3f c7 99 bc 3e 37 26 4b be 90 0a ae 3b
       0.7754824 0.36836073 -0.19838797 0.0053113177
0000b0 04 2d 64 be 88 ef 3c be 3d 2e 48 be 0a 22 80 3d
       -0.22282797 -0.18450749 -0.19548889 0.062564924
0000c0 07 b2 4f be 91 42 59 3e 84 bb 16 bd 0c a9 f3 bd
       -0.20282756 0.212168 -0.036799923 -0.118974775
0000d0 ea 6e 48 be 48 1d 5b be 2a 5b 4e be 03 dc 85 3c
       -0.1957356 -0.21397889 -0.20151964 0.016340261
0000e0 83 59 cd bc 34 52 5c be 72 a5 5f be 40 64 3e be
       -0.025067097 -0.21515733 -0.21840456 -0.1859293
0000f0 c5 c0 17 3f f7 b9 46 be 06 63 e7 bc 04 b7 e5 3e
       0.5927852 -0.19406877 -0.02824546 0.44866192
000100 20 b1 ff 3e 3b e1 13 3f f3 90 56 be 09 5f 9e 3d
       0.49939823 0.5776555 -0.20953731 0.0773297
000110 b3 3e b9 3e 04 c1 8b bd 87 2a b7 be 75 b7 b6 be
       0.36180648 -0.06823924 -0.35774633 -0.35686842
000120 3d d6 b6 be 29 94 60 be 53 6d 97 3d 30 95 1c 3e
       -0.35710326 -0.21931519 0.07393899 0.15291286
000130 bd 8b 54 3e 38 8e 29 3e 58 61 b7 be 3f 60 b8 be
       0.20756431 0.16558158 -0.35816455 -0.3601093
000140 77 7a ab bc 37 52 65 3e 34 ae 4b be 65 5d c4 be
       -0.02093242 0.22394644 -0.19890672 -0.38352504
000150 94 87 b9 be 0f 77 c3 be cf ab 8b 3d 13 4b 4b be
       -0.3623625 -0.38176772 0.06819879 -0.19852857
000160 6c 5a fb 3c 7c f3 71 3e a5 9e 0a bd 56 71 fb bd
       0.030682765 0.23628038 -0.0338427 -0.122774765
000170 3b 66 b7 be d8 ae cd 3e c5 74 53 3f 37 1d 1d 3f
       -0.35820183 0.40172458 0.8260005 0.61372703
000180 e9 84 27 3e 3d 20 5b bb 13 b1 6c be 43 62 8a be
       0.16359295 -0.0033435964 -0.23114423 -0.27028093
000190 f7 cd 7c bd 92 16 bf 3e 61 1a cb 3e da 11 d4 bc
       -0.06171986 0.37321907 0.39668563 -0.025887419
0001a0 78 1e c0 bc 72 ad 3b bd fe 2d 1f 3f 90 57 08 bd
       -0.023452029 -0.045819707 0.62179554 -0.03328663
0001b0 28 74 93 be 7f 1b 26 be 51 56 34 3e ef da d8 3e
       -0.28799558 -0.16221426 0.17611052 0.42354533
0001c0 01 38 21 3e 8a bd ef 3c 16 77 61 bd 9e c8 84 bd
       0.1574402 0.029265184 -0.05504521 -0.06483577
0001d0 59 17 c9 bd 26 02 93 bd 0a 83 80 be 5e 81 88 be
       -0.09818906 -0.07178144 -0.25099975 -0.266612
0001e0 fc 86 8c be 16 5f 14 3f 9b 58 77 be dd 04 85 be
       -0.27446735 0.5795759 -0.24154894 -0.25980273
0001f0 2f c0 35 3d 09 3e 8c be a9 36 92 3d ee c5 42 3e
       0.044372734 -0.2739108 0.07139332 0.19020817
000200 95 30 82 3c be 83 83 be 36 4c 02 be 46 b0 f1 bd
       0.015892306 -0.2568645 -0.12724385 -0.118011996
000210 2a fa e8 3e 99 1c 12 be 7d e9 08 be 22 85 f2 bd
       0.4550336 -0.14268722 -0.13370319 -0.11841799
000220 e8 e4 13 be c5 99 c2 3d f4 5a 1d 3f 89 39 0b be
       -0.1444279 0.095019855 0.6146691 -0.13596167
000230 22 ec 24 3f 7f ab 0f be c2 cb 0a be 85 02 c7 bd
       0.6442281 -0.14030264 -0.1355429 -0.097172774
000240 41 ab 14 be 31 3b 02 be c4 3f 20 be b2 e5 fc bd
       -0.14518453 -0.12717892 -0.15649325 -0.123484984
000250 c6 02 0c be c1 8d 43 bc 42 8b 22 be d7 4f fe bd
       -0.13672933 -0.011935652 -0.15873435 -0.12417572
000260 10 57 2e 3f 5b 55 98 3d bc 55 f8 bd d9 fd 11 3e
       0.68101597 0.07438155 -0.121257275 0.14256991
000270 5f 3c 1e 3c e8 d7 dd 3c f4 19 b9 3d 5f e0 81 3f
       0.009657948 0.027080491 0.09038153 1.0146598
000280 dd f6 ed bd 97 97 1e be c8 05 fa bd d0 67 02 be
       -0.11619351 -0.15487514 -0.12208134 -0.12734914
000290 c7 cd c3 3d 80 63 58 3d 25 0e ba 3c d2 ef 59 be
       0.09560733 0.052829266 0.022711823 -0.2128289
0002a0 1b d5 a7 3d 8b 94 2f be f0 86 58 be 3e c9 f3 bc
       0.081949435 -0.17146508 -0.21145225 -0.029759046
0002b0 87 ee 0a 3e 9b a3 cf bd c2 95 c4 3e 90 0f db 3e
       0.13567553 -0.10138627 0.38395506 0.4278531
0002c0 08 75 4f be 94 bf f8 3e 54 6a b3 3e 65 0f 4c be
       -0.20259488 0.48583663 0.3504206 -0.19927748
0002d0 3a 4a 9f 3e 82 76 8b 3e e6 40 49 3e 9d fd 40 be
       0.31111318 0.27238852 0.19653663 -0.18846746
0002e0 50 21 25 3d f7 e6 40 be a6 e0 41 be f1 b3 46 3e
       0.040314972 -0.18838106 -0.18933353 0.1940458
0002f0 4d 41 43 be 04 82 93 3d 25 30 3d be ac 04 47 be
       -0.19067879 0.07202533 -0.18475397 -0.19435376
000300 f2 c3 42 be 0e 52 45 3e c8 2e 42 be 9c a7 55 be
       -0.1902006 0.19269583 -0.18963158 -0.20864719
000310 f4 8a 52 be 36 d8 3c be 00 7f 44 be ed d8 44 be
       -0.20560819 -0.18441853 -0.19189072 -0.19223376
000320 61 e7 04 3f 9d 92 50 be 41 f0 47 be 81 ab 44 be
       0.51915556 -0.20368429 -0.19525243 -0.19206049
000330 da 60 f7 bc d0 a2 57 be 80 4d 4c be b8 10 b2 bc
       -0.03019755 -0.21058202 -0.19951439 -0.021736488
000340 e3 66 27 be c2 d2 44 be 56 25 80 3e a4 3b 22 3e
       -0.16347842 -0.19221023 0.25028485 0.15843064
000350 fb 21 af bd 37 3a 4f be 00 ec 3c be 29 41 49 be
       -0.08551403 -0.20237051 -0.18449402 -0.19653763
000360 a5 88 d2 bb 84 3f a1 3d 61 45 8e 3e 21 89 6e 3f
       -0.0064249807 0.07873443 0.27787307 0.9317799
000370 09 91 c9 3d d0 52 43 be 0b d7 50 3e 7b 93 53 be
       0.098421164 -0.19074559 0.20394532 -0.20661728
000380 6c cf 57 be 86 70 60 be 59 4f 45 be 59 dd 4c be
       -0.21075219 -0.21917924 -0.1926855 -0.20006312
000390 d9 9d 43 be 42 26 77 bd f5 27 ae bd 99 84 a5 3e
       -0.19103183 -0.06033922 -0.08503715 0.32327726
0003a0 4c c7 24 be af b1 a7 be 22 e5 a0 be 08 5b a5 be
       -0.1609165 -0.3275275 -0.31424814 -0.32296014
0003b0 ca a1 a0 be 64 a2 a5 3e 92 a1 be 3e 65 41 23 3f
       -0.31373435 0.32350457 0.37232643 0.6377166
0003c0 4e 40 e2 3e d1 15 08 3d d1 85 3a bd 46 a0 1a 3e
       0.44189686 0.03322393 -0.045537774 0.15100202
0003d0 14 32 1c 3e 60 38 fb 3e 43 6c 99 bd fa 4f c2 3d
       0.15253478 0.49066448 -0.074913524 0.094879106
0003e0 61 51 9a 3c 03 10 db 3c 2a 2f 51 be b6 fb 97 be
       0.018837633 0.026741033 -0.20428148 -0.29684228
0003f0 fe 9d 8e 3d f7 ef 9a be d0 70 92 bb b1 37 f3 3c
       0.06963728 -0.30261204 -0.0044690147 0.029689642

model.0.bias f4 [32]
000000 67 61 8b 3e 2a d0 1a 3e 68 ef a5 3e 38 dd 4b 3e
       0.2722275 0.15118471 0.32409215 0.19908607
000010 82 d6 71 3d d0 72 1b 3e f7 57 06 3e e1 f7 85 3e
       0.05904246 0.15180516 0.13119493 0.2616568
000020 de 81 7c 3e b4 d0 4a 3e 05 21 50 3e 25 62 39 3e
       0.24658915 0.19806176 0.20325096 0.18103845
000030 75 3b 9c 3e d7 1b 4e 3e 72 24 7d 3e 1a d4 a6 3e
       0.30514112 0.20127808 0.24720934 0.32583696
000040 5b d5 b3 3e 9c 2c 88 3e 28 c3 6e 3e 1d f4 29 3e
       0.35123715 0.26596534 0.23316634 0.16597028
000050 f4 b1 28 be 23 93 91 3e 95 cf 50 3e 60 dd 1a 3e
       -0.16474134 0.2843257 0.20391686 0.1512351
000060 c2 6e e2 3d 25 71 44 3e 6c 1a 15 3e 60 59 1b 3e
       0.110562816 0.19183786 0.1456086 0.15170813
000070 90 e1 66 3e 29 67 b5 3e 90 a3 3e 3e cb 8e 52 3e
       0.22546983 0.35430267 0.18617082 0.20562284

model.2.weight f4 [32, 32]
000000 82 74 f2 be 3d 4b a4 3e f5 72 f9 bd 7d b5 1f 3e
       -0.47354513 0.32088652 -0.121801294 0.15596576
000010 1b 5c 80 3e d6 95 79 3e 53 5f 41 be 48 c6 cf 3e
       0.2507027 0.24373564 -0.1888402 0.40580964
000020 d4 07 38 3e 58 d2 27 3e 8e 78 b6 3e f0 2f 81 be
       0.17971736 0.16388834 0.3563885 -0.25231886
000030 36 4c 7b bf be 56 52 be 46 6f eb 3e c5 2d 77 3c
       -0.98163164 -0.20540902 0.45983332 0.015086596
000040 aa b2 43 be 26 83 a7 be 0c ee 11 3f 0d ab dd be
       -0.19111124 -0.32717246 0.57003856 -0.43294564
000050 03 3c d3 bd ba 36 7e 3e 1a 99 3d be 66 db a0 bd
       -0.10314181 0.24825564 -0.18515435 -0.07854347
000060 89 46 44 be 4c c6 a1 3e 42 7a df bd cf aa e3 3e
       -0.19167532 0.315966 -0.10911991 0.44466254
000070 fd 4d 85 be 3a 80 12 3d f5 22 e8 3d 45 1e 69 3d
       -0.26036063 0.035766818 0.113347925 0.056913633
000080 f6 a5 3f bd 39 ef a8 bc 18 78 e1 bc a9 69 95 3d
       -0.046789132 -0.020621883 -0.027523085 0.07295544
000090 e1 69 33 bd f2 02 f1 3d 33 4a 07 3d 3e f7 4d be
       -0.043802146 0.1176814 0.033029746 -0.20113847
0000a0 d3 0e f3 bc 6f 00 2a bd 55 24 a5 3d 68 20 fc bc
       -0.029670155 -0.04150432 0.080635704 -0.030777171
0000b0 f2 f2 3d be 4e bc 15 bd cd ec 4f be f4 d8 39 be
       -0.18549708 -0.036556534 -0.20305176 -0.18149167
0000c0 fc 5f 6b 3d d5 c8 f6 bd a5 bc f5 bb 01 34 8f bd
       0.057464585 -0.120500244 -0.007499295 -0.06992341
0000d0 fc e3 38 3d fb cb a6 bd f9 d0 65 bd 40 9f c5 3d
       0.045139298 -0.08144375 -0.056107495 0.09649515
0000e0 b5 9d 06 3d a3 e4 a0 3d a2 43 8d 3d 2c 3a e8 bd
       0.032865245 0.07856109 0.068976656 -0.113392204
0000f0 6c f7 e6 bb 1c 58 67 bd b5 90 e5 bc 85 f0 59 3d
       -0.007048538 -0.056480512 -0.028023103 0.053207893
000100 e9 5f 05 be 05 a1 d3 bd d4 a6 af be aa 47 6c be
       -0.13024868 -0.103334464 -0.34306967 -0.23074213
000110 ac a9 32 3e 1c ba 9f 3d a4 d0 15 3f 4d 3c 9a 3e
       0.17447537 0.077991694 0.58521485 0.3012413
000120 9c 39 b2 be 1c 10 ab 3e 15 08 43 be 8c 69 ac 3d
       -0.34809577 0.33410728 -0.19046052 0.08418569
000130 fa 29 03 bc 6d dc 1a be 6a c9 fc 3d c3 f4 80 3e
       -0.008005613 -0.15123148 0.12343104 0.25186738
000140 32 bc ba 3b c9 42 98 be fa 96 53 3e 5d 8b c7 bd
       0.005698704 -0.29738453 0.20663062 -0.09743378
000150 23 4e bd bd 5c 19 81 3e 55 b0 86 3e 88 de b8 be
       -0.09243419 0.2521466 0.26306406 -0.36107278
000160 66 af c0 be 8b d2 a8 3e 40 31 9e 3e 9d 49 34 3f
       -0.37633818 0.32973132 0.3089695 0.70424825
000170 65 c4 27 3e 53 61 76 3d b8 c0 5d 3c 34 f0 d2 3d
       0.16383512 0.06015141 0.013534717 0.10299721
000180 44 df 39 be c6 c9 0b 3f 88 69 28 be e8 07 ab be
       -0.18151575 0.54604757 -0.16446507 -0.3340447
000190 03 15 57 3e e9 ab c0 bc 42 d3 32 be 17 f4 9d 3e
       0.21004109 -0.023519473 -0.17463401 0.30850288
0001a0 80 54 8f 3e 89 75 08 be 15 01 46 3e 0a 5d 31 3e
       0.27994156 -0.13326086 0.1933635 0.17320648
0001b0 a1 22 4b be 12 c4 89 3d 9f fa 8e 3e 03 60 f1 bd
       -0.19837429 0.067268506 0.27925584 -0.11785891
0001c0 f7 2b 26 3e 03 51 25 bd 44 80 f7 be 3a 55 20 be
       0.16227709 -0.040360462 -0.48340046 -0.15657511
0001d0 ee 8a ff 3d a9 08 cf be 86 10 7c be 84 0c 89 3e
       0.124776706 -0.40436295 -0.24615678 0.2676736
0001e0 e8 b6 1c be 4c 1f bc 3d 8f a1 d9 3e e9 4a 1d bd
       -0.15304148 0.09185657 0.42506072 -0.038401518
0001f0 01 11 a7 bd 4c aa 0f 3f 57 38 a7 be 3a 6d ad be
       -0.0815754 0.5611923 -0.3266017 -0.33872396
000200 c4 07 f5 bc c8 cb c5 bd 54 74 62 bd 57 1f 1c 3e
       -0.02991093 -0.09658009 -0.05528672 0.1524633
000210 58 fa eb bd 4a 19 33 be 35 ac 6b bc f3 61 fd bc
       -0.11522359 -0.17490116 -0.014384319 -0.030930495
000220 ae e6 dd bd 28 9f 9d bd bc 11 aa bb aa 89 ae 3d
       -0.10835014 -0.07696372 -0.0051901024 0.08522351
000230 f8 14 87 bd fd bf 8e 3a 7b f8 db 3d f6 54 1b 3d
       -0.06595796 0.0010890957 0.10740753 0.037922822
000240 e5 1a 6e 3d 3b 1d 3a be a7 da fc bd 6c 72 fe bd
       0.058131117 -0.18175213 -0.12346392 -0.12424168
000250 90 4b 88 3d ca a6 b9 bd 85 73 81 3d 66 61 41 be
       0.066550374 -0.090650156 0.06320862 -0.18884811
000260 7f 0d e4 bd 94 27 ee bd 94 ec 88 3d 18 fd b4 3d
       -0.11135387 -0.11628643 0.06685749 0.08837336
000270 1c f3 0c 3c 5d b6 55 be 98 db e1 3d 18 aa 20 be
       0.008602884 -0.20870347 0.11028212 -0.15689886
000280 cc b0 d1 be 03 32 64 3d 8a 64 bd bc 7e b5 f2 bc
       -0.40955198 0.055711757 -0.02311923 -0.029627558
000290 60 ce 0d bf 5f f8 e8 3c 30 b8 85 3e 1f df 91 3e
       -0.5539303 0.028438745 0.26117086 0.2849054
0002a0 52 6d 28 3e 48 d7 ca 3e 26 4c 7b 3d c2 11 8f bf
       0.16447952 0.39617372 0.061351918 -1.1177294
0002b0 4c a0 6b be 17 d7 80 3e 9b 25 46 bd 8c b3 ef 3e
       -0.23010367 0.251641 -0.048375707 0.4681667
0002c0 60 33 f5 bd fa c8 86 3d 0b 63 8d 3e 28 9c 61 3e
       -0.1197269 0.06581302 0.27614626 0.22032225
0002d0 80 14 2f be a6 66 01 bf 9f 86 9f 3c ce 11 ec 3e
       -0.17097664 -0.50547254 0.019473372 0.46107334
0002e0 0f 22 24 3e c0 9c 9d 3e 74 ea 98 be c6 c3 b9 ba
       0.16028617 0.30783653 -0.29866374 -0.0014172725
0002f0 47 72 8f 3e 15 71 40 3e 29 76 69 be b4 81 62 3e
       0.28016874 0.18793137 -0.22798981 0.2211979
000300 a9 1c 85 3e 32 1d 0d be 03 d3 92 3e 12 85 68 be
       0.25998428 -0.13780668 0.28676614 -0.22707012
000310 e2 79 af 3d 3e 88 90 be a6 fa 19 3f 98 9c 5a be
       0.08568169 -0.28228945 0.60148084 -0.21348798
000320 97 8e ee 3e a8 42 62 be 09 c2 7a be 7f 49 8c 3d
       0.46593162 -0.2209574 -0.24488081 0.06849956
000330 0a af f5 3e b4 1a 4d be b2 6f b6 bd e4 14 3a bf
       0.47985107 -0.20029718 -0.08908023 -0.72688127
000340 25 c6 9d 3d 82 38 b6 3d f4 6c b2 3e 93 3a 94 3d
       0.07703809 0.08897497 0.3484875 0.07237735
000350 9f be d0 bd 02 44 58 3e ea 6a 86 3d b2 13 34 bd
       -0.10192608 0.21119693 0.06563361 -0.043964095
000360 d8 5a 07 bf 13 4c d5 3e 1d 74 f2 3d 7d d8 7c be
       -0.5287299 0.41659603 0.11838553 -0.24691959
000370 87 ee d6 bd 53 a2 d2 be 49 30 29 be 62 a4 1e be
       -0.10494714 -0.4113947 -0.16522326 -0.15492395
000380 84 97 3b 3d 6e a0 ca bd 3c 7e 39 bd 5e 4c 22 be
       0.045798793 -0.09893881 -0.045286402 -0.15849444
000390 37 63 09 be 24 ad 34 bd 80 85 b9 bc e1 cb 9f 3d
       -0.13416754 -0.044110432 -0.022646666 0.07802559
0003a0 56 91 b3 3d 04 79 27 be 78 fb a2 3c 90 e9 92 3d
       0.08767955 -0.16354758 0.0198953 0.07173455
0003b0 45 0c a6 3c 64 04 da 3d 9b bb ff bd 76 ae 3a bd
       0.020269522 0.10645369 -0.12486955 -0.045576535
0003c0 a2 b3 27 be 07 c5 d1 3c e7 a4 7b bc f5 48 28 3e
       -0.16377118 0.025606645 -0.01535914 0.16434081
0003d0 40 a1 11 bd aa 48 1a be af 09 98 3b f2 32 3c be
       -0.03555417 -0.15066782 0.0046398262 -0.18378809
0003e0 28 90 03 3e 5c 6c 6a 3c 0b 51 1b be 0f 70 f2 3d
       0.1284796 0.014308061 -0.15167634 0.1183778
0003f0 6d f1 15 be 1f b3 13 bd b7 6a c2 3c 8c 0e ff 3d
       -0.14642878 -0.036059495 0.023732526 0.124539465

model.2.bias f4 [32]
000000 82 ce c1 bc b1 b2 c9 bd cf e7 c6 bd 32 4e a7 3c
       -0.02365804 -0.09848536 -0.09712183 0.020423029
000010 56 83 de bd 58 8f 5d bd 75 58 77 3e 8f c6 25 be
       -0.10864894 -0.05409178 0.24154837 -0.16189025
000020 67 1a db bc 32 e0 6d 3e c9 76 da 3c d2 15 a2 bc
       -0.026745988 0.23230055 0.02666797 -0.019785795
000030 8c 7a 6c 3e 40 d5 8d 3e 53 56 7d bd 1b 23 24 3d
       0.23093623 0.2770176 -0.061849903 0.04007254
000040 8e 8b 1c 3e 91 8c 5a bd 4b cd f8 3d 5a 18 ec bd
       0.15287611 -0.05335671 0.121485315 -0.11528082
000050 01 49 59 be 9a cd 09 3e 9c 3a 7a be c0 7f cd bd
       -0.21219255 0.13457337 -0.2443642 -0.10034132
000060 bb 7c 0f 3d ec f6 ac bd 2e da 2e 3d b4 66 9e 3e
       0.03503106 -0.08445534 0.04268854 0.3093773
000070 07 b8 7d 3d 22 12 57 be b9 a3 b6 bd e0 aa 01 3e
       0.06194308 -0.21003011 -0.08917946 0.1266284

model.4.weight f4 [3125, 32]
000000 d8 d5 12 be 55 e6 f4 bd cb 94 1d bf f1 b6 d4 3e
       -0.14339387 -0.11957995 -0.61555165 0.41545823
000010 a3 09 22 be a7 fb 11 3e a1 15 1e 3e 35 17 34 be
       -0.15823989 0.14256154 0.15437938 -0.17586978
000020 51 75 8b 3d f6 f9 14 bf 3c a0 8a 3e 34 9f 1f bf
       0.06809486 -0.5819391 0.27075374 -0.623523
000030 d9 b0 16 3c a2 e0 9d 3e 6a 91 7f 3e 9b 45 0b bd
       0.009197437 0.30835444 0.24957815 -0.034001928
000040 0e b1 dd 3e f3 76 dc 3e 30 97 ac 3e 08 a4 62 bd
       0.43299145 0.430595 0.33709097 -0.055332214
000050 8f 86 61 bc a4 63 20 3f 83 12 f1 3d 2d d7 e6 3d
       -0.013764991 0.6265204 0.11771109 0.1127151
000060 eb 6c 46 3e 69 f5 10 3e fb f4 0a 3e a6 b6 3f be
       0.19377486 0.14156117 0.13570015 -0.18722019
000070 37 99 e7 3e e8 44 d9 bd 38 8f 37 3e 5e 92 06 be
       0.4523408 -0.10608846 0.17925727 -0.13141772
000080 1d 9e 6e 3e 7d 86 6f bc 8a 70 82 be 66 ef a2 3e
       0.23302503 -0.014619467 -0.25476485 0.31823272
000090 06 e4 36 bd d1 cf f5 bd 7e c0 fa 3d 44 dd 80 bc
       -0.044651054 -0.120025285 0.12243746 -0.015730508
0000a0 84 40 05 be d8 36 c0 be 31 36 31 be 13 86 ff be
       -0.13012892 -0.37541842 -0.17305829 -0.49906978
0000b0 d4 50 de be 29 8b 00 bd 3e 1c 09 3e 4e 3f 01 3d
       -0.43421042 -0.031382713 0.1338968 0.031554513
0000c0 6c 39 d0 3e 12 9d 9c 3d 2d 1a a2 bc 4a 7b 14 be
       0.4066881 0.07647146 -0.019787872 -0.14500156
0000d0 79 46 53 be 60 55 08 be ea de f7 3c c6 60 5e be
       -0.20632352 -0.13313818 0.03025766 -0.21716604
0000e0 61 e4 95 3d 7b 91 de bd 5c 89 23 bb d4 10 87 3d
       0.073189504 -0.10867592 -0.0024953699 0.065950066
0000f0 44 ff 0b 3d 7d 1e bb bd 66 94 04 be 5b b5 0f 3d
       0.034178987 -0.091366746 -0.12947235 0.035085063
000100 7e ff 96 be d5 c6 6c 3c 08 35 da be a2 7e 4d 3e
       -0.294918 0.014451702 -0.42618585 0.20067838
000110 aa 0d 05 be 27 a7 83 3d cb e6 03 bd 17 ed be bd
       -0.12993494 0.06428366 -0.032202523 -0.09322565
000120 f2 59 69 bd 79 6d 25 bf 32 d0 23 3d 1c 55 17 be
       -0.056970544 -0.64620167 0.039993472 -0.1477856
000130 82 ca 18 be 7d 5c a2 3d 79 0a 79 3e d6 76 81 3e
       -0.14921 0.07927797 0.24320401 0.25285977
000140 7e e6 d3 3e de 42 0c 3f f1 35 9d 3d 9a 25 a5 3d
       0.4138679 0.5478953 0.07676304 0.080638126
000150 58 b9 a8 be 04 6c fe 3e 36 6b dd 3d c8 5a 30 3e
       -0.32953906 0.49691784 0.108114645 0.1722213
000160 39 25 0c 3d 6f 69 e5 bd 33 62 c8 3c ba ad 80 bd
       0.034215186 -0.112017505 0.024460888 -0.06283136
000170 c8 26 38 3e c0 a4 90 bd 90 91 eb 3e 37 5f 2b 3d
       0.17983544 -0.070626736 0.46009493 0.04183885
000180 d7 a3 7c be 6b e1 44 3e dd ef ec be 5d 27 a6 3e
       -0.24671875 0.19226615 -0.4627675 0.32451907
000190 e6 02 46 bd 87 b0 8f 3d 2b aa a5 3d 95 64 12 bd
       -0.048342608 0.07016092 0.080890976 -0.035740454
0001a0 a6 6c f4 3d 2e 7f ac be 94 35 0c 3e 09 d6 89 be
       0.119347855 -0.3369078 0.13692313 -0.26921108
0001b0 b1 ab 07 3e 12 7a af bd 4b 3f da bd a3 a3 be bd
       0.13249089 -0.08568205 -0.106566034 -0.09308555
0001c0 2f fa 1f 3f f8 88 0a 3e ba 85 52 3e 32 59 b6 3d
       0.62491125 0.13528812 0.20558825 0.089037314
0001d0 7b 80 41 be 90 06 11 3f 3c 23 de bd 13 a4 99 3d
       -0.18896668 0.5665064 -0.10846564 0.07501998
0001e0 26 90 05 be af 3b 63 3d bc d6 7a bd 27 bb 3d 3c
       -0.1304327 0.05547684 -0.061239943 0.011580265
0001f0 f0 be aa 3e 30 4b 64 be 74 7a c0 3d a4 1c 05 be
       0.333488 -0.22294307 0.09398356 -0.12999207
000200 f4 f6 a6 bd 54 6e a1 3d 17 48 c7 be ab 41 84 3e
       -0.08152571 0.078823715 -0.38922188 0.2583135
000210 2f f3 29 3e cb f7 5e 3e dc 4c 0e 3e 57 ee fa bd
       0.16596673 0.21774213 0.13896507 -0.12252491
000220 d2 a6 1e 3e 54 55 38 bf 66 04 e6 3d 13 54 05 bf
       0.15493324 -0.720052 0.11231308 -0.5208141
000230 ea 89 7f bd 4d c6 6f 3e e8 95 59 3e b4 39 1a 3d
       -0.062387384 0.2341549 0.21248591 0.037652686
000240 e6 75 f1 3e 17 4d 87 3e 6b 7f 65 3e d6 5e cc 3d
       0.47160262 0.26426002 0.22411887 0.09979026
000250 a4 3a 0f be 77 65 c3 3e 10 84 19 be 87 11 ba 3e
       -0.13987213 0.3816335 -0.14991784 0.36341497
000260 59 f6 33 3e 6f 1a 26 3d ba 1c 0f 3e 98 6e ac bd
       0.17574443 0.040552553 0.13975802 -0.084195316
000270 0c 0f 32 3e bb d2 bb 3d dd de 5f bb b7 e1 ba 3d
       0.17388552 0.09171053 -0.0034159936 0.09125083
000280 ff 4f 70 3d 1d e3 9f bd 24 9b 77 be 8e 90 bb 3e
       0.05867004 -0.0780699 -0.24180275 0.36633724
000290 38 df 8d bc 28 5b 30 3e 78 31 96 3d f1 3b 88 3c
       -0.017318353 0.17222273 0.07333654 0.016630145
0002a0 b8 1c 4e 3e bb 34 0f bf 99 d0 5b 3e 35 8a e1 be
       0.20128143 -0.55939835 0.21466292 -0.44050756
0002b0 48 09 26 be 7e d1 6a 3d fe 9c 28 3e e7 9d ce bd
       -0.16214478 0.057328694 0.16466138 -0.10088711
0002c0 0d 4c 05 3f 29 17 db 3d 32 b7 e3 3d a9 f1 cd bd
       0.5206917 0.10697777 0.11118926 -0.10055859
0002d0 9e ff 8f 3d 65 61 e9 3e 75 ef 92 3b f0 1c 88 3d
       0.07031177 0.4558212 0.004484112 0.066461444
0002e0 a5 2b 26 3d 2d 81 a1 3d c6 a5 3f be 5f 6b b1 bc
       0.040568966 0.078859664 -0.18715581 -0.021657644
0002f0 47 77 99 3e 49 29 07 be f4 70 07 3e 72 98 ba 3c
       0.29973814 -0.13199343 0.13226682 0.02277777
000300 6d c6 21 bf 49 52 50 be 01 f1 95 3e ac 15 11 be
       -0.631934 -0.2034389 0.29285434 -0.14168423
000310 68 7b 5c bd 8f be 8b be ca 4e c8 3e 82 1d 2d be
       -0.053828627 -0.27293822 0.3912261 -0.16905788
000320 14 57 9f 3c 7e 34 16 3f a2 4e c7 3e ec c4 d6 3d
       0.019450702 0.58673847 0.3892718 0.104867786
000330 56 70 f6 be af 52 08 3e 1c fe de 3e c3 48 83 be
       -0.4813258 0.13312791 0.43553245 -0.2564145
000340 fb ed 52 bf 91 a6 b2 bd 34 c6 03 bd f9 4f da bd
       -0.8239438 -0.08723176 -0.032171443 -0.10659785
000350 5f 33 f0 3d 9f b0 83 3d 10 c2 26 3d 82 e3 42 bc
       0.11728548 0.06430172 0.040712416 -0.011895062
000360 61 93 24 bf 80 e9 b4 be 6e e7 9e be c8 88 e5 bc
       -0.6428738 -0.35334396 -0.31035942 -0.028019324
000370 7e 64 99 be 54 2a 97 be 62 8f 51 bf 67 c7 c4 be
       -0.29959482 -0.2952448 -0.8185941 -0.38433382
000380 f3 c9 ea 3d 5f a2 5c be 60 7c 29 3e b7 6e b0 3d
       0.114643 -0.21546315 0.16551352 0.08614867
000390 b0 e1 1f be f4 58 11 3e 73 2c 21 3e a2 aa fd 3d
       -0.15613437 0.14194089 0.15739612 0.12386061
0003a0 ba 61 bc 3d ed ce 2c bd a7 ba 71 3e 2b fa 5f be
       0.09198327 -0.042189527 0.23606358 -0.21872775
0003b0 7d 76 8e be e5 0d 75 3d 2c 72 48 bd 69 c8 51 3d
       -0.27824774 0.059827704 -0.048937008 0.051216517
0003c0 5d fe 37 3c a6 3e 53 be 2b 86 3a be 49 3a 84 bd
       0.0112300785 -0.20629367 -0.18215244 -0.064564295
0003d0 fb 03 13 3e b3 61 6d 3d 62 fa c8 3d fe 8a b0 3e
       0.14356987 0.0579545 0.09813382 0.34481043
0003e0 2b 70 d8 be 82 43 60 3e 52 ba 1f be dc 03 35 3e
       -0.42273077 0.21900752 -0.1559842 0.17677253
0003f0 b6 68 80 3d 30 99 c5 bc 06 8a 3e be 49 b3 0d bd
       0.06269972 -0.024120897 -0.1860734 -0.034594808

model.4.bias f4 [3125]
000000 ec 55 5a 3e 2b e2 d0 3d 3d 3e 12 3e 94 29 44 be
       0.21321839 0.10199388 0.14281555 -0.19156486
000010 20 e7 1e 3e 9f fc bf bd 63 e0 a8 bd 33 4c 02 3e
       0.15517855 -0.093743555 -0.08245923 0.1272438
000020 ea 7e f1 bc 07 3b 62 3d 76 4a 14 3e e9 5a 4b be
       -0.029479463 0.055232074 0.1448153 -0.19858898
000030 56 d8 cf 3a 34 e1 33 be 93 c3 93 3d d2 ea b6 3b
       0.001585732 -0.17566377 0.07215037 0.005582192
000040 8b 39 4e bc 75 f1 f7 3d 9e 10 1c bb d3 ab 29 3e
       -0.0125869615 0.12106601 -0.0023813616 0.16569452
000050 17 c3 b2 3c 9c db de 3d f5 05 8d 3d 30 12 90 bc
       0.021821542 0.10881731 0.06885902 -0.017586797
000060 17 43 2d bc c2 85 13 3e b4 c5 19 3e 20 a3 4b 3e
       -0.0105750775 0.14406493 0.15016824 0.19886446
000070 3a d6 b2 bd 42 d0 1d 3e 2f ec fa 3d b8 65 50 3d
       -0.08732267 0.15411475 0.1225208 0.050878257
000080 07 73 5a be b9 3e da bd e6 b4 e3 3c 8b 1e 67 bd
       -0.21332942 -0.10656495 0.02779622 -0.056425612
000090 59 fd aa bd a8 31 bf bd 03 c0 21 3e 29 2a e2 3d
       -0.083491035 -0.09335643 0.15795903 0.11043198
0000a0 80 82 64 3d e3 2f 5b 3c 90 4b ef bd af 79 34 3e
       0.055788517 0.013378116 -0.11684334 0.17624544
0000b0 64 23 be bd 9b fb 04 3e 7c df 83 3d 97 f6 25 3e
       -0.09284094 0.12986605 0.06439111 0.16207348
0000c0 fe 37 d7 bc f1 2a bc 3c 0a 7e 88 bd e7 ed 2a 3e
       -0.026271816 0.022969695 -0.06664665 0.16692315
0000d0 57 d4 82 3d 86 53 81 bd c7 bb 87 3d c0 7e 50 3c
       0.06388157 -0.06314759 0.066276126 0.012725532
0000e0 82 b5 17 be 53 72 55 bd 23 43 e3 bd f4 12 e5 bd
       -0.14815333 -0.05211098 -0.1109679 -0.11185256
0000f0 05 f5 43 3e b8 47 09 3e ae ae 8e 3d fb 00 0c 3e
       0.19136436 0.13406265 0.06966911 0.13672249
000100 e2 e9 ac 3c 62 99 ac bb aa 49 17 3d 2c fb 8d 3d
       0.021107618 -0.005267308 0.036935486 0.06932673
000110 19 b4 0a be fa e5 93 bc 67 c7 77 3d df 61 e1 3d
       -0.13545264 -0.018053997 0.0604929 0.110049956
000120 23 de b3 bc 6a 52 85 3d 46 75 c0 3d 23 ce 16 be
       -0.021956509 0.0650986 0.09397368 -0.14727072
000130 22 cd 37 bd 37 a9 17 3e 59 dc 7d bd 8d 0c a4 bc
       -0.044873364 0.14810644 -0.061977718 -0.020025516
000140 42 18 f2 3d 39 86 3a 3d 9c bb 8b 3d 70 b0 cd 3d
       0.11821033 0.04553816 0.06822893 0.100434184
000150 08 42 24 bd 93 0d 4a 3d 1f ac 21 be 2d 02 77 3d
       -0.040102035 0.04932935 -0.15788315 0.06030481
000160 7f 28 91 bd 88 8d 14 3e 4d d1 04 3e d7 f7 14 bd
       -0.07087802 0.14507115 0.12970467 -0.03636917
000170 5f c9 5e 3e 5a f7 6c 3e 8e cb 0d bd 3e 3f 27 3e
       0.21756504 0.23141232 -0.034617953 0.16332719
000180 b1 39 c7 bb 0f 13 e8 3d 81 58 d7 3c 2d 13 c6 3d
       -0.0060798754 0.1133176 0.02628732 0.09671626
000190 74 5b ec 3c 72 3e 82 bd e3 06 01 3d a1 89 a7 bd
       0.028852202 -0.06359567 0.03150071 -0.081805475
0001a0 1c 92 de bc 7a 82 8d 3d d7 36 1f be 3e a0 7e 3e
       -0.02716928 0.06909652 -0.15548263 0.24865815
0001b0 ad 3b c0 3c a9 2b d7 3c c5 bc 01 3e 7a 4e 03 bc
       0.023465956 0.026265936 0.12669666 -0.008014316
0001c0 b5 85 9f bd c2 9b 29 bd 13 51 1d 3d fe 77 45 3e
       -0.077891745 -0.041408308 0.038407397 0.19284055
0001d0 df 1a aa 3c 00 67 74 bc 9e a8 76 bc 90 71 17 3e
       0.020764766 -0.014917135 -0.01505485 0.14789414
0001e0 06 4b 5c bc 73 96 25 3d ee d8 62 3e 6f a9 36 bd
       -0.013445621 0.040426683 0.22153065 -0.04459518
0001f0 e8 f4 32 3e c2 78 91 3d 63 2a 2b 3e 4f c8 a3 3d
       0.17476237 0.07103111 0.16715388 0.0799719
000200 cc e8 9e bd 24 42 39 3d 01 be 69 bd 3f 52 a3 bc
       -0.07759246 0.045229092 -0.057065967 -0.019936679
000210 50 88 cb bd b8 1a 38 be 32 15 d8 3c 95 47 57 bb
       -0.09938109 -0.17978942 0.026377294 -0.0032849063
000220 19 21 14 be ff 7d 12 3e e1 92 c2 3d ab a0 a0 3d
       -0.14465751 0.14305876 0.09500671 0.07843145
000230 d3 0f cd 3d 1f 7a 17 3c 99 e1 81 bd 91 86 0e 3e
       0.10012784 0.0092454245 -0.063418575 0.1391852
000240 6b 07 d9 bc 72 ab 8f bd 1d 10 40 be 4d 70 0e 3d
       -0.026492795 -0.070151225 -0.18756147 0.034775067
000250 58 94 55 bd 7e 14 38 be 42 f9 30 3d 3a 08 39 be
       -0.052143425 -0.17976567 0.04320646 -0.18069544
000260 15 f8 65 bd a6 2e 6e be e2 03 16 3e 45 69 3e 3d
       -0.056144793 -0.23259982 0.14649919 0.04648711
000270 fb 06 79 bb e6 57 e1 3c 24 a5 6a bd c8 8f 54 3e
       -0.0037998545 0.027507734 -0.057286397 0.20757973
000280 a7 ff 56 bd 34 cf e2 39 20 40 80 bd 09 9d 3a be
       -0.052489903 0.00043260457 -0.06262231 -0.18223967
000290 3e 6a bd bc 1d 02 a2 3d ac 2c b4 3c 97 72 26 be
       -0.02312195 0.07910559 0.021993957 -0.1625465
0002a0 af 4c be bd 32 1c 88 3d 14 f5 2d 3e 6a 2d bc 3c
       -0.0929197 0.06646003 0.16988021 0.022970874
0002b0 33 b3 63 be d0 1b 0e be 7d 47 1d be cc 83 24 be
       -0.22236328 -0.13877797 -0.15359302 -0.16065902
0002c0 01 bb 53 be 3f 4b 00 bd 9a 05 09 3d 7b 78 93 be
       -0.20676805 -0.03132176 0.033452608 -0.28802857
0002d0 d4 4a d5 bd 27 18 48 be 58 cf 93 bc 8e 4b 33 be
       -0.10414663 -0.19540463 -0.018043205 -0.1750929
0002e0 45 6e d5 3d c9 e5 50 bd e1 1f 2e 3d 5a 6d ad 3c
       0.10421423 -0.05100039 0.04251087 0.021170307
0002f0 56 62 0c be 92 36 b9 bd 43 73 fc bd 43 ad 41 be
       -0.13709387 -0.090436116 -0.12326672 -0.1891375
000300 4a 6c b5 bd 34 02 6f bd 87 a8 ec 3c 04 51 dc bd
       -0.08858545 -0.05835171 0.028888954 -0.1075764
000310 af 96 c5 bd 68 e1 2c 3e 1d 81 2b be f3 df 0f bb
       -0.09647881 0.1688286 -0.16748472 -0.0021953552
000320 2b 32 8f bd 1c 3d 1d bd 55 95 35 be de bb 89 bd
       -0.06991991 -0.038388357 -0.17732747 -0.06725286
000330 00 0d ef bb b7 60 0f 3c a2 f2 06 3e 6d 57 9d bd
       -0.007295251 0.008751086 0.13178495 -0.07682691
000340 86 fe 79 3d d7 12 8c bd 07 fc 83 be 44 fa b3 bd
       0.061033748 -0.06839531 -0.2577822 -0.08787969
000350 17 3a c2 bd fc 3d 8b bd 1e a4 7e 3d 14 8b 14 be
       -0.09483736 -0.06798932 0.062168233 -0.14506179
000360 d4 f7 5e 3d 18 13 e6 bd 7b 31 6d 3c 30 28 03 be
       0.054435566 -0.112341106 0.014477129 -0.12808299
000370 8f e5 40 be fb 52 1a be 2b 07 e7 bd 9a 1b 67 be
       -0.1883757 -0.15070717 -0.11280664 -0.22569123
000380 5f 26 90 bd 8b 4f 2d 3e 0a 39 b0 bc 51 30 1a be
       -0.07038569 0.16924874 -0.021511573 -0.15057494
000390 52 5d fc bc 50 1d c5 3b f3 0f 3d 3d 4b 72 8b 3c
       -0.030806217 0.006015457 0.04615779 0.017022273
0003a0 56 f7 6e 3a 0c a3 57 3d 3b 07 09 3d 8e 0d 3a be
       0.00091158354 0.052645728 0.03345416 -0.18169233
0003b0 7d 64 66 3d 8b 0c b1 bd b2 5a 30 be 93 91 60 3d
       0.056248177 -0.086449705 -0.17222098 0.05482633
0003c0 8d 0d 0c be 92 77 31 3c 79 5a a0 bd 60 09 dc bd
       -0.13677044 0.01083173 -0.07829756 -0.10743976
0003d0 01 69 bc 3c 4b 0d d6 3d b2 0c 8a bd 83 47 45 be
       0.022999289 0.10451754 -0.06740703 -0.19265561
0003e0 0a 97 d6 bc a8 a5 04 bd 6d e8 e5 3d be c7 2a 3c
       -0.026195068 -0.032384545 0.11225972 0.010423599
0003f0 14 b0 71 3d 96 1c 92 be c6 df 0e 3d 27 89 37 3d
       0.05900581 -0.28537434 0.034881376 0.044808533
