models/empowerment_5_steps/RoomPlus2Corrid-v0_phi.pth (torch_old, 9892 bytes, 5 tensors)

model.0.weight f4 [32, 33]
0	0xbe5150cd	-0.2044098
1	0xbda1f90c	-0.0790883
2	0xbd9bc59d	-0.07606051
3	0x3c0a595c	0.0084441565
4	0x3c40bf01	0.011764289
5	0xbe0b1b0b	-0.13584535
6	0xbe54dc34	-0.20787126
7	0xbc83213e	-0.016007062
8	0xbdc3c0e4	-0.09558275
9	0x3e259b6d	0.16172571
10	0x3e20fedb	0.1572222
11	0x3e8e46a0	0.27788258
12	0xbe6f3338	-0.23359382
13	0x3e04701b	0.1293339
14	0xbcc52005	-0.02406312
15	0x3e1b7059	0.15179576
16	0x3cf1e2fc	0.02952718
17	0x3e2d09f5	0.1689833
18	0x3dc422e5	0.09576968
19	0xbb8a5d13	-0.004222521
20	0xbe01f792	-0.12692097
21	0xbdfda272	-0.123844996
22	0x3c6519e9	0.013983228
23	0x3dbbab4c	0.09163532
24	0x3e20b21d	0.15692945
25	0x3d9332a6	0.07187395
26	0x3d0df677	0.034658875
27	0xbe63a4b5	-0.222308
28	0x3dbc0562	0.09180714
29	0xbe5d3cc4	-0.21605211
30	0x3e4b5dec	0.19860047
31	0x3df0906b	0.117462955
32	0xbc2787ec	-0.010225277
33	0xbb92f7e0	-0.0044851154
34	0xbc93d308	-0.018044963
35	0xbd9c9f06	-0.07647519
36	0xbcad0d42	-0.021124486
37	0xbca512af	-0.02015051
38	0xbd4c9b82	-0.04995299
39	0xbcb71dbc	-0.022353046
40	0xbcab0abc	-0.020879142
41	0xbca6d029	-0.02036293
42	0xbd1ea0f8	-0.03872773
43	0x3e8928b7	0.26788875
44	0xbdcc4e89	-0.09975917
45	0xbda87126	-0.08224706
46	0xbd90aef6	-0.07064621
47	0x3dbffc6d	0.09374318
48	0x3e3838f4	0.17990476
49	0x3e2ccb9b	0.16874544
50	0x3e1bc17a	0.15210524
51	0x3e6bbc4e	0.23021051
52	0x3e27f1d1	0.1640084
53	0xbcb25964	-0.02177114
54	0x3defe141	0.11712886
55	0xbdab71c9	-0.08371312
56	0xbe12971b	-0.14315455
57	0xbd41fb68	-0.0473589
58	0xbdb83f95	-0.08996502
59	0xbe249e9a	-0.16076127
60	0xbccd96f4	-0.025096394
61	0x3e4d89d6	0.20072111
62	0xbd74009c	-0.059570894
63	0xbe27a3aa	-0.16371027
64	0x3e2f0f29	0.17095627
65	0xbc90de72	-0.017684195
66	0xbecd9055	-0.4014918
67	0xbdf4fbeb	-0.11962112
68	0xbe012073	-0.12610035
69	0xbe227631	-0.15865399
70	0xbdb1a35a	-0.08673735
71	0xbe93a465	-0.2883636
72	0xbdd4065a	-0.10352774
73	0xbeda0b42	-0.42586714
74	0xbe1eae48	-0.1549617
75	0xbc0c05f6	-0.008546343
76	0x3e491cd0	0.19639897
77	0x3e5aa67a	0.21352568
78	0x3e7ff274	0.24994832
79	0xbd8e8e50	-0.06960738
80	0xbc7797e3	-0.015111896
81	0x3e951d9d	0.29124156
82	0x3e24563a	0.16048518
83	0x3e756803	0.23965459
84	0x3e8b8e12	0.2725683
85	0x3e8d2cc9	0.2757323
86	0xbe4c9c95	-0.19981606
87	0x3dc56132	0.09637679
88	0x3e3d265c	0.18471664
89	0x3dda1a12	0.10649504
90	0x3e99143a	0.29898244
91	0x3e6220c7	0.22082816
92	0x3de7b396	0.1131355
93	0xbe00d36e	-0.12580654
94	0xbdc7d8c1	-0.097581394
95	0x3cef169c	0.029185586
96	0x3e447e6b	0.1918885
97	0xbd9133cd	-0.07089958
98	0x3db16d5f	0.08663439
99	0x3d8c309c	0.06845209
100	0xbe1e0fe0	-0.15435743
101	0xbd483ceb	-0.04888622
102	0xbdd67cc6	-0.104730174
103	0x3d7953f6	0.060871087
104	0xbd3388f6	-0.043831788
105	0x3c8721c8	0.0164956
106	0xbdc9419d	-0.09826968
107	0xbdca8adc	-0.098897666
108	0xbe25dd72	-0.16197756
109	0xbdf31836	-0.11869852
110	0xbe1a82f2	-0.15089014
111	0x3dc39918	0.09550685
112	0x3dc053ad	0.0939096
113	0xbe01d27d	-0.12677951
114	0xbd5a3f66	-0.053283118
115	0xbdd3e60f	-0.103466146
116	0x3d67a64a	0.05655507
117	0x3dc1d654	0.09464708
118	0x3d91b820	0.07115197
119	0xbc10fb19	-0.008848929
120	0x3d21b21f	0.03947651
121	0x3d780369	0.060550127
122	0xbd476494	-0.048679903
123	0x3d8b8b55	0.06813685
124	0x3d724d81	0.059155945
125	0xbe135815	-0.1438907
126	0xbcf2067e	-0.029544111
127	0xbdf1620e	-0.117862806
128	0x3dae16ed	0.085004665
129	0xbd895c40	-0.067070484
130	0xbd3d92c8	-0.04628256
131	0x3d83f9d8	0.06444138
132	0x3d71bfc4	0.059020773
133	0x3cf48e0c	0.02985289
134	0x3e135505	0.14387901
135	0x3c30e696	0.0107971635
136	0xbdc87a2f	-0.0978893
137	0xbdae5b5a	-0.08513518
138	0x3c97cd09	0.018530386
139	0xbd0156b8	-0.031576842
140	0x3d16be2e	0.036802463
141	0x3c39ad20	0.01133278
142	0x3e3dcf7a	0.18536177
143	0x3cc2d3f0	0.0237827
144	0xbd702b0e	-0.05863481
145	0x3e1babd2	0.15202263
146	0xbd15e5d0	-0.03659612
147	0xbd3f17c8	-0.04665354
148	0x3e3796ac	0.1792857
149	0xbdac7857	-0.084213905
150	0x3e399f40	0.18127155
151	0x3e1ff9b1	0.15622593
152	0xbdb8672f	-0.09004056
153	0x3cd4f0ea	0.025993783
154	0x3e281249	0.16413225
155	0xbca9eed8	-0.020743772
156	0x3d10b518	0.035328954
157	0x3cd7b8a8	0.026333168
158	0x3e30e9db	0.17276709
159	0xbe287d0e	-0.16453955
160	0x3c9a3890	0.0188258
161	0xbd9b7f01	-0.075925834
162	0x3c2a8828	0.010408439
163	0x3e144e4e	0.14482996
164	0x3de4c0d3	0.11169591
165	0xbdb3d808	-0.08781439
166	0xbe203c12	-0.15647915
167	0x3d4dc4d2	0.05023653
168	0xbd27ef8e	-0.04099994
169	0xbdb80426	-0.08985166
170	0xbeaced2b	-0.33774695
171	0xbe4dfca9	-0.20115913
172	0x3d4b7405	0.04967119
173	0x3bee2cae	0.00726851
174	0x3ddacd45	0.10683683
175	0x3e3ad18d	0.18244
176	0x3e7f4cb4	0.24931604
177	0x3e90e6eb	0.28301176
178	0x3e6c3c35	0.23069842
179	0xbc66113b	-0.014042194
180	0x3e84da45	0.25947776
181	0x3d103fba	0.035217024
182	0x3df351e9	0.118808575
183	0x3e03bfbf	0.12866114
184	0x3cd0adca	0.025473494
185	0xbda147af	-0.07875001
186	0xbe0aaf63	-0.13543467
187	0x3d881c8b	0.06646069
188	0x3cdfb7c9	0.027309315
189	0x3d28b3b5	0.041187007
190	0x3e1ccd8b	0.15312783
191	0x3e482e42	0.19548896
192	0xbe0d93a3	-0.1382585
193	0x3e5130fe	0.20428845
194	0x3e94857c	0.2900809
195	0x3e67a4ea	0.22621503
196	0x3e732c10	0.23747277
197	0xbd5c9f73	-0.053863
198	0x3d6b740a	0.05748371
199	0x3cf5eda0	0.030020535
200	0xbe2452f3	-0.16047268
201	0xbd9d2fd9	-0.07675142
202	0xbe184791	-0.1487105
203	0xbd74beaa	-0.059752144
204	0xbe128cba	-0.14311495
205	0xba9a5780	-0.0011775345
206	0x3dd8286a	0.10554583
207	0xbdcc81e6	-0.09985714
208	0x3d415174	0.04719682
209	0x3cc804e8	0.024416402
210	0x3de1d987	0.11027818
211	0xbdf6ce02	-0.120510116
212	0xbc8bd4a0	-0.017069161
213	0x3b55c680	0.0032619536
214	0x3d343fd4	0.044006184
215	0xbdd9d0df	-0.10635542
216	0xbd850b0e	-0.06496249
217	0x3da43ce6	0.08019428
218	0xbd36ad1c	-0.044598684
219	0xbd6af79a	-0.057365038
220	0x3df9a72d	0.121900894
221	0x3d4b9bb4	0.049709037
222	0xbc50c100	-0.012741327
223	0xbd956c35	-0.072960295
224	0xbd9180f1	-0.07104672
225	0x3d9a045a	0.07520361
226	0x3c7b13c0	0.015324533
227	0xbe1cd34f	-0.15314983
228	0x3d7c2aa8	0.061564118
229	0x3ca98160	0.020691574
230	0x3dffb1a6	0.124850556
231	0xbce3272b	-0.027728638
232	0xbd54b148	-0.05192688
233	0xbd76c2ba	-0.0602443
234	0xbdfe53d4	-0.12418333
235	0xbd87ffa1	-0.06640554
236	0xbd6ded54	-0.05808766
237	0xbd7f738a	-0.062366046
238	0x3de57df6	0.11205666
239	0x3dab6d32	0.08370437
240	0xbd41f037	-0.047348227
241	0x3ea83efa	0.32860547
242	0xbdebf774	-0.11521807
243	0x3e7e7790	0.24850297
244	0x3cf6a8d3	0.030109799
245	0xbe08b266	-0.13349304
246	0xbd90a01c	-0.070617884
247	0xbd75b6ba	-0.059988715
248	0xbd80946f	-0.062783115
249	0x3e1844f0	0.14870048
250	0x3df1fd03	0.11815836
251	0xbd491576	-0.049092732
252	0xbe13e7b5	-0.14443858
253	0x3e319ddf	0.1734538
254	0x3e723542	0.23653129
255	0xbd4a3507	-0.049366977

model.0.bias f4 [32]
0	0x3e1ba1a4	0.1519838
1	0xbd952d29	-0.07284004
2	0x3ec8f3c7	0.39248487
3	0xbdc3c33b	-0.09558722
4	0xbe3e3f21	-0.1857877
5	0x3eb6b8e5	0.35687938
6	0xbe003412	-0.12519863
7	0x3a99ae05	0.0011724835
8	0x3ea9cc19	0.33163527
9	0xbc4b67db	-0.012414898
10	0x3e241904	0.16025168
11	0xbd9bb506	-0.07602887
12	0xbe123b6a	-0.14280477
13	0xbe0d1e12	-0.13781002
14	0xbe04563f	-0.12923525
15	0xbda3b464	-0.07993391
16	0x3e76ba91	0.24094607
17	0x3eb2156c	0.3478197
18	0xbe0a2388	-0.13490117
19	0x3eb01379	0.34389856
20	0xbe2d8a5b	-0.1694731
21	0x3e6b1a80	0.22959328
22	0x3d465728	0.048422962
23	0x3d93fdcc	0.07226142
24	0x3ea0e443	0.3142415
25	0x3ebe3fc8	0.37158036
26	0xbe1d23bb	-0.15345661
27	0x3e9b75e2	0.30363375
28	0x3e4fe347	0.20301543
29	0xbe174ed0	-0.14776158
30	0x3e920deb	0.28526244
31	0x3ed37c1f	0.41305634

model.2.weight f4 [32, 32]
0	0x3d92ce89	0.071683
1	0x3d731016	0.059341513
2	0xbe024012	-0.12719753
3	0xbca72b1b	-0.020406296
4	0xbc06ec99	-0.00823512
5	0x3d2d73eb	0.042346876
6	0xbe0bc232	-0.13648298
7	0x3d9cdb6f	0.07659041
8	0x3c0e31d1	0.008678869
9	0xbdeae465	-0.11469344
10	0x3d654f91	0.055984084
11	0xbdc4b904	-0.096056014
12	0xbe2c5d49	-0.1683246
13	0xbe1ae9ae	-0.15128204
14	0x3d9a288d	0.07527266
15	0x3c29e08d	0.0103684785
16	0x3dc05ec4	0.09393075
17	0xbe173e9b	-0.14769976
18	0x3d9d337b	0.07675835
19	0xb9a0b240	-0.00030650385
20	0xbe14da82	-0.14536479
21	0xbe08dbc5	-0.13365085
22	0x3dc6dd12	0.097101346
23	0xbdfdda24	-0.12395123
24	0x3ddaede9	0.10689909
25	0xbe35decc	-0.17760772
26	0xbe3107c6	-0.17288122
27	0xbe1a6fab	-0.1508166
28	0x3bf84885	0.0075770044
29	0x3df4fe42	0.11962558
30	0xbe24be6e	-0.16088268
31	0x3d36f2b8	0.04466507
32	0xbd18bf6c	-0.03729193
33	0xbd925405	-0.07144932
34	0x3c3c4300	0.011490583
35	0x3debfdaa	0.11522992
36	0xbdd57a2c	-0.10423693
37	0x3dc5e57a	0.0966291
38	0xbe313f98	-0.17309415
39	0xbde62dd1	-0.112392075
40	0x3de3e3ba	0.1112742
41	0xbc68b5d0	-0.014203504
42	0xbd2aa0e0	-0.04165733
43	0x3d85bd3a	0.06530233
44	0xbe1d5930	-0.15366054
45	0x3e1d615b	0.1536917
46	0x3e2aa865	0.166658
47	0xbdccba2e	-0.099964485
48	0xbdcb77af	-0.09934937
49	0xbe24f5b3	-0.16109352
50	0x3da8b66e	0.08237921
51	0xbe200314	-0.15626174
52	0xbe1548d3	-0.14578561
53	0xbe08e9dc	-0.1337046
54	0x3d0c516c	0.034257337
55	0xbe30ed5f	-0.1727805
56	0xbcb11758	-0.021617576
57	0xbdab1cbc	-0.0835509
58	0xbe1b75c4	-0.15181643
59	0xbcd61518	-0.026133105
60	0x3cec2aa8	0.028828934
61	0x3d401940	0.04689908
62	0xbd31410c	-0.043274924
63	0xbb05be80	-0.0020407736
64	0x3e136656	0.14394507
65	0xbb47fc7d	-0.0030515485
66	0x3a2eabc5	0.0006663169
67	0x3d2713e8	0.04079047
68	0x3cff9e96	0.03120355
69	0xbda89a1c	-0.08232519
70	0xbe1b6e1d	-0.15178724
71	0xbd935e2e	-0.07195698
72	0x3c8bf298	0.017083451
73	0xbdcfb13b	-0.10141226
74	0x3dc66fde	0.09689306
75	0x3dd5755b	0.104227744
76	0xba28f048	-0.0006444496
77	0x3e3a526e	0.18195507
78	0xbd5e3347	-0.05424812
79	0xbcf38312	-0.029725585
80	0xbd6563cb	-0.056003373
81	0xbe05fc42	-0.1308451
82	0x3da03f46	0.078245685
83	0xbc6bcd56	-0.014392218
84	0x3b98d4c2	0.0046640346
85	0x3d326310	0.043551505
86	0xbc81785c	-0.015804462
87	0x3de3f1cd	0.11130104
88	0xbdb0e87f	-0.08638095
89	0x3cd36276	0.025803786
90	0xbe33cd40	-0.17558765
91	0xbd55d2e1	-0.052203063
92	0xbd92002f	-0.07128941
93	0xbdf0be02	-0.11754991
94	0x3d7ad58d	0.061238814
95	0xbd2e64bb	-0.042576533
96	0x3df2592c	0.118334144
97	0x3de0e2cc	0.10980758
98	0x3dcd8fd0	0.10037196
99	0xbd665cce	-0.05624085
100	0x3cc19cf7	0.023634417
101	0xbc1e091c	-0.0096457265
102	0xbe10f65e	-0.14156482
103	0xbc48c6eb	-0.012254457
104	0xbe12a4c8	-0.14320672
105	0xbe67b49e	-0.22627494
106	0x3d40adb0	0.04704064
107	0xbd903b11	-0.07042516
108	0x3db46e1d	0.08810065
109	0xbe44db11	-0.19224192
110	0x3d58ba1a	0.052911855
111	0x3d888f8a	0.06668003
112	0xbd9e25c5	-0.07722048
113	0xbe54a3a0	-0.20765543
114	0x3de08bd7	0.10964172
115	0xbe5a40fe	-0.21313855
116	0x3e135b7c	0.14390367
117	0x3d9ea416	0.07746141
118	0xbca83f8c	-0.020538114
119	0xbdeddab2	-0.116139784
120	0xbd6f4d40	-0.05842328
121	0x3d5014c5	0.050801057
122	0x3bbec657	0.005821984
123	0xbc1df777	-0.00964152
124	0xbe644b2e	-0.22294304
125	0xbe4331e6	-0.19062003
126	0xbe25e7d8	-0.16201723
127	0xbcb15460	-0.021646678
128	0x3e1e4bcb	0.154586
129	0x3bc5a5c6	0.0060317246
130	0x3d913236	0.07089655
131	0xbbf33488	-0.0074220337
132	0xbe0bc8cc	-0.13650817
133	0x3defcf6b	0.11709484
134	0x3c03134c	0.008000206
135	0x3dbd3c4b	0.092400156
136	0xbdf96a74	-0.121785074
137	0xbd667890	-0.05626732
138	0xbe0c930d	-0.1372797
139	0x3e162a8d	0.1466467
140	0x3cc6c90d	0.02426579
141	0xbdeb679e	-0.11494373
142	0x3d675759	0.056479786
143	0x3e1d8c7f	0.15385626
144	0xbe0908ff	-0.13382338
145	0x3de23459	0.11045141
146	0x3cedcf29	0.029029446
147	0xbd503a4c	-0.050836846
148	0xbd726538	-0.05917856
149	0x3d1d776d	0.03844397
150	0xbd0bed04	-0.034161583
151	0xbd6f0c9e	-0.058361642
152	0x3e1235cf	0.14278339
153	0x3d87d46c	0.06632313
154	0x3d72660a	0.059179343
155	0xbe2c67c3	-0.16836457
156	0xbd58e0f9	-0.052948926
157	0xbd81ebf6	-0.06343834
158	0xbe298f6d	-0.16558619
159	0x3cef49f3	0.029210066
160	0xbd987ff6	-0.074462816
161	0xbdf0776c	-0.11741528
162	0xbe12879e	-0.14309546
163	0x3ccfd5da	0.025370527
164	0xbc2177e6	-0.009855246
165	0xbd92b18a	-0.07162769
166	0x3ca56949	0.020191805
167	0xbe8b5e9c	-0.2722062
168	0xbe2097b6	-0.15682873
169	0x3dc31cef	0.09527003
170	0x3e07e359	0.1327032
171	0xbe300ae0	-0.17191648
172	0xbbf14907	-0.007363442
173	0xbe80cecd	-0.25157776
174	0xbe2dd8e5	-0.1697727
175	0xbe63bde9	-0.22240414
176	0xbe432076	-0.19055352
177	0x3dbcc5a7	0.09217387
178	0xbe40b32f	-0.18818353
179	0x3e0cf0aa	0.13763681
180	0x3d9848d1	0.074357636
181	0xbe218a17	-0.15775333
182	0xbdc966ea	-0.098340824
183	0xbe24a100	-0.16077042
184	0xbd398456	-0.04529222
185	0xbcbbba09	-0.022915857
186	0xbd30ef0f	-0.043196734
187	0xbe37ccb8	-0.17949188
188	0xbdaf5cc9	-0.08562619
189	0x3c5a3909	0.013319262
190	0xbd0a0a97	-0.033701506
191	0xbdcfdead	-0.10149894
192	0x3caea019	0.021316575
193	0x3db1c610	0.086803555
194	0x3d9fab10	0.077962995
195	0x3d2d48e8	0.042305857
196	0x3ddfba04	0.109241515
197	0xbe0b0756	-0.13577017
198	0x3db9c567	0.09070855
199	0xbe1db85b	-0.15402357
200	0x3c9f8faf	0.019477693
201	0x3dc1a3b4	0.09455052
202	0xbe4d4a36	-0.2004784
203	0x3d91fb43	0.071280025
204	0x3da5a66b	0.08088382
205	0xbc10c413	-0.00883581
206	0x3df00fb0	0.11721742
207	0x3cbf219d	0.023331458
208	0x3e06891c	0.1313824
209	0xbe083e57	-0.13305031
210	0xbdafa2da	-0.08575983
211	0xbdd6eb2c	-0.10494074
212	0xbcfd0f0e	-0.030890968
213	0xbe64dd3f	-0.22350024
214	0x3cbe24bd	0.023210878
215	0xbdb8a51c	-0.09015867
216	0xbd5c20ec	-0.053742334
217	0x3dfc99b9	0.12334008
218	0xbdcccd66	-0.10000114
219	0xbd4a144f	-0.049335774
220	0xbddbbf71	-0.10729874
221	0x3dcd41ee	0.10022341
222	0xbcb8c337	-0.022554023
223	0xbdda1f47	-0.10650497
224	0xbdd58300	-0.10425377
225	0xbe1dede0	-0.15422773
226	0x3dc30149	0.095217295
227	0x3d8a697b	0.067584
228	0xbd5b8fce	-0.05360394
229	0xbcd771c3	-0.026299363
230	0xbe26baab	-0.16282146
231	0x3dae0f99	0.08499069
232	0xbc494230	-0.012283847
233	0xbd0c4053	-0.03424103
234	0x3d20c7c3	0.039253008
235	0xbd9ff337	-0.078100614
236	0x3c727100	0.014797449
237	0x3c707668	0.014676668
238	0x3deabdb2	0.11461963
239	0xbde628aa	-0.11238225
240	0xbdba07a7	-0.09083491
241	0x3dd21220	0.10257363
242	0x3e07565b	0.13216536
243	0xbd73d0ca	-0.05952529
244	0x3d6c7ac9	0.057734285
245	0xbe114ead	-0.14190169
246	0xbb3ebadc	-0.0029103076
247	0x3de2e22f	0.11078297
248	0xbbc6e7a0	-0.0060700923
249	0xbe0b193e	-0.13583848
250	0x3e0cc69f	0.13747643
251	0xbd1aa998	-0.037759393
252	0xbd82ffe8	-0.063964665
253	0xbc08879e	-0.008333115
254	0x3d3de985	0.04636528
255	0xbdf7f235	-0.12106744

model.2.bias f4 [32]
0	0x3c153c31	0.009108589
1	0xbd1819b4	-0.037133887
2	0xbde18735	-0.11012117
3	0xbcd112f1	-0.025521727
4	0xbe15feaf	-0.14647935
5	0x3cb07386	0.02153946
6	0xbd808af9	-0.06276507
7	0xbdcfbb97	-0.10143202
8	0xbdea0a23	-0.11427715
9	0xbe2e266d	-0.17006846
10	0x3d07df26	0.033171795
11	0x3ead6ca5	0.33871952
12	0xbe554510	-0.20827127
13	0x3e7c3db3	0.24632911
14	0x3eee17f8	0.46502662
15	0x3ea59002	0.32336432
16	0xbe24c3c0	-0.16090298
17	0xbc162ea0	-0.00916639
18	0x3edf48e5	0.43610302
19	0x3da15815	0.078781284
20	0x3ea2d010	0.31799364
21	0x3e7ec71e	0.24880645
22	0x3dbd0077	0.09228604
23	0x3c1e3f78	0.009658687
24	0x3d9c553f	0.07633447
25	0xbbcee80d	-0.0063142837
26	0xbe2a5eee	-0.16637775
27	0xbe4b38db	-0.19845907
28	0x3e972c0e	0.295258
29	0x3e9d2b7a	0.30697232
30	0xbde9e66e	-0.11420904
31	0xbe17eee1	-0.14837219

model.4.weight f4 [1, 32]
0	0xbda45165	-0.08023337
1	0xbcf74758	-0.030185387
2	0x3de72370	0.11286056
3	0xbd087531	-0.033314887
4	0x3792fe51	1.7522982e-05
5	0xbd1557ac	-0.036460564
6	0x3dabb74b	0.0838457
7	0x3e15d6e5	0.14632757
8	0xbde37e24	-0.11108044
9	0xbd85f9e3	-0.06541803
10	0xbd3fc131	-0.0468151
11	0x3e711b14	0.23545486
12	0x3d14adb8	0.036298484
13	0x3e0b9241	0.1363001
14	0x3e8633ae	0.26211303
15	0x3e6cf4d0	0.23140264
16	0x3c9e2a11	0.019307168
17	0x3beb41b0	0.0071794614
18	0x3e80d3ad	0.25161496
19	0xbbc68c81	-0.00605923
20	0x3dde38a3	0.10850646
21	0x3e09af39	0.13445748
22	0x3c0ea8fc	0.008707281
23	0xbc10b8ee	-0.008833153
24	0xbd068037	-0.03283712
25	0x3d0227c6	0.031776212
26	0x3e14c429	0.14527954
27	0x3db97acf	0.09056627
28	0x3e72cab6	0.2371014
29	0x3e88a4de	0.26688284
30	0x3db07802	0.0861664
31	0xbc8ed8b0	-0.017437309
