models/empowerment_5_steps/TwoRoom-v0_phi.pth (torch_old, 45478 bytes, 5 tensors)

model.0.weight f4 [32, 311]
0	0xbd778e42	-0.060438402
1	0xbd402216	-0.046907507
2	0xbd5d09d9	-0.05396447
3	0xbd5b9dd1	-0.053617302
4	0xbd96a0e9	-0.0735491
5	0xbd7a5739	-0.06111834
6	0xbd601bc1	-0.05471397
7	0xbd6e014b	-0.0581067
8	0xbd429bfb	-0.047512036
9	0xbd84be30	-0.06481588
10	0xbd612d43	-0.054974806
11	0xbd86460a	-0.06556328
12	0x3d7f3a30	0.06231135
13	0xbd48f4a8	-0.049061447
14	0x3da4e9f4	0.080524355
15	0xbd6ad00b	-0.05732731
16	0xbd8d43a9	-0.06897671
17	0xbd4a89eb	-0.049447935
18	0xbd9edb5c	-0.07756683
19	0xbd8eb877	-0.069687776
20	0xbd8eab64	-0.06966284
21	0xbd8ea0ca	-0.06964262
22	0xbd4a2d88	-0.04935983
23	0xbd5e3677	-0.05425116
24	0xbd5dffb3	-0.054198932
25	0xbd877b42	-0.066153064
26	0xbd977de5	-0.07397059
27	0xbd0aac2a	-0.033855595
28	0xbcfe768a	-0.031062383
29	0xbd5964c9	-0.05307463
30	0xbd50a9e8	-0.050943285
31	0xbd91224c	-0.0708662
32	0xbd52686c	-0.051369116
33	0xbd713c75	-0.058895547
34	0xbd4bf742	-0.04979635
35	0xbd9eb3f7	-0.07749169
36	0xbd8e83dd	-0.06958745
37	0xbd5034bb	-0.050831538
38	0xbd4ce5d7	-0.05002388
39	0xbd7d9f72	-0.061919637
40	0xbd60a46c	-0.054844305
41	0x3d8536e6	0.06504612
42	0xbda151f4	-0.078769594
43	0xbd88929d	-0.06668589
44	0xbd4e3882	-0.05034686
45	0xbd6a8e3e	-0.05726456
46	0xbd603c24	-0.054744855
47	0xbce8b6bc	-0.028407447
48	0xbd46316b	-0.048386972
49	0xbd8cb703	-0.06870844
50	0xbd8637c1	-0.06553603
51	0x3da0fe2d	0.0786098
52	0xbd5e96b3	-0.054342937
53	0xbd8f3783	-0.0699301
54	0xbd3ee752	-0.046607323
55	0xbd876505	-0.06611065
56	0xbd9eaa16	-0.07747285
57	0xbce15174	-0.02750466
58	0x3d47653c	0.04868053
59	0xbdb21741	-0.086958416
60	0xbda963ca	-0.082709864
61	0xbd54c23e	-0.051943056
62	0xbd4879db	-0.048944335
63	0xbd936ca8	-0.07198459
64	0xbd4c01da	-0.049806453
65	0xbd577467	-0.052601244
66	0xbd8b43dd	-0.06800053
67	0xbd9253f9	-0.07144923
68	0x3e34205e	0.17590472
69	0xbd44dc46	-0.04806163
70	0xbda5176f	-0.0806111
71	0xbd908e01	-0.07058335
72	0xbd40328a	-0.046923198
73	0xbd547c06	-0.05187609
74	0xbd47bb7f	-0.048762795
75	0x3da89fc1	0.08233596
76	0xbd951320	-0.072790384
77	0xbda27568	-0.0793255
78	0xbd810581	-0.06299878
79	0xbcca93fe	-0.024728771
80	0xbdb5160e	-0.08842097
81	0xbd481a58	-0.04885325
82	0xbda02e1b	-0.07821294
83	0xbd8fd308	-0.07022673
84	0x3d18ee2d	0.037336517
85	0xbd5525c7	-0.05203798
86	0xbd50af7f	-0.050948616
87	0xbd813df7	-0.06310647
88	0xbd4b90ea	-0.049698748
89	0xbd616089	-0.055023704
90	0xbd5bc238	-0.05365202
91	0xbd4c5918	-0.049889654
92	0x3d850465	0.06494979
93	0xbd87d492	-0.066323414
94	0xbd6dff96	-0.058105074
95	0xbd5030cc	-0.050827786
96	0xbb553460	-0.0032532439
97	0xbd8efd93	-0.06981959
98	0xbcfc9e29	-0.030837135
99	0xbd4bf71a	-0.0497962
100	0xbd868fdb	-0.06570407
101	0xbd9fb38a	-0.07797916
102	0xbd5ca257	-0.053865757
103	0xbd80565e	-0.06266473
104	0xbd7c0c13	-0.061534952
105	0xbd88672f	-0.06660306
106	0xbcdd9ea8	-0.027053192
107	0x3be42f81	0.0069636707
108	0x3c637301	0.0138824
109	0x3e8d602f	0.27612445
110	0x3e2f1e13	0.17101316
111	0xbdbeeb6b	-0.09322246
112	0xbd92a0df	-0.0715959
113	0xbd48ab7e	-0.048991673
114	0xbccbc410	-0.024873763
115	0xbd117f5f	-0.03552186
116	0xbd51feef	-0.051268514
117	0xbd46f3e7	-0.048572447
118	0xbd9cd2d8	-0.07657403
119	0x3e1efff4	0.15527326
120	0xbd637ec6	-0.055540822
121	0xbd93a5ee	-0.07209383
122	0xbd4e9b4a	-0.050441064
123	0xbdb7c210	-0.08972561
124	0xbd8ab6f7	-0.06773179
125	0xbd9d0298	-0.0766651
126	0x3e72970b	0.23690431
127	0x3e1035f2	0.14083079
128	0x3e587e23	0.21141867
129	0x3d84beab	0.064816795
130	0xbd5320e1	-0.051545028
131	0xbd9082ee	-0.07056223
132	0xbc9d62bc	-0.01921212
133	0xbd783521	-0.060597543
134	0x3a80392a	0.0009782661
135	0xbd8dfb42	-0.06932689
136	0xbd99c483	-0.07508185
137	0xbda57a6c	-0.08079991
138	0x3bd0bccb	0.006370162
139	0x3c3a895b	0.011385287
140	0xbd50e2f8	-0.050997704
141	0xbc6ebe96	-0.014571806
142	0xbc236b70	-0.009974346
143	0x3dae8f12	0.08523382
144	0x3da3782a	0.07981904
145	0xbdbe2dae	-0.092860565
146	0x3d7a670b	0.061133426
147	0x3d9aa73a	0.07551427
148	0x3c907a41	0.01763642
149	0xbbc273ad	-0.0059342
150	0xbd47f988	-0.048821956
151	0xbd3f65a2	-0.046727784
152	0xbd472ff2	-0.04862971
153	0xbd891740	-0.06693888
154	0xbd8ee8e4	-0.06978014
155	0xbda60337	-0.08106082
156	0xbd60d3b4	-0.054889396
157	0xbda3f84a	-0.08006342
158	0xbccbfaeb	-0.02489992
159	0xbd8fbc9d	-0.07018397
160	0x3d26de82	0.040739544
161	0x3dcb578f	0.0992881
162	0x3dabc71b	0.08387586
163	0x3e81a34f	0.25319907
164	0x3daf9cef	0.085748546
165	0x3d867808	0.06565863
166	0xbc17dd87	-0.009269125
167	0xbc71e121	-0.014763148
168	0x3b112e65	0.0022152897
169	0xbd489d3d	-0.04897808
170	0xbd81e66d	-0.06342778
171	0xbd8d2cb9	-0.06893296
172	0xbd7d5a54	-0.06185372
173	0xbd622743	-0.055213224
174	0xbdc0ef6b	-0.09420665
175	0xbd586a43	-0.052835714
176	0xbbab501a	-0.0052280547
177	0xbbe943c7	-0.0071186754
178	0x3cd2624c	0.025681637
179	0x3da17c23	0.07885005
180	0x3d8f2fcb	0.06991538
181	0x3da13611	0.078716405
182	0x3e76eb56	0.24113211
183	0x3d9e0493	0.07715716
184	0xbd8b5983	-0.068041824
185	0xbcd42c8b	-0.025900146
186	0xbdad9a8f	-0.08476745
187	0xbd687b9e	-0.056758516
188	0xbccbda4f	-0.024884371
189	0xbd871f7f	-0.06597804
190	0xbdb63edf	-0.088987105
191	0xbcc8f79c	-0.024532132
192	0xbd94ed84	-0.07271865
193	0xbd76c9cd	-0.060251046
194	0xbd4cd562	-0.050008185
195	0xbd75ca62	-0.06000746
196	0xbba3034c	-0.0049747583
197	0x3d87776d	0.066145755
198	0x3e740190	0.23828721
199	0x3e397f66	0.18115005
200	0x3e8c84e6	0.27445143
201	0xbdc6d201	-0.09708024
202	0xbd928789	-0.071547575
203	0xbcba9199	-0.022774504
204	0xbd90ef84	-0.07076934
205	0xbd727581	-0.05919409
206	0xbd55f345	-0.052233953
207	0xbdb77e04	-0.089595824
208	0x3d9614e2	0.07328202
209	0xbd5b5d49	-0.05355576
210	0xbd96be2b	-0.073604904
211	0xbd59ff20	-0.05322182
212	0xbd4406d5	-0.047858078
213	0xbdaf4feb	-0.08560165
214	0xbd5b03e5	-0.05347051
215	0x3d64eaf8	0.055888146
216	0x3e598429	0.21241821
217	0xbd794f79	-0.060866807
218	0x3d1c61fb	0.03817938
219	0xbcb71c3c	-0.02235233
220	0xbd167a77	-0.036737885
221	0xbd9cc6ae	-0.07655083
222	0xbd962f9c	-0.073332995
223	0xbd41ff14	-0.047362402
224	0xbd8e4182	-0.069460884
225	0xbd5eba2c	-0.054376766
226	0x3d9f4252	0.077763215
227	0xbdbcfd00	-0.092279434
228	0xbd8d848f	-0.06910049
229	0xbce6dd39	-0.028181659
230	0xbd86f8d0	-0.06590426
231	0xbd3ccf4a	-0.046096124
232	0xbd99f909	-0.07518203
233	0xbd95c737	-0.07313388
234	0x3e172282	0.14759257
235	0xbd8be78f	-0.06831276
236	0xbd4f0e18	-0.05055055
237	0xbd04d5f3	-0.0324306
238	0xbd55487f	-0.05207109
239	0xbd3ecd9e	-0.04658281
240	0xbd8ccb10	-0.068746686
241	0xbd86f4a2	-0.06589629
242	0x3d52559c	0.051351175
243	0x3da76ba5	0.081748284
244	0xbd748411	-0.05969626
245	0xbd8d7bef	-0.06908404
246	0xbd55d6fe	-0.052206986
247	0xbd808504	-0.06275371
248	0xbd4946de	-0.04913985
249	0xbdb2c0e5	-0.08728198
250	0xbd62def2	-0.0553884
251	0x3c15ec65	0.009150599
252	0xbd921bb4	-0.0713419
253	0xbd601dca	-0.05471591
254	0xbd49cfb3	-0.049270343
255	0xbd8e330f	-0.069433324

model.0.bias f4 [32]
0	0xbe8e4ea0	-0.2779436
1	0xbe022ccc	-0.12712401
2	0xbe1eec47	-0.1551982
3	0xbe5a48f9	-0.213169
4	0xbe852b5b	-0.2600964
5	0xbd6b6aac	-0.057474777
6	0xbd8e94b8	-0.069619596
7	0xbe336f56	-0.1752294
8	0xbd835174	-0.0641202
9	0xbd7e6a20	-0.062112927
10	0x3e991f54	0.29906714
11	0xbdaf342e	-0.08554874
12	0xbe7d7fb0	-0.2475574
13	0xbd7b551d	-0.061360467
14	0x3ea6bb42	0.3256474
15	0x3ed5ce67	0.41759035
16	0xbe359d37	-0.17735754
17	0x3b9b0162	0.0047303895
18	0xbe227d16	-0.15868029
19	0xbe716889	-0.23575033
20	0xbe53e882	-0.20694163
21	0x3eebcaff	0.4605331
22	0x3eac8fc1	0.33703426
23	0xbe4e2e05	-0.20134743
24	0xbd794c9d	-0.06086408
25	0x3e2dec8e	0.1698477
26	0x3ebe6340	0.37185097
27	0xbe6c9674	-0.23104268
28	0xbe72fe10	-0.2372973
29	0xbe8632e8	-0.26210713
30	0x3c4bc18f	0.012436285
31	0xbe82324f	-0.25429007

model.2.weight f4 [32, 32]
0	0xbe31ad3f	-0.17351244
1	0xbe48eb27	-0.19620954
2	0xbe14ffe7	-0.14550744
3	0x3cdef5cb	0.027216813
4	0xbdedf4c2	-0.116189495
5	0x3e649d8a	0.22325721
6	0xbc2424f0	-0.010018572
7	0xbdf2c654	-0.11854234
8	0x3e212f43	0.15740685
9	0xbd83be85	-0.06432823
10	0x3eb94f3a	0.36193258
11	0xbd2e2072	-0.04251141
12	0x3cd5fe33	0.026122188
13	0xb9678d2b	-0.00022082466
14	0x3d98f851	0.074692376
15	0x3e9db6ff	0.30803677
16	0xbe590364	-0.211927
17	0x3d867fe9	0.06567366
18	0x3df61dec	0.12017426
19	0xbd16c603	-0.036809932
20	0xbcefc5b3	-0.029269075
21	0x3e3a7c76	0.1821154
22	0x3e025a85	0.12729843
23	0xbe1e4179	-0.15454663
24	0x3e1d37aa	0.15353265
25	0x3e52676a	0.20547262
26	0x3e39db2a	0.1815001
27	0xbb587168	-0.003302658
28	0x3dea8552	0.1145121
29	0x3db54b4e	0.08852254
30	0xbe4eb229	-0.2018515
31	0xbe2945e3	-0.16530566
32	0xbe385b16	-0.18003497
33	0x3d8ac32d	0.06775508
34	0x3aee3284	0.0018173014
35	0xbdfb40ed	-0.12268243
36	0x3dab1594	0.08353725
37	0x3dcca596	0.099925205
38	0xbd500699	-0.050787542
39	0xbe136288	-0.14393055
40	0x3d5c12e9	0.05372897
41	0xbc3f70fb	-0.0116846515
42	0x3d2a8a59	0.041635845
43	0xbdd4f628	-0.10398513
44	0x3da0add4	0.07845655
45	0xbc38d751	-0.011281804
46	0x3dd993b8	0.10623878
47	0xbe3aab6a	-0.18229452
48	0xbe0d8ea9	-0.13823952
49	0x3db833eb	0.089942776
50	0x3cfab9f2	0.030606244
51	0xbe3c591c	-0.18393368
52	0xbd7d0cff	-0.061779972
53	0xbe40c4c5	-0.18825062
54	0xbe38a7f5	-0.1803282
55	0xbe185df2	-0.14879587
56	0x3e23088f	0.15921234
57	0xbde191e1	-0.11014152
58	0xbb971a16	-0.004611264
59	0xbd140298	-0.036135286
60	0xbe42ce52	-0.19024017
61	0xbdfe8722	-0.12428118
62	0xbdb25650	-0.08707869
63	0xbd8bc646	-0.06824927
64	0xbe57d04a	-0.2107555
65	0xbdc9d14d	-0.09854374
66	0xbe3fac80	-0.18718147
67	0xbde1de5b	-0.11028739
68	0xbd88bbb6	-0.06676428
69	0xbe20c149	-0.15698732
70	0xbe0c91fd	-0.13727565
71	0xbe473ce5	-0.19456823
72	0x3e1b7236	0.15180287
73	0x3d8b788b	0.06810101
74	0xbe88913a	-0.266733
75	0x3d695c48	0.056972772
76	0xbde3ec96	-0.111291096
77	0xbe22b51e	-0.15889403
78	0x3d38ee48	0.045149118
79	0x3ddfffd0	0.10937464
80	0x3e1428ff	0.14468764
81	0x3e053ac2	0.13010696
82	0xbe26f3d4	-0.1630395
83	0xbda337a7	-0.07969599
84	0x3db687c7	0.08912616
85	0x3cce623d	0.025193328
86	0x3dda0a6a	0.106465176
87	0xbcffdb2c	-0.031232439
88	0xbdfeb454	-0.124367386
89	0xbe327f0d	-0.17431279
90	0xbe98bf1a	-0.298333
91	0x3d89b376	0.067236826
92	0xbe173707	-0.14767085
93	0xbdcd9c50	-0.1003958
94	0xbe08ed29	-0.1337172
95	0xbdd3ef12	-0.103483334
96	0x3ded91a9	0.11600048
97	0xbd7ed899	-0.062218282
98	0x3e2a7bb6	0.16648754
99	0x3d376169	0.044770632
100	0x3d0a9e95	0.03384264
101	0x3bfc7f53	0.007705608
102	0xbd27c10a	-0.04095558
103	0xbe1facdc	-0.15593284
104	0x3dea31cc	0.11435279
105	0xbd004ea7	-0.03132501
106	0x3d407382	0.046985157
107	0xbd2a8ca3	-0.041638028
108	0x3c665601	0.014058591
109	0xbe00cb05	-0.12577446
110	0x3e739cdd	0.23790307
111	0xbcf19453	-0.029489672
112	0xbe11de45	-0.14244945
113	0x3d20fe34	0.039304927
114	0xbd4a81f3	-0.049440335
115	0xbcff741e	-0.031183299
116	0x3c6f47a5	0.014604484
117	0x3e3c0180	0.18359947
118	0x3d3265ae	0.043554
119	0x3d590b06	0.05298903
120	0xbc0c469b	-0.0085617555
121	0xba91a4ea	-0.001111177
122	0x3e7100e8	0.23535502
123	0x3d93d004	0.0721741
124	0x3e3121aa	0.17297998
125	0x3e090b31	0.13383175
126	0xbe72cbbe	-0.23710534
127	0x3daf09aa	0.08546765
128	0xbcc1f529	-0.023676472
129	0x3e2978f2	0.16550043
130	0x3c0ace0d	0.008471978
131	0xbeb3cb0f	-0.3511586
132	0x3d58d2fd	0.05293559
133	0xbd23ca2b	-0.039987724
134	0x3e33e216	0.17566714
135	0x3bc8968c	0.006121462
136	0xbc33047e	-0.010926364
137	0x3da9efd1	0.082976945
138	0xbd9c8622	-0.07642771
139	0xbde1bdc3	-0.11022522
140	0x3dcbd9c6	0.09953646
141	0xbd7ac717	-0.061225023
142	0xbdccfe39	-0.100094266
143	0xbdf41189	-0.11917407
144	0xbd34aae6	-0.044108294
145	0xbdee4343	-0.11633923
146	0x3cc58571	0.024111481
147	0x3ce4743c	0.027887456
148	0x3e2b132e	0.16706535
149	0xbdbe38f8	-0.0928821
150	0xbe3f8462	-0.18702844
151	0x3e5c3612	0.21505001
152	0xbd06a5b9	-0.03287289
153	0xbda820a2	-0.08209349
154	0xbe7672ab	-0.2406718
155	0x3d5f33f1	0.054492895
156	0x3d44a25b	0.048006397
157	0x3d49ebfe	0.049297325
158	0xbd306e77	-0.043074097
159	0x3e0521aa	0.13001123
160	0xbdac784f	-0.084213845
161	0xbc1b6bb0	-0.009486124
162	0xbd812b40	-0.063070774
163	0x3d0e1834	0.03469105
164	0x3e1bea83	0.15226178
165	0xbdc981b7	-0.09839194
166	0xbddf3574	-0.10898867
167	0xbd69adf6	-0.057050668
168	0xbd984b7b	-0.07436272
169	0x3e046325	0.12928446
170	0xbdded798	-0.10880965
171	0x3e104289	0.14087881
172	0x3db90cc6	0.090356395
173	0x3e25c3ab	0.16187923
174	0xbdf93373	-0.12168016
175	0x3d89cbe0	0.06728339
176	0xbe20cac6	-0.15702352
177	0xbe25ad79	-0.16179456
178	0x3dab0cd2	0.08352055
179	0x3d325c94	0.04354532
180	0x3d235154	0.039872482
181	0xbdc8f341	-0.09812022
182	0x3c2ad130	0.010425851
183	0x3dee5f66	0.116392896
184	0x3de451c2	0.111484066
185	0xbe32fb18	-0.17478597
186	0x3d5c2f54	0.053756073
187	0xbd5eadcc	-0.054364964
188	0x3dfc11be	0.123080716
189	0xbe17eaae	-0.14835617
190	0xbdcbc081	-0.099488266
191	0xbc851468	-0.016245082
192	0xbe310786	-0.17288026
193	0x3deabdba	0.11461969
194	0xbe19fa0e	-0.15036795
195	0xbe25fc92	-0.16209629
196	0x3e2af889	0.16696371
197	0x3dc1b697	0.094586544
198	0xbe2b3f8c	-0.1672346
199	0xbddf1e2c	-0.10894427
200	0xbe297fe2	-0.1655269
201	0xbd3bce1c	-0.045850858
202	0xbdf21d03	-0.1182194
203	0xbd96c0f8	-0.073610246
204	0x3d073a70	0.033014715
205	0xbe0f5a08	-0.13999188
206	0x3dcad401	0.09903718
207	0x3d949abe	0.07256077
208	0xbd4f7a10	-0.050653517
209	0x3db8be87	0.09020715
210	0xbe2b381e	-0.16720626
211	0xbbc1bb5b	-0.005912227
212	0x3d1e9bc8	0.038722783
213	0x3d75a5a4	0.05997242
214	0xbdb6426b	-0.08899387
215	0xbdc754d9	-0.0973298
216	0xbdf3a786	-0.11897187
217	0xbe267aad	-0.16257735
218	0xbe0088e9	-0.12552227
219	0x3c7cb3f0	0.01542376
220	0x3d6897b5	0.056785304
221	0x3d583358	0.05278334
222	0x3dd74944	0.10512021
223	0x3da117aa	0.07865842
224	0xbe659243	-0.22419076
225	0xbd6299a3	-0.0553223
226	0xbe241a02	-0.16025546
227	0xbe5f0eb8	-0.21782959
228	0xbe4289b1	-0.18997838
229	0xbd16a34e	-0.036776833
230	0xba47ce0b	-0.00076219504
231	0x3c53a91e	0.012918739
232	0x3e30bd96	0.17259821
233	0x3e297de9	0.16551937
234	0xbe83107b	-0.2559851
235	0xbcee297e	-0.02907252
236	0xbe043561	-0.12910987
237	0x3d13afba	0.036056258
238	0xbe89c154	-0.2690531
239	0xbe8306c6	-0.25591105
240	0x3d9a7f26	0.07543783
241	0x3dd8aa57	0.10579365
242	0xbe11f720	-0.14254427
243	0xbd9eb3f0	-0.07749164
244	0xbe5530f1	-0.20819451
245	0xbe982747	-0.29717466
246	0xbee2e511	-0.4431539
247	0xbd70f94c	-0.058831498
248	0xbe1ad50e	-0.15120336
249	0x3c69ddd4	0.014274079
250	0xbe627fb8	-0.22119033
251	0x3ccf0b12	0.025273833
252	0xbeb9c060	-0.36279583
253	0xbe2fdb38	-0.17173469
254	0xbd3714b7	-0.04469749
255	0xbe2e9670	-0.17049575

model.2.bias f4 [32]
0	0x3f036a9e	0.5133456
1	0xbc1f9a23	-0.009741339
2	0xbdac4e4d	-0.08413372
3	0x3edcfa90	0.43159914
4	0xbaa924b7	-0.0012904619
5	0xbda98256	-0.08276813
6	0xbe55e4a8	-0.20888007
7	0x3d488d76	0.048963033
8	0xbd041456	-0.032245956
9	0x3f0a3a75	0.5399545
10	0xbb307ffa	-0.0026931749
11	0xbe3428ba	-0.17593661
12	0xbdd38d27	-0.10329657
13	0xbd4b3c5f	-0.04961812
14	0x3eb84aa8	0.35994458
15	0x3ed99213	0.42494258
16	0x3ee0f284	0.43935025
17	0xbe1f74e9	-0.15571941
18	0x3e9b3520	0.3031397
19	0xbe1ad295	-0.15119393
20	0x3eef0cbb	0.466894
21	0x3edd5ee1	0.4323645
22	0x3ee50b68	0.44735265
23	0xbd59e8b3	-0.053200435
24	0x3ede5246	0.43422145
25	0xbc3649d3	-0.0111259995
26	0xbd2ef558	-0.042714447
27	0xbe8457c0	-0.25848198
28	0xbd3d23ff	-0.046176907
29	0x3efb9152	0.49134308
30	0xbd93e1b2	-0.07220782
31	0x3eeea41d	0.46609583

model.4.weight f4 [1, 32]
0	0x3e96b45b	0.29434475
1	0x3e100521	0.14064457
2	0xbc685da2	-0.01418248
3	0x3e7b38f0	0.24533439
4	0xbd91fecf	-0.07128679
5	0x3a309500	0.000673607
6	0x3b0e7f91	0.0021743516
7	0xbdf96efe	-0.12179373
8	0x3cbb3a46	0.022854935
9	0x3e9100f3	0.28321037
10	0x3d0cc418	0.034366697
11	0x3ddddd7a	0.10833259
12	0x3d17a10c	0.03701882
13	0x3c7baa1e	0.015360383
14	0x3e9ba415	0.30398622
15	0x3e89748d	0.26846734
16	0x3e90d73b	0.28289208
17	0x3e10cb5f	0.1414008
18	0x3e57f9ab	0.21091335
19	0x3bfda441	0.007740528
20	0x3e8b4d08	0.27207208
21	0x3ea29e43	0.3176137
22	0x3ec4f1a5	0.3846561
23	0xbd210872	-0.039314695
24	0x3e58ea66	0.21183166
25	0xbdf4f24b	-0.11960276
26	0x3b1266cc	0.0022339104
27	0xbc757292	-0.014980929
28	0xbdeaf27e	-0.11472033
29	0x3eb50636	0.353563
30	0xbd9a6c83	-0.07540228
31	0x3ecc12cb	0.39858088
