models/empowerment_5_steps/TwoRoom-v0_decoder.pth (torch_old, 497660 bytes, 6 tensors)

model.0.weight f4 [32, 622]
0	0xbf1f01c0	-0.62112045
1	0xbf0b58b3	-0.5443222
2	0xbf040615	-0.5157178
3	0xbec38212	-0.38185173
4	0xbe1b42f5	-0.15162261
5	0xbe127b6b	-0.14304893
6	0xbe03e54c	-0.12880439
7	0xbd6f8e2f	-0.058485206
8	0xbee67ab5	-0.45015493
9	0xbef88eae	-0.48546356
10	0xbe71c068	-0.23608553
11	0xbe8042b0	-0.2505088
12	0xbe143a0e	-0.14475271
13	0xbc51a963	-0.012796733
14	0xbcdd71ab	-0.02703174
15	0x3e02038c	0.12696666
16	0x3e715ce8	0.23570597
17	0xbf03ce17	-0.51486343
18	0xbed68c6a	-0.41904002
19	0xbeac7529	-0.33683136
20	0xbe15f855	-0.14645512
21	0x3da7260a	0.08161552
22	0x3d801760	0.062544584
23	0x3de8b314	0.113622814
24	0x3cfbd5ca	0.030741591
25	0xbeb3acef	-0.35092875
26	0xbe8995cd	-0.268721
27	0xbe7af72a	-0.24508348
28	0xbddbbac9	-0.10728986
29	0x3c9177be	0.017757293
30	0x3e100d45	0.14067562
31	0x3e58163c	0.21102232
32	0x3eaaccf6	0.33359498
33	0x3eb1adca	0.34702903
34	0xbf073772	-0.5281898
35	0xbec09491	-0.37613347
36	0xbe8561b6	-0.2605111
37	0xbe3cf8b4	-0.18454248
38	0xbddd5431	-0.10807074
39	0x3c82d755	0.015971819
40	0x3d960709	0.073255606
41	0x3de626d1	0.112378724
42	0xbe991914	-0.29901946
43	0xbe7c0be2	-0.24613908
44	0xbe4655b8	-0.19368637
45	0xbd979dff	-0.07403182
46	0x3d280a0c	0.041025206
47	0x3e3884e2	0.18019441
48	0x3e89f404	0.26943982
49	0x3e9420a3	0.2893115
50	0x3ea577c1	0.32317927
51	0xbef5eab5	-0.4803063
52	0xbec217b3	-0.37908706
53	0xbe916e72	-0.28404576
54	0xbe26deac	-0.1629588
55	0xbd15ae35	-0.03654309
56	0xbb479504	-0.003045381
57	0x3dc1185c	0.09428474
58	0x3df247f3	0.118301295
59	0xbe92069c	-0.28520668
60	0xbe8086c3	-0.25102815
61	0xbdddc44e	-0.10828458
62	0xbd1b4ac5	-0.037913103
63	0x3dfe8f31	0.12429655
64	0x3dee231d	0.11627791
65	0x3e90212f	0.28150317
66	0x3ec58be7	0.385833
67	0x3eddad20	0.43296146
68	0xbeee7c76	-0.4657933
69	0xbea33a33	-0.3188034
70	0xbe4b0c05	-0.19828804
71	0xbdc3c648	-0.095593035
72	0x3dc77ad4	0.097402245
73	0x3e2f47a1	0.17117168
74	0x3e44b24b	0.19208638
75	0x3e6451d1	0.22296835
76	0xbed9ba9f	-0.42525193
77	0xbea56b4c	-0.32308424
78	0xbdb21c43	-0.08696797
79	0xbb7d387b	-0.0038638401
80	0x3e0a2b31	0.13493039
81	0x3db3e90a	0.08784683
82	0x3e90dd6a	0.28293926
83	0x3e945be3	0.28976354
84	0x3ecb43e6	0.3970024
85	0xbed0e7ba	-0.40801793
86	0xbe7b4987	-0.24539767
87	0xbdb025a6	-0.08600931
88	0x3ce00782	0.02734733
89	0x3e0ece71	0.13945939
90	0x3e9ede5e	0.31029028
91	0x3ebf2d75	0.37339368
92	0x3e4f1b63	0.20225291
93	0xbed1b6fb	-0.40959916
94	0xbe9e7db5	-0.30955282
95	0xbe5b70ac	-0.214297
96	0x3ce4daec	0.027936421
97	0x3e455784	0.19271666
98	0x3e32a546	0.1744586
99	0x3e916640	0.28398323
100	0x3ea8686e	0.32892174
101	0x3ec64eba	0.3873194
102	0xbec90c83	-0.39267358
103	0xbe9828bf	-0.29718587
104	0xbc867325	-0.016412327
105	0x3dd6ddb9	0.10491509
106	0x3e871d11	0.26389363
107	0x3ec350f2	0.38147694
108	0x3e11aafd	0.14225383
109	0xbd156d20	-0.036481023
110	0xbef16a44	-0.47151387
111	0xbecce35b	-0.40017208
112	0xbe685570	-0.22688842
113	0x3be03852	0.0068426514
114	0x3e5622a6	0.20911655
115	0x3e440cc9	0.19145502
116	0x3eb88c83	0.36044702
117	0x3ebf557f	0.37369916
118	0x3ed01465	0.4064056
119	0xbed4a415	-0.41531435
120	0xbe937700	-0.28801727
121	0xbd86aafd	-0.06575582
122	0x3e453509	0.19258513
123	0x3eaccf81	0.33752063
124	0x3e850753	0.2598215
125	0x3dcdc1b2	0.1004671
126	0xbf564f03	-0.8371431
127	0xbf64417b	-0.89162415
128	0xbf67da44	-0.9056742
129	0xbf006127	-0.5014824
130	0xbe8bbd11	-0.27292684
131	0xbca79c2b	-0.020460209
132	0x3e68e056	0.22741827
133	0x3e8cdc55	0.2751185
134	0x3ecfe480	0.4060402
135	0x3eb9463b	0.36186394
136	0x3ee1734e	0.44033283
137	0xbec8697d	-0.3914298
138	0xbea62f37	-0.32457897
139	0xbc7e48db	-0.0155203
140	0x3e4fb684	0.20284468
141	0x3ebe79ca	0.37202293
142	0x3e944231	0.2895675
143	0x3e2494c7	0.16072379
144	0xbf5e0058	-0.86719275
145	0xbf654fd5	-0.8957494
146	0xbf65fa13	-0.8983471
147	0xbef922ed	-0.4865946
148	0xbea2fc65	-0.31833187
149	0x3dfc9d67	0.123347096
150	0x3e4064b2	0.18788412
151	0x3e86fbec	0.26364076
152	0x3eb3255a	0.34989434
153	0x3ec4cc4b	0.38437113
154	0x3ec2935e	0.38003057
155	0xbec00a2a	-0.37507755
156	0xbe916a34	-0.2840134
157	0x3b8950c0	0.0041905344
158	0x3e653c95	0.22386391
159	0x3f01b061	0.5065976
160	0x3e9421b3	0.2893196
161	0x3e6a9b78	0.22910869
162	0xbf4faeb7	-0.8112597
163	0xbf5b52aa	-0.8567301
164	0xbf698240	-0.9121437
165	0xbedad5ab	-0.4274114
166	0xbe87c7a0	-0.2651949
167	0xbd420396	-0.0473667
168	0x3e6fc2b9	0.23414125
169	0x3eb1ffd5	0.34765497
170	0x3ea9a91d	0.33136836
171	0x3f06e7a0	0.5269718
172	0x3ed5928a	0.41713363
173	0xbeadb273	-0.33925208
174	0xbe424cdd	-0.18974634
175	0xbd242404	-0.04007341
176	0x3e5ddb13	0.21665601
177	0x3ef14269	0.4712098
178	0x3e8fea35	0.28108373
179	0x3e279875	0.16366751
180	0xbf47baf1	-0.78019625
181	0xbf50c090	-0.8154383
182	0xbf4177f0	-0.75573635
183	0xbec9577c	-0.39324558
184	0xbe5bfc38	-0.21482933
185	0x3d8dd21f	0.06924843
186	0x3ea3953c	0.31949794
187	0x3e8d1213	0.27552852
188	0x3e8b58d4	0.27216208
189	0x3ea075bd	0.31339827
190	0x3edd7d07	0.4325945
191	0xbe97f057	-0.29675552
192	0xbe3384f6	-0.1753119
193	0xbda0c01d	-0.07849143
194	0x3e5d197a	0.2159175
195	0x3ecdfe17	0.40232918
196	0x3e106b9e	0.14103553
197	0x3e36a8e1	0.1783786
198	0xbc80b90d	-0.01571324
199	0xbf55ec13	-0.83563346
200	0xbf3cfe5f	-0.7382564
201	0xbec64250	-0.38722467
202	0xbe2966f5	-0.16543181
203	0x3ece8633	0.4033676
204	0x3e9f165b	0.31071743
205	0x3e9daa30	0.30793905
206	0x3f07b77f	0.5301437
207	0x3eea59ef	0.4577174
208	0x3eef26f7	0.46709415
209	0xbe8a34fe	-0.26993555
210	0xbdd4761c	-0.1037409
211	0xbd474ff5	-0.048660237
212	0x3e51107f	0.20416449
213	0x3ec3ec8a	0.38266402
214	0x3eb5fda8	0.35545087
215	0x3e313184	0.17304045
216	0xbd00aa6f	-0.03141254
217	0xbec55db2	-0.38548046
218	0xbe559b95	-0.20860131
219	0xbb065524	-0.0020497525
220	0x3ecb6f0c	0.3973316
221	0x3eb86f6a	0.36022502
222	0x3eb6cc97	0.35702965
223	0x3ef1fd7c	0.47263706
224	0x3edccf3a	0.4312685
225	0x3eec5e11	0.46165517
226	0xbe4b4f5b	-0.1985449
227	0xbe3b4f34	-0.18291932
228	0xbdae9712	-0.08524908
229	0x3d626565	0.05527248
230	0x3e86854b	0.2627357
231	0x3eedb486	0.4642679
232	0x3ec5009b	0.38477024
233	0x3e98b574	0.29825938
234	0xbe948e1b	-0.29014668
235	0xbdb7ac16	-0.0896837
236	0x3e803c1c	0.2504586
237	0x3ead4b83	0.33846673
238	0x3ebdb224	0.37049973
239	0x3ed4b990	0.41547823
240	0x3f08d6cb	0.5345275
241	0x3efd1ee1	0.4943762
242	0x3ef568dd	0.47931567
243	0xbe9c1604	-0.30485547
244	0xbe5e6c46	-0.2172099
245	0x3c822166	0.015885066
246	0x3e0f76b5	0.14010127
247	0x3e41b566	0.18916854
248	0x3eb0060f	0.34379622
249	0x3ee3b06e	0.44470543
250	0x3ee71013	0.4512945
251	0xbe244972	-0.16043642
252	0xbd3ef317	-0.046618547
253	0x3e8b6170	0.27222776
254	0x3ebde136	0.37085885
255	0x3e9a8c45	0.30185142

model.0.bias f4 [32]
0	0x3ea657cb	0.32488856
1	0x3dcbe3fe	0.099555954
2	0x3f11b653	0.5691883
3	0x3f3cd21a	0.7375809
4	0x3e5800bc	0.2109403
5	0x3e902d8f	0.28159758
6	0x3e839031	0.25695947
7	0x3ea3a2c5	0.3196012
8	0x3eab69b7	0.33479092
9	0x3eaf1c56	0.34201306
10	0x3e879de5	0.2648765
11	0x3ed19539	0.4093416
12	0x3ed999f8	0.4250028
13	0x3e586c9d	0.21135183
14	0x3f017770	0.5057287
15	0x3e8de279	0.27711847
16	0x3ed4126b	0.41420302
17	0x3e82fef3	0.25585136
18	0x3de5e85c	0.1122596
19	0x3e7a6290	0.24451661
20	0x3dabb951	0.08384956
21	0x3e04a20c	0.12952441
22	0x3f0657cd	0.52477723
23	0x3e72486f	0.23660444
24	0x3e66efee	0.22552463
25	0x3eef086a	0.46686107
26	0x3e6c25a8	0.2306124
27	0x3e558e40	0.20855045
28	0x3e9e1fbd	0.3088359
29	0x3ecf3d28	0.40476346
30	0x3e3d9d0d	0.18516941
31	0x3e63d481	0.22249033

model.2.weight f4 [32, 32]
0	0xbefdbe36	-0.49559182
1	0x40198729	2.3988745
2	0x3f4cd835	0.80017406
3	0xbf89db47	-1.0770043
4	0x400e96a0	2.2279434
5	0x3d476659	0.04868159
6	0x3ec8e8dd	0.3924016
7	0x40417e9a	3.0233521
8	0xbfdb1a1b	-1.7117342
9	0xbf45cf92	-0.7726985
10	0x3fda2a76	1.7044208
11	0xc008bee1	-2.1366503
12	0x3ed874b8	0.4227655
13	0x3e5a9b6f	0.21348356
14	0x3fac37bd	1.345451
15	0x4009b63a	2.1517472
16	0x3da19fc9	0.07891805
17	0x3c6c3d32	0.014418887
18	0xbe9ecac6	-0.3101408
19	0xbf8e623e	-1.1123731
20	0x3fdc2dac	1.7201438
21	0x3f515c58	0.8178153
22	0xbfa0b149	-1.2554103
23	0x3f5554f3	0.8333275
24	0x3f656a3d	0.8961523
25	0xc01b7a85	-2.429353
26	0x3fe49213	1.7857078
27	0x3fd39031	1.6528379
28	0x40582e26	3.3778167
29	0x3f8d6d27	1.1048936
30	0xbf2d36e3	-0.67661875
31	0x3f9c099f	1.2190436
32	0x3e9d9217	0.3077552
33	0x4038f4ea	2.8899484
34	0x3fa93bd8	1.3221388
35	0xbf67df83	-0.90575427
36	0x40256a96	2.5846305
37	0x3f053600	0.5203552
38	0x3fb3af09	1.4037791
39	0x40662d6b	3.596522
40	0xbfee278e	-1.8605821
41	0xbfa8f5ed	-1.320005
42	0x3fd11ce6	1.6336944
43	0xc007f7b8	-2.1244946
44	0xbde89d28	-0.113581
45	0x3ec8a7af	0.39190432
46	0x3fa3929b	1.2779115
47	0x4017dd01	2.372864
48	0xbf8178c7	-1.0114983
49	0xbebba382	-0.36648184
50	0x3efee66d	0.49785176
51	0xbf694001	-0.9111329
52	0x3ffbf7c2	1.9684985
53	0x3f4a2b56	0.78972375
54	0xbff8d873	-1.9441055
55	0x3f289086	0.65845525
56	0x3fcea7fb	1.6145014
57	0xc03981a1	-2.898537
58	0x400ba0d7	2.181692
59	0x3fdeb544	1.7399068
60	0x40669db0	3.6033745
61	0x3fc4c4d8	1.5372572
62	0xbf01801f	-0.5058612
63	0x3f9bff20	1.2187233
64	0x3cfd546c	0.030924045
65	0xbdb5ea52	-0.08882584
66	0xbe0e4e69	-0.13897099
67	0x3d077bed	0.03307717
68	0xbdf98da4	-0.12185219
69	0xbe311441	-0.17292883
70	0x3cd40351	0.025880488
71	0x3d3e55c4	0.04646851
72	0x3d5bfc20	0.053707242
73	0xbe4610c2	-0.1934233
74	0x3d8d7184	0.06906417
75	0xbcad7952	-0.021176014
76	0x3d1c8897	0.0382162
77	0x3d91dc05	0.071220435
78	0xbe0cef7d	-0.13763233
79	0xbc2cb0e5	-0.010540222
80	0x3df8f2dd	0.121556975
81	0xbdfe31a3	-0.12411811
82	0x3d4ba3ff	0.049716946
83	0xbe490084	-0.19629103
84	0x3de6866a	0.11256106
85	0x3d822d71	0.063563235
86	0xbe3bb2cf	-0.18329929
87	0xbd942f8c	-0.07235631
88	0x3ddaee25	0.10689954
89	0xbc80638f	-0.015672473
90	0x3d1d98a5	0.03847565
91	0x3ca054a7	0.019571615
92	0xbd8558a4	-0.065110475
93	0xbe0a59d0	-0.13510823
94	0x3d85847d	0.06519411
95	0xbcc6553d	-0.024210567
96	0xbc947fa9	-0.01812728
97	0x3c8aa453	0.016924059
98	0x3d0593d5	0.032611687
99	0xbdb8a0bc	-0.09015033
100	0xbe22ae72	-0.15886858
101	0xbd0f3664	-0.03496398
102	0xbce83b10	-0.028348476
103	0x3c015ff0	0.007896408
104	0xbdcf76a1	-0.101300485
105	0xbe227871	-0.15866257
106	0xbddafadd	-0.106923796
107	0xbe375883	-0.17904858
108	0x3d0dc590	0.03461224
109	0xbe3bb9ec	-0.18332642
110	0xbd5144af	-0.051090892
111	0x3cad0b32	0.021123502
112	0x3da24453	0.07923188
113	0xbd43d358	-0.047808975
114	0xbe13bb66	-0.14426956
115	0xbe5f8bd4	-0.21830684
116	0x3c2f23fa	0.01068973
117	0x3d98c9e1	0.0746038
118	0x3dd0149b	0.1016018
119	0xbe0a5f74	-0.13512975
120	0x3e04ae01	0.12957002
121	0x3ddf5850	0.10905516
122	0xbdf411a7	-0.119174294
123	0x3d553fa0	0.05206263
124	0xbe65020e	-0.22364065
125	0xbcdb648b	-0.026781341
126	0x3d805de4	0.06267908
127	0x3db5e133	0.08880844
128	0x3f79a718	0.9752059
129	0xbf97f3bf	-1.187126
130	0xbf028a00	-0.5099182
131	0x3fffb363	1.997662
132	0xbe91ab90	-0.28451204
133	0x3e9369fa	0.2879179
134	0xbff94ef4	-1.947722
135	0xc0808a8b	-4.016912
136	0x3fdf9f4f	1.7470492
137	0x400da1e8	2.213007
138	0x3f1ab1db	0.60427636
139	0x4026c8b4	2.606
140	0x3fc993e8	1.5748262
141	0x3fcba1df	1.5908774
142	0x4027878e	2.6176486
143	0xc01fdd40	-2.497879
144	0x3fdef333	1.7417969
145	0x3eeb2be0	0.4593191
146	0xbcf8687e	-0.030323263
147	0x4039f84a	2.9057794
148	0xbfd025b3	-1.6261505
149	0x3f80bef4	1.0058274
150	0x4031cc7a	2.7781053
151	0xbfac89c8	-1.3479548
152	0xbf8af153	-1.0854896
153	0x40780a21	3.8756182
154	0xc026a702	-2.6039433
155	0xbee14c05	-0.4400331
156	0xc067a2df	-3.6193159
157	0xc02409e8	-2.5631046
158	0x3fe1f5a5	1.765309
159	0xbfd4722a	-1.659734
160	0xbf593b03	-0.8485567
161	0xbf1ea795	-0.6197446
162	0x3f4846cd	0.78233033
163	0x3e9abe11	0.30223134
164	0xbfbece41	-1.4906694
165	0xbf9f77f5	-1.2458483
166	0x3fa9c6ac	1.3263755
167	0xbf7ad1fa	-0.9797665
168	0x3fd2cdb1	1.6469022
169	0x3fad4144	1.3535542
170	0xbf9326a6	-1.149617
171	0x3fb67ab8	1.4256201
172	0x3f4cc0f2	0.7998191
173	0xbe8b0c2b	-0.2715772
174	0xbfbc1c42	-1.4696124
175	0x3eaf8451	0.34280637
176	0x3f92c175	1.1465288
177	0x3fbc9c35	1.4735171
178	0xbd8dedc7	-0.06930118
179	0xbec1d8c0	-0.3786068
180	0xbcf9dbf2	-0.030500386
181	0xbf3e8f8a	-0.74437773
182	0x3fa5bd1e	1.2948339
183	0x3f8e1dfe	1.1102903
184	0xbf7c3392	-0.9851619
185	0x3f2857f7	0.65759224
186	0x3f336d90	0.70089054
187	0xbf849090	-1.0356617
188	0xbf566b5a	-0.83757555
189	0x3f8c1fd5	1.0947214
190	0xbcfc75f1	-0.030817958
191	0x3f687675	0.9080575
192	0x3fc24738	1.5177984
193	0x3f577c09	0.8417364
194	0x3f4d4938	0.8018985
195	0x3fb75a25	1.4324385
196	0x3f55f6be	0.83579624
197	0x3fdba4bd	1.7159649
198	0xbecd37f4	-0.4008175
199	0xbf88570f	-1.0651568
200	0xbdcfdd05	-0.10149578
201	0xbf8aa277	-1.083083
202	0x3f9b3175	1.2124468
203	0xbf079f59	-0.5297752
204	0xbf0d6fcc	-0.55248713
205	0x3fcf9fc1	1.6220628
206	0x3e156f8d	0.14593334
207	0xbf9dc2fd	-1.2325131
208	0xbfdd5e96	-1.729449
209	0xbfebbba9	-1.8416644
210	0x3fec8caa	1.8480427
211	0x3fe772d1	1.8081914
212	0x3f9652fd	1.1744076
213	0x3fb97404	1.448853
214	0xbf233d40	-0.63765335
215	0xbf51968f	-0.8187036
216	0x3f6a50ce	0.9152955
217	0xbe3a3464	-0.18184048
218	0xbf7bee59	-0.98410565
219	0x3f837f09	1.0273143
220	0xbfa2f11a	-1.2729828
221	0x3e1dc6f2	0.15407923
222	0x4007b065	2.1201413
223	0xbf938da5	-1.1527601
224	0x3fd1b389	1.6382915
225	0x3f7b716c	0.98219943
226	0x3f6ddeab	0.9291789
227	0x3ee92d8f	0.4554257
228	0x3f7ceee5	0.98802024
229	0x3fc20ac8	1.515954
230	0x3def9e98	0.11700171
231	0xbe30f701	-0.17281725
232	0xbedd4dcf	-0.43223426
233	0xbf514b1a	-0.8175522
234	0x3f5674ae	0.8377179
235	0xbf38acb8	-0.7213855
236	0xbf0e6225	-0.55618507
237	0x3f9eac1c	1.2396274
238	0x3eaab551	0.33341458
239	0xbea2e566	-0.31815642
240	0xbfc22299	-1.5166808
241	0xbfc0de21	-1.5067788
242	0x3fcb1e51	1.5868627
243	0x3f89a21f	1.07526
244	0x3fa8e474	1.3194718
245	0x3fb99d07	1.4501046
246	0xbf4680dd	-0.7754038
247	0xbed387c9	-0.41314533
248	0x3f861c03	1.0477298
249	0xbf2f7d0c	-0.6855018
250	0xbecf3438	-0.40469527
251	0x3f6bdfee	0.92138565
252	0xbef1e0ef	-0.47241923
253	0x3f26ddd0	0.6518221
254	0x3fadba88	1.357255
255	0xbf4079c7	-0.7518582

model.2.bias f4 [32]
0	0xbea59c5a	-0.3234585
1	0xbd656a8e	-0.05600982
2	0xbded37ed	-0.115829326
3	0xbe5fbadc	-0.21848625
4	0x3f5546b2	0.83311
5	0x3f03386e	0.5125798
6	0xbd6b3f75	-0.057433564
7	0xbddc5dfa	-0.10760112
8	0xbdb93c74	-0.09044734
9	0x3e1fd7be	0.15609643
10	0x3e5aad66	0.21355209
11	0x3f02efd9	0.5114723
12	0x3e9cecf3	0.30649528
13	0x3f1b2236	0.60599077
14	0x3dbd95b7	0.092570715
15	0xbdd18936	-0.10231249
16	0x3e4e0b4e	0.201215
17	0xbe1a178b	-0.15048043
18	0xbe17b1e0	-0.14813948
19	0x3d4e70e2	0.050400622
20	0x3e9203cd	0.28518525
21	0x3ea3b284	0.31972134
22	0xbdfee997	-0.124468975
23	0xbe3f79b3	-0.18698768
24	0x3f2f28fd	0.6842192
25	0x3ea80ebc	0.3282374
26	0xbb573009	-0.0032835028
27	0x3ec066e9	0.37578514
28	0x3e8deb2a	0.27718478
29	0x3f248d63	0.6427824
30	0x3e71c945	0.23611934
31	0xbe078257	-0.13233314

model.4.weight f4 [3125, 32]
0	0xbfe57f9b	-1.7929567
1	0xbf845dde	-1.0341146
2	0xbdd94c95	-0.1061031
3	0x3d10d5e6	0.03536024
4	0x3e939401	0.28823856
5	0xbe511940	-0.20419788
6	0x3e23452b	0.15944354
7	0xbe26eef7	-0.16302095
8	0x3de386e8	0.11109716
9	0x3e9c7c1a	0.30563432
10	0xbf7f7198	-0.99782705
11	0x3d8a2120	0.06744599
12	0xbbcc049c	-0.0062261354
13	0x3ef3ea56	0.47639722
14	0xbfa17564	-1.261395
15	0xbfe29132	-1.770056
16	0xbe9689e0	-0.29402065
17	0xbf1994a2	-0.5999242
18	0xbe10b890	-0.14132905
19	0xbf90bb47	-1.1307153
20	0x3f9ebbe8	1.2401094
21	0xc00833b7	-2.1281564
22	0x3e16e841	0.14737035
23	0xbdc24f26	-0.094877526
24	0x3ea0c05d	0.31396762
25	0xbe12ef1e	-0.14349028
26	0xbf5cb6f7	-0.8621668
27	0xbec1b8d7	-0.37836334
28	0xbf2996ab	-0.66245526
29	0xbf8a4c0e	-1.080446
30	0x3c1f1130	0.009708688
31	0xbe173715	-0.14767106
32	0xbf7f0b69	-0.99626786
33	0xbf955d61	-1.1669122
34	0xbdf386e0	-0.1189096
35	0xbe2bf547	-0.16792785
36	0x3c5af16d	0.013363224
37	0xbd5d3eec	-0.054015085
38	0x3cb82bd5	0.022481838
39	0xbe5618ba	-0.2090787
40	0xbbba6d81	-0.0056893234
41	0x3caca434	0.021074392
42	0xbf2d46b9	-0.6768604
43	0x3eaac9a8	0.33356977
44	0x3e50b332	0.20380858
45	0x3ea11faf	0.31469485
46	0xbfb68e8f	-1.4262255
47	0xbf0c176a	-0.5472323
48	0xbe813699	-0.25236967
49	0xbf869dfe	-1.0516965
50	0xbdfb213a	-0.12262197
51	0xbfa17362	-1.2613337
52	0x3edfae27	0.43687555
53	0xbf8d2d53	-1.1029457
54	0xbdad0c3f	-0.084496014
55	0xbe5a0af8	-0.21293247
56	0x3deb42c4	0.11487344
57	0xbfb7fdd2	-1.4374335
58	0xbe8b8603	-0.2725068
59	0xbd4bb7a5	-0.049735684
60	0xbe9a4070	-0.30127287
61	0xbec9b608	-0.3939669
62	0xbeea40b9	-0.45752504
63	0x3c709143	0.014683071
64	0xbfd45709	-1.6589061
65	0xbf8b5aa6	-1.0887039
66	0x3d4829fa	0.048868157
67	0x3d9a8d81	0.07546521
68	0x3e9b8f65	0.3038284
69	0x3e384029	0.17993225
70	0xbe266990	-0.16251206
71	0xbee628b8	-0.4495294
72	0x3d895dea	0.06707366
73	0x3ea3e646	0.32011622
74	0xbfa10362	-1.2579157
75	0x3e403e5f	0.18773793
76	0xbdadcfac	-0.08486876
77	0x3e2a89b0	0.16654086
78	0xbfe9c85b	-1.8264269
79	0xc05e80da	-3.4766145
80	0xbe98fc74	-0.29880106
81	0xbf1d35bd	-0.61410123
82	0xbd175f3e	-0.036956064
83	0xbf9589c5	-1.1682669
84	0x3f762c62	0.9616147
85	0xbf29e9f1	-0.6637259
86	0xbdfffbe8	-0.12499219
87	0xbdf28381	-0.11841489
88	0x3ec9e903	0.39435586
89	0xbe9a0c60	-0.30087566
90	0xbda15564	-0.07877615
91	0xbe1c73f8	-0.15278614
92	0xbf1703a5	-0.58989936
93	0xbf83a4e2	-1.0284693
94	0xbdd391a3	-0.103305124
95	0xbe2f0d60	-0.17094946
96	0xbfe156e4	-1.7604642
97	0xbfc2af19	-1.5209686
98	0x3dba61d2	0.09100689
99	0xbdfbe9b4	-0.12300435
100	0x3ea760ec	0.32691133
101	0xbe597eb4	-0.2123974
102	0x3ec6325e	0.38710302
103	0x3cbdca12	0.023167644
104	0xbe1598a5	-0.1460901
105	0x3e8f5d3e	0.28000826
106	0xbefca702	-0.49346167
107	0x3e0f3fac	0.13989133
108	0x3e1345c4	0.14382082
109	0x3e90d033	0.28283843
110	0xbfc35aaf	-1.526205
111	0xbf0ed029	-0.5578638
112	0xbe733bf7	-0.23753344
113	0xbf8877b6	-1.0661533
114	0xbdc7ce3f	-0.09756135
115	0xbf6fd9ef	-0.93691915
116	0x3f4cc592	0.7998897
117	0xc0000dd0	-2.000843
118	0xbdaf642e	-0.0856403
119	0xbe50ff24	-0.20409828
120	0x3e20e067	0.15710603
121	0x3e946739	0.28985003
122	0xc001f1bf	-2.03038
123	0xbfc7147a	-1.5553124
124	0xbf9a82ff	-1.2071227
125	0xbf637ba8	-0.8886056
126	0xbbd7a1fc	-0.0065805893
127	0xbd5f85a2	-0.0545708
128	0xc0127e9b	-2.2889774
129	0xbf9482e9	-1.1602451
130	0xbe0a6a0d	-0.13517018
131	0xbd8a7202	-0.067600265
132	0x3e56a33c	0.20960706
133	0x3df52294	0.11969486
134	0x3e0b59aa	0.13608423
135	0xbe47a34e	-0.1949589
136	0xbdfc3d5f	-0.12316393
137	0x3e1391b1	0.14411046
138	0xbf3365ce	-0.70077217
139	0x3e0a9f17	0.1353725
140	0xbd95e985	-0.07319931
141	0x3ef3983a	0.47577077
142	0xbfd25ac2	-1.6433947
143	0xbfa42a45	-1.28254
144	0xbeb49ca8	-0.3527577
145	0xbf9b7c61	-1.2147332
146	0xbd79abbb	-0.06095479
147	0xbfbad1a9	-1.4595233
148	0x3f69a944	0.91273904
149	0xbff28670	-1.8947277
150	0x3e10497e	0.14090535
151	0xbdfb1cba	-0.122613385
152	0x3e52f03f	0.20599459
153	0xbf0be35c	-0.546438
154	0xbed2adae	-0.41148132
155	0xbf0495c9	-0.51791054
156	0xbf1c929f	-0.61161226
157	0xbf0e330c	-0.5554664
158	0x3c89bf27	0.016814781
159	0xbe27e025	-0.16394098
160	0xc04a5e1d	-3.1619942
161	0xbfef89a5	-1.8713881
162	0xbd000a19	-0.03125963
163	0x3d33346e	0.043751173
164	0x3e8e894c	0.27839124
165	0x3bb2eb3f	0.0054601724
166	0xbe51fd1e	-0.20506713
167	0xbc86b7c4	-0.016445048
168	0xbe5956e0	-0.21224546
169	0x3da28ca3	0.079369806
170	0xbf064028	-0.52441645
171	0xb89016df	-6.870715e-05
172	0xbcaedbf0	-0.021345109
173	0x3e4c1480	0.19929695
174	0xc018c650	-2.387104
175	0xbedd463e	-0.43217653
176	0xbe6087f5	-0.21926863
177	0xbfa33327	-1.2749985
178	0x3da95287	0.08267694
179	0xbf53671a	-0.82579195
180	0x3ec0f272	0.3768497
181	0xbfb7a027	-1.434575
182	0xbe37f372	-0.17963961
183	0xbd15e90a	-0.036599196
184	0x3e8a2a44	0.2698537
185	0xbe0ddd3d	-0.13853927
186	0xbe7eb796	-0.2487472
187	0xbe2c40ba	-0.16821566
188	0xbea78f14	-0.32726347
189	0xbdd6ee08	-0.104946196
190	0xbec9ea5e	-0.3943662
191	0x3e07a56e	0.132467
192	0xbf045abc	-0.5170095
193	0xbedddae6	-0.4333107
194	0xbe00de83	-0.12584881
195	0x3c0cf6af	0.008603736
196	0xbd79cd13	-0.06098659
197	0xbe299b95	-0.16563256
198	0x3e1303ba	0.1435689
199	0xbe6f2282	-0.23353007
200	0x3d85226c	0.06500706
201	0xbc0b0a81	-0.008486391
202	0xbec1ca4a	-0.37849647
203	0x3dcf61b6	0.10126059
204	0xbd0e94a1	-0.034809712
205	0x3d310698	0.04321918
206	0xbf0d30e5	-0.5515273
207	0xbeef6bbe	-0.46761888
208	0xbee73b69	-0.45162514
209	0xbed02dce	-0.40659946
210	0xbe1aab9f	-0.15104531
211	0xbde12c49	-0.10994775
212	0xbf09f142	-0.53883755
213	0xbf12058d	-0.5703972
214	0x3e1e3c4e	0.15452692
215	0x3cf46368	0.029832557
216	0x3d426c36	0.04746648
217	0xc05b1e83	-3.4237373
218	0xbe82af2c	-0.2552427
219	0xbe6d1003	-0.23150639
220	0xbebf49e8	-0.37361073
221	0x3d9b03bd	0.075690724
222	0xbeda946f	-0.4269137
223	0x3d6ca35a	0.05777297
224	0xbfa1f6f4	-1.2653489
225	0xbfadd2e7	-1.3579987
226	0xbcd325e2	-0.0257749
227	0xbc9ef7ef	-0.019405333
228	0x3df4913c	0.11941764
229	0x3d1d15d7	0.038350906
230	0xbe2c86a1	-0.16848232
231	0xbee1ff4f	-0.44140097
232	0x3ccc0dda	0.024908949
233	0x3dd8ef8a	0.105925635
234	0xbf84d842	-1.0378497
235	0x3e884873	0.26617774
236	0xbeb02007	-0.34399435
237	0x3d71c165	0.059022326
238	0xbf50e1ce	-0.8159455
239	0xbf18432d	-0.594775
240	0xbe676a66	-0.22599182
241	0xbf7a591f	-0.9779224
242	0x3e28f875	0.16501029
243	0xbe000ae6	-0.12504157
244	0xbf051858	-0.5199027
245	0xbde6d907	-0.112718634
246	0x3e044193	0.1291564
247	0x3d9fbd90	0.07799828
248	0x3e394f3c	0.18096632
249	0xbfd41f1f	-1.6571997
250	0x3e3eb78f	0.1862471
251	0x3e137b2a	0.14402452
252	0xbedd3c56	-0.43210095
253	0xbe96d550	-0.2945962
254	0xbfe0dae1	-1.7566797
255	0x3dc0a8b7	0.0940718

model.4.bias f4 [3125]
0	0xbeec1408	-0.46109033
1	0xbe928073	-0.28613624
2	0xbee32d9c	-0.44370735
3	0xbef58a02	-0.47956854
4	0xbe87518b	-0.264294
5	0xbd1cd7fc	-0.038291916
6	0xbe86d35e	-0.26333135
7	0x3d13d145	0.036088247
8	0x3d2a1c09	0.041530643
9	0x3ce9912b	0.028511604
10	0xbec5075e	-0.38482183
11	0xbe2068dc	-0.15665
12	0xbd100739	-0.035163138
13	0x3df98b3d	0.12184761
14	0xbdb4df61	-0.08831669
15	0xbef0a08b	-0.46997485
16	0xbe3c427b	-0.18384735
17	0x3d6609c4	0.056161657
18	0xbe022357	-0.12708794
19	0xbe5160cd	-0.20447083
20	0xbe89daca	-0.26924735
21	0xbb0e162d	-0.0021680698
22	0xbdb86c59	-0.09005041
23	0x3d2120fc	0.039338097
24	0xbc1c25d3	-0.009530502
25	0x3bab5263	0.005228327
26	0xbe278378	-0.16358745
27	0x3da97fa8	0.082763016
28	0xbe609bf6	-0.21934494
29	0x3dcaaa20	0.0989573
30	0x3d5e532e	0.054278545
31	0xbe821807	-0.25408956
32	0x3cf6ff6b	0.03015109
33	0xbe8dd21d	-0.27699366
34	0xbe1bf383	-0.15229611
35	0x3d1321cf	0.035920914
36	0xbd3c6093	-0.045990538
37	0x3e0d24e5	0.13783605
38	0xbdaf2f12	-0.085539
39	0xbd10a4f5	-0.035313565
40	0x3d279c7b	0.040920716
41	0x3d02a168	0.03189221
42	0xbe42b93c	-0.19015974
43	0xbe2edce8	-0.17076457
44	0xbcba5fc8	-0.02275075
45	0x3e521ba2	0.20518354
46	0xbdaa52ca	-0.08316572
47	0xbce9a032	-0.02851877
48	0xbae564ae	-0.0017501318
49	0xbddb0881	-0.10694981
50	0xbe681b7a	-0.22666731
51	0xbdd3ce53	-0.103420876
52	0xbca9ba51	-0.020718725
53	0xbe37cffd	-0.17950435
54	0xbc98e1c9	-0.01866235
55	0x3e5ab31f	0.21357392
56	0xbe8756f2	-0.26433522
57	0x3e23972b	0.15975635
58	0xbd26d9cd	-0.040735055
59	0xba652f66	-0.00087427197
60	0xbe5b35ab	-0.21407191
61	0x3e04e75f	0.12978886
62	0x3d39a651	0.045324627
63	0xbd67bfa3	-0.056579243
64	0x3bd0a7e2	0.0063676694
65	0x3de3d5e1	0.111247785
66	0x3dfaed5b	0.12252303
67	0xbd396571	-0.045262758
68	0x3e53ec33	0.20695572
69	0xbb328f61	-0.0027246105
70	0xbda3bf5f	-0.079954855
71	0xbd310ef4	-0.04322715
72	0x3e15eb02	0.1464043
73	0x3db67908	0.08909804
74	0x3da4cf62	0.08047368
75	0xbec47139	-0.38367632
76	0xbe8cb03c	-0.27478206
77	0xbdb267e0	-0.08711219
78	0xbe309d68	-0.17247546
79	0xbda16769	-0.07881052
80	0x3da2aea2	0.07943465
81	0x3d409dcd	0.04702549
82	0x3daa27eb	0.08308395
83	0xbc032f45	-0.008006875
84	0xbe242bc7	-0.16032325
85	0x3ddad648	0.10685402
86	0x3cb7523c	0.02237808
87	0xbd80cb8e	-0.06288825
88	0xbd26705b	-0.040634494
89	0x3de5d818	0.11222857
90	0xbcdc3a09	-0.026883142
91	0xbc8bbed9	-0.017058777
92	0x3e021164	0.12701946
93	0x3dee62cd	0.116399385
94	0x3b69ced6	0.0035676262
95	0xbe62e6e1	-0.22158386
96	0x3d59221d	0.05301105
97	0xbdfd234d	-0.12360249
98	0x3d4968a6	0.049172066
99	0xbdf03f1c	-0.11730787
100	0xbe7fde50	-0.24987149
101	0xbe131dff	-0.14366911
102	0xbe47d65f	-0.1951537
103	0x3cbf013c	0.023316018
104	0xbe2b0d87	-0.16704379
105	0xbd990cba	-0.074731305
106	0x3e192de3	0.1495891
107	0xbe73f014	-0.23822051
108	0x3d98e004	0.074646026
109	0xbde1babf	-0.11021947
110	0xbe485855	-0.19564946
111	0xbe026204	-0.12732702
112	0xbdfabba7	-0.12242823
113	0x3d564d41	0.05231977
114	0x3e4ad2bb	0.1980695
115	0xbdeee6c6	-0.1166511
116	0xbe3ad52f	-0.18245386
117	0xbd98dbe8	-0.07463819
118	0xbd524f4f	-0.051345166
119	0x3d9049cc	0.07045326
120	0xbd82a991	-0.063799985
121	0x3c8949eb	0.01675888
122	0xbb422f8b	-0.0029630389
123	0xbdb5e0d9	-0.08880777
124	0xbafb3c8a	-0.0019167822
125	0xbe52f58a	-0.20601478
126	0x3cad2be6	0.021139096
127	0x3e3b30e6	0.18280372
128	0x3e835f50	0.25658655
129	0x3ca28710	0.019839793
130	0xbcd20dba	-0.025641311
131	0xbdc9cc52	-0.09853424
132	0xbdcc3eae	-0.09972893
133	0xbe0b12dc	-0.13581413
134	0xbbd68e3c	-0.0065477174
135	0xbd7716e9	-0.060324583
136	0x3d42df19	0.047576044
137	0xbd8de183	-0.069277786
138	0x3c8d817b	0.017273655
139	0x3d9d1f6e	0.0767201
140	0xbb17cc5a	-0.0023162575
141	0xbe34bd7d	-0.17650409
142	0xbdbf923b	-0.09354063
143	0xbe4bddec	-0.19908875
144	0xbce82d19	-0.028341817
145	0x3b2a0497	0.0025942677
146	0x3d3b0788	0.04566148
147	0xbda1c770	-0.07899368
148	0xbe2763c0	-0.16346645
149	0xbdf1c80e	-0.118057355
150	0xbdd07475	-0.101784624
151	0xbcdae222	-0.026719157
152	0xbe38031d	-0.17969938
153	0xbd005c86	-0.031338237
154	0xbe90d486	-0.28287143
155	0xbe41d1f0	-0.18927741
156	0xbe1dc1d8	-0.15405977
157	0xbe6e3d83	-0.23265652
158	0xbdbdf7a6	-0.09275751
159	0xbea9fc38	-0.3320024
160	0x3ddd398f	0.10801994
161	0xbbe03f1d	-0.006843461
162	0xbe10926a	-0.14118353
163	0xbd8a885f	-0.06764292
164	0xbe0bb0cf	-0.13641666
165	0xbd8917a5	-0.06693963
166	0xbd6083f7	-0.05481335
167	0xbbfaf9d4	-0.0076591764
168	0xbe17e08b	-0.1483175
169	0xbd2f6a21	-0.04282582
170	0xbe5006ed	-0.20315142
171	0xbdb18918	-0.08668727
172	0xbe6c650a	-0.23085418
173	0xbe22852a	-0.1587111
174	0xbe2f6762	-0.17129281
175	0x3dccc8c5	0.09999231
176	0x3de55be0	0.111991644
177	0x3dc35645	0.09537939
178	0x3dd9be38	0.106319845
179	0xbd993438	-0.07480663
180	0xbcab7b91	-0.020932944
181	0x3c705269	0.014668086
182	0x3cc03027	0.02346046
183	0xbe052602	-0.1300278
184	0xbd522045	-0.051300306
185	0x3e36cbab	0.1785113
186	0x3d5a7c48	0.05334118
187	0xbe343b3d	-0.17600723
188	0x3c9a25e8	0.018816903
189	0x3d2b2690	0.041784823
190	0xbd578853	-0.052620243
191	0xbe4c0a66	-0.19925842
192	0x3d32adbc	0.043622717
193	0xbe80cbe8	-0.25155568
194	0x3d85c740	0.065321445
195	0x3d898404	0.06714633
196	0xbe45aff9	-0.1930541
197	0x3d601995	0.054711897
198	0xbd9dfbe9	-0.07714064
199	0x3d1f6748	0.038916856
200	0xbdcb93fd	-0.09940336
201	0x3d2d2449	0.042270932
202	0xbe05c6bb	-0.13064091
203	0xbd8d4e20	-0.06899667
204	0xbd91a5db	-0.071117125
205	0x3d6bd2b6	0.057573996
206	0xbde6aee9	-0.1126383
207	0xbdfe4c56	-0.12416904
208	0xbceb7aa3	-0.028745001
209	0xbd3a8607	-0.045537975
210	0xbe356035	-0.17712481
211	0xbe111e3d	-0.14171691
212	0xbc0f973f	-0.008764087
213	0xbc05fe01	-0.008178235
214	0xbe209efe	-0.1568565
215	0x3ccb01f2	0.024781201
216	0xbe72c39b	-0.2370743
217	0xbd010c79	-0.031506035
218	0x3daab57f	0.08335399
219	0x3de04e9b	0.10952493
220	0x3e109c40	0.14122105
221	0xbdff3759	-0.124617286
222	0xbe04cab4	-0.1296795
223	0xbde8fc1b	-0.1137621
224	0x3d5242a8	0.0513331
225	0x3de899da	0.1135747
226	0x3caeb739	0.021327602
227	0x3d08ae6c	0.033369467
228	0x3d6ab2af	0.057299312
229	0xbe8e49a5	-0.2779056
230	0xbdaad249	-0.0834089
231	0xbe74e318	-0.23914754
232	0x3d027ed5	0.031859238
233	0xbe80f4cf	-0.25186774
234	0xbe337810	-0.17526269
235	0xbaf0a0fb	-0.0018358523
236	0xbe0db9ea	-0.13840452
237	0x3c88f31d	0.016717488
238	0xbdd31c3a	-0.10308118
239	0x3d9844c1	0.07434989
240	0x3c7c24f1	0.015389667
241	0x3da80e11	0.08205808
242	0xbe77e5e9	-0.24208798
243	0x3c8d52fb	0.017251482
244	0xbdbd788f	-0.0925151
245	0xbe52a8f0	-0.20572257
246	0xbdfa456c	-0.122202724
247	0xbe447301	-0.19184496
248	0x3c552b29	0.013010778
249	0x3ca22949	0.019795077
250	0xbf0df6e0	-0.55454826
251	0xbe560aa8	-0.20902503
252	0xbe53d7bf	-0.2068777
253	0x3db8d501	0.09025002
254	0x3dfbf972	0.12303437
255	0x3d260f25	0.040541787
