models/fgan/repro/2_steps/kl/CrossRoom-v0_score.pth (torch_old, 26230 bytes, 5 tensors)

model.0.weight f4 [32, 161]
000000 da 6e 69 3e 7e 36 a4 bc fa 3c 75 3e 5d 19 11 3d
       0.22796193 -0.020045515 0.23949042 0.03542458
000010 7e fb c1 bd a6 34 ab bd 70 66 bc 3e 64 3d 6b bd
       -0.094717965 -0.08359651 0.36796904 -0.057431594
000020 9c 54 15 bb 3a 2b bc bd 9d 43 87 bc 59 0b d6 bd
       -0.0022786027 -0.09187932 -0.016511733 -0.10451383
000030 4f 5d 02 3e 64 d3 36 be 4d a3 b8 3e 75 40 1d be
       0.12730907 -0.17854077 0.3606209 -0.1535662
000040 3c 3f c5 3e ee 2d 8c 3d 68 97 76 be 1c ee fc be
       0.38524806 0.06844698 -0.24081194 -0.49400413
000050 f6 ce 0b bc 89 26 4d be 9f f6 11 3f e6 3f c6 3e
       -0.00853323 -0.20034231 0.5701694 0.38720626
000060 ee 13 7a 3b 1b 68 86 be cf c7 e6 3e c3 0f 03 3f
       0.0038158852 -0.262513 0.45074317 0.51195925
000070 e0 67 4c 3d df 97 99 be 27 40 c4 3e 8b 08 d7 3d
       0.04990375 -0.2999868 0.38330194 0.10499676
000080 80 e3 5b be 14 8d 4a 3e 1b 17 9a 3e c6 58 a5 3d
       -0.21473503 0.1978038 0.30095753 0.08073573
000090 52 34 58 be bc a1 03 bf 53 fc 0c be 62 c7 9c 3b
       -0.21113709 -0.5141866 -0.13768129 0.0047845105
0000a0 20 57 0e 3f 23 30 f8 3e fc 66 da 3d 14 43 80 be
       0.5560169 0.48474225 0.10664174 -0.25051177
0000b0 5d 01 cc 3e 2c 31 83 3e ed 38 ff bb 73 6c 8e be
       0.3984479 0.25623453 -0.0077887685 -0.27817115
0000c0 cf df 88 3e 3d 18 17 3e fc a8 72 be f8 8f bb 3e
       0.26733252 0.1475534 -0.23697275 0.36633277
0000d0 b6 5a 01 3e bf f9 82 be 2b b3 a7 3a a4 fc 68 be
       0.1263226 -0.25581166 0.0012794485 -0.22752625
0000e0 86 fe 52 3e a5 5e 83 be 5d 76 b1 be 3b 72 99 be
       0.20604905 -0.25658146 -0.34660617 -0.29969963
0000f0 8d e9 06 3e 1c 66 61 be 54 bf 2b 3e cd 99 8c bd
       0.1317503 -0.22011608 0.16772205 -0.06865273
000100 f4 b2 48 3e 2b 82 1f be 76 c8 53 3e c5 91 38 be
       0.19599515 -0.15576999 0.20681939 -0.18024357
000110 28 22 0e 3e 6f 32 10 bf e6 98 c9 3d 93 21 14 bf
       0.13880217 -0.56326956 0.09843616 -0.5786373
000120 2a 9b 77 bc be fc 02 3f 31 3b 1e bc c8 44 39 bf
       -0.015112678 0.51166904 -0.009657667 -0.72370577
000130 21 84 48 bd eb 91 2c bf 3c 0d 93 3e 2b dc e3 be
       -0.048954133 -0.67410153 0.28721035 -0.44503912
000140 98 07 92 3e c1 d1 32 bf 0c 29 64 3e 63 51 79 be
       0.2852142 -0.6985131 0.22281283 -0.24347453
000150 62 b1 a2 3d 26 b9 c4 3e cf d9 2d be f3 14 54 3d
       0.07943989 0.38422507 -0.16977619 0.05177779
000160 e7 b6 75 be ba a7 ec be bc 45 2b be b7 72 56 3e
       -0.23995553 -0.46221715 -0.1672582 0.20942198
000170 d7 03 86 3e 32 12 b0 be d2 c2 81 3d 6d 41 98 3e
       0.26174805 -0.34388882 0.06335987 0.29737416
000180 e1 31 d3 3e 3f 16 85 be a5 6d 10 3e bc 3d aa 3e
       0.41248992 -0.25993535 0.14104326 0.33250225
000190 e3 14 95 be 48 c2 44 be 4b 22 d1 3d 5c 1f d0 3e
       -0.29117498 -0.19214737 0.10211619 0.40648925
0001a0 7e 44 29 3f a2 11 c8 3c f6 0f 9e bd 59 6d d1 be
       0.66120136 0.02442247 -0.07717888 -0.40903738
0001b0 83 44 46 be e8 a3 1c 3e 95 06 b0 3e c5 73 ba be
       -0.19362073 0.152969 0.34380022 -0.3641645
0001c0 3d e4 07 3c e4 4f 70 3e 9b b4 dd 3e 99 4b 0f be
       0.008294162 0.23467976 0.43301854 -0.13993682
0001d0 2c fb fd 3d 4b 19 9a 3e 87 64 93 be e5 0a 3d bf
       0.12401423 0.30097422 -0.28787634 -0.7384475
0001e0 09 97 a3 3e 28 bc 13 be ac 51 7b 3e 8a bc 02 bf
       0.31951168 -0.14427245 0.24542874 -0.5106894
0001f0 49 b4 9d 3e d8 e6 12 bf 50 69 48 3e c2 3e 16 bf
       0.3080161 -0.5738349 0.19571424 -0.5868951
000200 0a da 82 3e a1 9d 03 bf eb 6e 67 3e 6c f3 10 bf
       0.25556976 -0.514124 0.22600906 -0.5662143
000210 c8 30 6b 3e 44 39 0a bf 91 b9 58 3e 4c df 12 bf
       0.22967827 -0.5399363 0.21164538 -0.57371974
000220 42 09 91 bd 45 29 c0 bc a7 ed da be 2d 1f ac 3e
       -0.07081844 -0.023457179 -0.4275944 0.33617535
000230 e4 af 60 bd 24 52 2f ba 8d 39 75 3c 58 59 c2 be
       -0.054855242 -0.000668796 0.014967334 -0.3795879
000240 75 ad cc 3e 86 10 5e 3b f4 93 b7 be a3 a3 c9 be
       0.39976087 0.003388436 -0.35855067 -0.39382657
000250 fe 43 4f 3e 99 f6 3b 3d 37 37 c0 be 17 cb af 3e
       0.2024078 0.04588947 -0.37542126 0.34334633
000260 40 42 b0 3e 1d a6 90 bd 6d d5 c1 3e a0 c0 a4 3e
       0.34425545 -0.070629336 0.37858143 0.3217821
000270 de 8c 7a bd 77 a0 68 bb 8a 78 cc be 60 e4 a9 3e
       -0.061169498 -0.0035496035 -0.39935714 0.3318205
000280 09 3e 2e bc c0 9f a6 3e 7c ed de 3e 71 e2 83 be
       -0.0106349075 0.32543755 0.4354056 -0.257587
000290 33 ad ef 3d 05 41 28 3e 38 42 ff 3e c9 26 2b 3e
       0.11702957 0.16431053 0.49855208 0.16714014
0002a0 4c 06 ca 3e fa 09 9e be 91 d9 99 bc 17 6f 90 be
       0.3945793 -0.30866987 -0.018780502 -0.28209755
0002b0 89 14 2a 3e c9 21 ea 3c b4 dc 23 3e bf b7 01 3e
       0.16609396 0.028580563 0.1600216 0.1266775
0002c0 8e eb 4c 3e 2c 4d 20 3e aa fa a1 be f9 df fd be
       0.20011732 0.15654439 -0.31636554 -0.4958494
0002d0 b7 f0 02 3f ed 87 fe 3c 2b 30 a7 3b 32 a0 31 bd
       0.5114855 0.031070674 0.0051021776 -0.043365665
0002e0 27 78 d3 3c c4 3c a4 3e 87 64 e7 3e f6 db 4b bd
       0.025814129 0.3207761 0.45193884 -0.049770318
0002f0 e0 eb aa 3c 3e f4 1d 3d d9 88 83 3e 0d 00 1e be
       0.020864427 0.038563006 0.25690344 -0.15429707
000300 17 5c 11 3e df 90 51 3e 5f ba 99 3e d8 e7 29 be
       0.14195286 0.2046542 0.30025002 -0.16592348
000310 f0 bc 9b be 5f 21 12 3e 0d ed 04 3e e7 df ae 3e
       -0.30417585 0.14270543 0.12981053 0.341552
000320 a5 41 9e be 14 ba 69 be 76 86 b4 3e 24 f0 17 3f
       -0.30909458 -0.2282489 0.35258836 0.593508
000330 6d 4c cb 3d 31 87 4a be 32 f8 de 3c dc 9e aa bc
       0.099266864 -0.19778134 0.027217958 -0.020827703
000340 42 ae cc bd 61 57 f1 bd 09 3d 16 3e 8b 41 84 3e
       -0.099941745 -0.11784244 0.1467172 0.25831255
000350 67 ab 80 bc e4 2a b7 bd 2d 24 bf 3d 92 3e 58 be
       -0.015706731 -0.089437276 0.09333072 -0.21117619
000360 60 43 94 3d 35 91 b2 3e 67 c3 25 3e de 73 a3 3d
       0.07239413 0.3487641 0.16187821 0.07981084
000370 05 ed 8e bd ea f9 90 3d 3c 7c 53 be 10 ec ca be
       -0.06978802 0.07078917 -0.2065286 -0.39633226
000380 0d d1 70 bd 0a 17 19 be b9 52 23 bd cd 19 52 3e
       -0.058793116 -0.14950195 -0.039873812 0.20517655
000390 ed 7f 36 3e d4 a1 78 bc f8 16 2a be 4e 54 7b 3e
       0.17822237 -0.015175302 -0.16610324 0.24543878
0003a0 28 22 93 be 6f 81 04 3e 2a cc c4 be d6 70 95 3e
       -0.28736997 0.1294 -0.38437015 0.2918765
0003b0 dc 82 1c 3e 23 e9 c3 3e 5e fd 18 3d c4 76 e9 3d
       0.15284294 0.38263807 0.037351005 0.11399606
0003c0 9d a2 af 3c 2f fd 82 bd 7a 9e 9d 3e cb f5 99 be
       0.021439845 -0.06395947 0.3078497 -0.30070338
0003d0 1b b4 4e 3e 07 bf a6 3e a3 a9 85 bd 40 8a 5d 3e
       0.20185892 0.32567617 -0.06526496 0.2163477
0003e0 be d4 87 3d 64 61 70 3e 61 f3 b2 be f5 0c 19 3e
       0.06632374 0.23474652 -0.34951308 0.14946349
0003f0 44 c3 09 3d f8 bb 3d 3e 77 72 c6 3e 3e 6c 60 3e
       0.033633485 0.18528736 0.38759205 0.21916291

model.0.bias f4 [32]
000000 38 18 42 bd 82 fc 80 bd 51 38 b1 3e ed b2 a9 3d
       -0.047386378 -0.06298162 0.34613279 0.082860805
000010 4b e4 7c bd a9 1a 18 3d 45 2f d9 3e 00 a9 28 bd
       -0.061741155 0.0371348 0.42418876 -0.041176796
000020 36 7d 6e 3e 82 db bb bd ea 21 1e be bf 09 56 bc
       0.23289952 -0.09172727 -0.15442625 -0.013063847
000030 dc 1f 78 3e 35 91 09 3c 70 84 98 3d 91 37 a1 bd
       0.24230903 0.008396436 0.074471354 -0.078719266
000040 e4 38 15 bd e1 a3 5e bd 81 3e 51 3d 5c 36 de bd
       -0.03643121 -0.054355506 0.051085 -0.10850212
000050 1c f0 e0 3e 82 ba 4b 3d 64 c1 9b bd fa 4f 29 bd
       0.4393319 0.049738415 -0.07605246 -0.041336037
000060 de e7 3b bd d1 5e 16 bd d5 82 3d be 0d 6f 47 be
       -0.045875423 -0.036711518 -0.1850694 -0.19475956
000070 8a 3c 05 bd d9 4e 3d 3d da 51 d3 bd 2f 85 09 bd
       -0.032528438 0.046217773 -0.10318346 -0.03357428

model.2.weight f4 [32, 32]
000000 1f 4a ab 3e f5 a8 cc 3d ff 8c 3f bd e7 f7 b1 3d
       0.33454987 0.099931635 -0.046765324 0.08689862
000010 5d 6d 21 3f 26 91 67 3b 00 f5 b3 bd 75 0f 9c 3d
       0.630575 0.0035334318 -0.087869644 0.07620136
000020 d2 10 a7 3c c6 67 18 3f c5 a5 97 3e 4f 5f 25 3f
       0.020393763 0.59533346 0.2961866 0.64598554
000030 56 84 08 be 13 15 20 bf 5a 28 7e 3e a6 e9 c0 3e
       -0.13331732 -0.62532157 0.2482008 0.3767826
000040 3f c9 10 3f c4 d3 28 3d 01 b7 dc 3d bc 7d d7 3e
       0.5655708 0.04121758 0.10777093 0.42088115
000050 58 74 b6 39 b9 63 b9 3e ae 43 71 3e 5a 0f 89 3e
       0.00034800428 0.36208895 0.23560974 0.26769525
000060 94 52 11 3f 88 a3 f5 3e af a3 0f 3f e7 9f df 3e
       0.5676663 0.47976327 0.56109136 0.43676683
000070 c0 70 e5 3e 5c e0 51 bf c5 32 20 3f fb 58 9e 3e
       0.44812584 -0.8198297 0.6257747 0.30927262
000080 7c bb 18 3f ce 63 00 be d6 c7 d5 3e 66 f1 f9 3d
       0.5966108 -0.12538072 0.41754025 0.12204246
000090 69 e5 51 bf 4d ee a3 be fc 98 98 3e b5 9b 1d bf
       -0.8199068 -0.32017747 0.29804218 -0.61565715
0000a0 9c 25 84 be 8e 1e b4 be 3d ba 6e bf 65 6e 44 bf
       -0.25809944 -0.3517956 -0.9325293 -0.7673095
0000b0 1b 22 1c 3f 79 6c 96 3f b5 7e 26 be 9c 49 67 bf
       0.6098954 1.1751853 -0.16259272 -0.90346694
0000c0 15 5e 26 be ed 10 22 bf c1 44 34 be 9f a3 c0 be
       -0.16246827 -0.63307077 -0.17604353 -0.37624833
0000d0 8b 69 92 3e de 21 71 bf 77 9b 2a bf f3 dc ef be
       0.28596148 -0.941923 -0.6664347 -0.46848258
0000e0 1f e5 27 be 0d 7b 1b be 50 d9 8d be a4 61 9d bf
       -0.16395997 -0.15183659 -0.2770486 -1.2295423
0000f0 10 af fc be 5c 4e ea 3f e8 8e 00 bf 53 1e 3c be
       -0.49352312 1.8305163 -0.5021806 -0.18370943
000100 51 29 c3 be 0d ad 60 bf 63 7b e8 3d 05 33 a5 3e
       -0.3811746 -0.87764055 0.11351659 0.32265487
000110 67 3a ff 3c f2 6c 7f 3e f4 a1 91 3e f9 ba 88 3e
       0.031155778 0.24943903 0.28443873 0.2670515
000120 38 6a a0 bd 17 2e 6b be 12 e4 0d be a1 0d b0 be
       -0.078327596 -0.229668 -0.13856533 -0.34385398
000130 03 e9 3e be af ce 8e 3e 59 64 76 bf 27 f1 b9 3d
       -0.18643574 0.27892062 -0.9624687 0.09079199
000140 a3 c1 71 bf d6 30 d0 be 43 03 8e 3e b3 f2 20 be
       -0.9443609 -0.4066226 0.27736863 -0.15717582
000150 d7 2f 98 be 38 f6 0a 3f a0 60 da 3e 02 46 13 3f
       -0.29724 0.5428195 0.42651844 0.575287
000160 37 b0 89 be 84 31 85 3e a0 78 38 be 74 20 b1 3d
       -0.26892254 0.2601434 -0.18014765 0.08648768
000170 f2 f6 3d be b3 d4 8c 3e 1c 66 da be 3b 84 4e be
       -0.18551233 0.27506027 -0.42656028 -0.2016763
000180 fd 9a d6 3d 7a 2c 09 3e 19 94 82 3b 51 c1 74 bc
       0.104787804 0.13395873 0.00398494 -0.014938668
000190 10 67 9a 3e f9 50 22 be d1 66 8d 3d 02 ee 35 bd
       0.30156755 -0.15851201 0.06904376 -0.044416435
0001a0 54 e3 92 3d fd ce dc 3e 47 64 80 3e 7b 67 e8 3e
       0.07172266 0.4312667 0.25076506 0.4539145
0001b0 d3 29 d3 3c 1d 7b 0a bf aa db 4f 3e 1a fa 9b 3b
       0.02577678 -0.54094106 0.20298639 0.004760039
0001c0 34 41 a7 3e f4 6a 8e bd f1 7a 28 bd 98 f7 97 3e
       0.32666934 -0.069539934 -0.04113287 0.29681087
0001d0 44 09 cc 3d 65 b3 91 ba ab ef d0 3d e3 e0 40 3e
       0.09962705 -0.0011116086 0.10201963 0.18835787
0001e0 35 f9 9f 3e 5c 40 14 3e c7 f2 0b 3f d2 08 96 3e
       0.31244817 0.14477676 0.54667324 0.29303604
0001f0 09 a0 10 3e f1 28 21 bf cc 2b 5d 3e f2 de 18 bd
       0.14123549 -0.62953097 0.21598738 -0.037321992
000200 f5 66 2e 3e 81 26 14 bf ae 0a bc 3e d1 dc 01 3f
       0.17031462 -0.5787125 0.36726898 0.50727564
000210 e1 4f 4d bd 12 20 90 be 4f ed 2a be 58 dc a0 3e
       -0.050125007 -0.28149468 -0.16692089 0.3141811
000220 d6 44 e6 3d bb f8 d5 be ea 4f b0 be 42 53 19 be
       0.11243598 -0.4179133 -0.3443597 -0.14973167
000230 d9 2a 7b 3e 01 74 d9 3e f8 20 66 bf a0 6f c5 be
       0.24528064 0.42471316 -0.89894056 -0.38561726
000240 1b e1 bc 3e f0 bf ff bd a8 a1 82 3e ae 73 3d be
       0.36890492 -0.12487781 0.2551396 -0.1850116
000250 56 94 d3 bd c2 84 5f be 1a f2 09 bf 85 d8 8c 3e
       -0.10331027 -0.21827987 -0.5388504 0.2750894
000260 46 12 15 3f f0 74 1c bf 7b d2 6f bf 2c a0 8f be
       0.5823101 -0.6111593 -0.9368054 -0.2805189
000270 e7 d1 61 be e4 72 36 3f d1 f2 9b be dd f4 f9 3d
       -0.22052728 0.7126906 -0.30458692 0.12204907
000280 1d 17 93 3e 17 51 e6 3e ba 09 13 be 13 8c 8a bf
       0.28728572 0.44983742 -0.14359179 -1.0823997
000290 b4 2b 92 bf 5f 0b 4d bd 07 b4 d7 3e 51 e0 fa be
       -1.1419587 -0.050059672 0.42129537 -0.48999265
0002a0 39 9b c2 3e 24 9c 60 be 19 02 12 bf 82 0f d8 be
       0.3800905 -0.21934563 -0.5703445 -0.42199332
0002b0 bf c7 13 3f af 22 b1 3f 3b 6f 22 3f f4 73 d7 3b
       0.57726663 1.383871 0.63450974 0.006575102
0002c0 f5 78 89 bf 8d 09 b5 be 02 f1 a7 bf fa 48 3d be
       -1.0740038 -0.3535885 -1.3120425 -0.1848487
0002d0 ad fb 7e 3e 7a 15 23 bf 7a 23 ee be 79 44 55 bf
       0.24900694 -0.63704646 -0.4651144 -0.83307606
0002e0 e5 4d 27 bf 43 be 61 3e 75 6e 15 bf e2 ef 4a bf
       -0.6535323 0.22045235 -0.5837167 -0.7927228
0002f0 01 ac c0 be a3 a9 c0 3f 74 70 3f be d2 81 49 3d
       -0.3763123 1.5051769 -0.18695241 0.049196072
000300 01 da 94 bf d1 2c c7 bd 14 e8 24 3d c0 62 f1 3e
       -1.162903 -0.09725345 0.04026039 0.47145653
000310 19 51 3c 3e c8 e8 71 3e 97 4e fc bd 1e 6d 8b bd
       0.18390311 0.23623955 -0.12319677 -0.06807922
000320 3e 28 7b 3e 06 c1 21 be 0c ef 0a 3e b2 c7 b9 be
       0.2452707 -0.15796289 0.13567752 -0.36285168
000330 a9 3f 00 bf c4 7a 05 3d 16 c9 38 bf 55 7c b4 3d
       -0.5009714 0.03258778 -0.7218183 0.08812777
000340 88 a8 1b bf a6 79 67 be c8 d9 ad 3e c6 4b 0c be
       -0.60804033 -0.22604999 0.33955216 -0.1370078
000350 7c 87 61 bd ec 90 09 3f 83 da 1d bc 05 5a 02 3f
       -0.05506085 0.5373676 -0.009634617 0.5091861
000360 df 37 3f 3f 58 7c 0d bf f9 6e 51 bf b8 20 3d 3d
       0.7469463 -0.5526786 -0.81809956 0.04617378
000370 44 33 5e 3d 52 25 0e 3d 8e b0 0b be b0 6b 53 3e
       0.05424811 0.03470356 -0.13641569 0.20646548
000380 1d df 41 bd e8 96 d1 bd 47 1e 48 bd e6 32 9c 3d
       -0.047331918 -0.10233861 -0.048857 0.076268956
000390 79 4e b6 bd 93 b1 98 3d 4c d0 3f 3d b4 70 03 be
       -0.08901686 0.074557446 0.046829507 -0.12835962
0003a0 f7 ab f7 bd 15 7a 57 3d 5b ba fd bd ec 07 dd bd
       -0.120933466 0.05260666 -0.1238906 -0.107925266
0003b0 87 e1 f9 bd de e1 9a bb 4d b4 a1 bd cb 55 9a bc
       -0.12201219 -0.0047266325 -0.07895718 -0.018839737
0003c0 12 16 0d bd 3d 9c 24 be 0a 49 64 bd 8c 8a 46 3d
       -0.034444876 -0.16075225 -0.055733718 0.048471972
0003d0 9d 93 2b 3d 77 4f 5e bd 21 40 2c bc 92 e1 f6 bc
       0.041888822 -0.054275002 -0.010513336 -0.030136857
0003e0 7d b1 15 be 96 51 c8 3d 56 4e b8 3d 6d 47 07 bc
       -0.14618488 0.09781186 0.089993164 -0.008256775
0003f0 98 c0 aa 3d 9b a5 a8 3d 61 27 82 bd af 4c 33 3c
       0.083375156 0.08234712 -0.06355167 0.010943576

model.2.bias f4 [32]
000000 0f ec 69 be d4 a0 11 3f 8e 5e b7 3e 84 c3 a9 bd
       -0.22843955 0.5688603 0.35814327 -0.08289245
000010 4b bf 79 3e 51 6d 8e 3e d1 27 16 3e ee 30 fa bd
       0.24389379 0.27817777 0.14663626 -0.12216364
000020 63 2d ab bd e9 33 79 be 2d 3d 56 be 76 89 9c be
       -0.08358266 -0.24336208 -0.20921774 -0.30573624
000030 61 ef 8e 3e 28 cd af bd 11 9e 78 bd 0d 61 72 3d
       0.27917007 -0.08584052 -0.06069762 0.059174586
000040 3f 2c 7b be 42 d7 49 3e 9a 69 54 be 49 d7 c8 be
       -0.24528597 0.1971102 -0.20743409 -0.3922675
000050 37 3a e4 bd 15 77 cf 3e f1 33 8b 3e ca 8c 1c be
       -0.11143916 0.4052054 0.27188066 -0.15288082
000060 79 14 a8 3e a7 d9 31 3e a4 18 ae 3e 9d a7 d4 3e
       0.3282812 0.17368184 0.34003174 0.4153413
000070 38 0a 99 be 3c b0 4a bd 39 19 1f be 0c 5f 31 3f
       -0.2989061 -0.049484476 -0.15536965 0.69285655

model.4.weight f4 [1, 32]
000000 b3 41 29 3f f6 74 af c0 18 62 08 c0 a6 f5 88 3d
       0.66115874 -5.4830275 -2.1309872 0.06687479
000010 bf 4f a0 bf 9a ba 9a c0 8c f8 f9 bf f8 12 f7 3d
       -1.2524337 -4.8352785 -1.9528975 0.12064165
000020 fd ad 91 3d b8 3b ec 3e 62 8f 98 3c b3 c8 d2 3e
       0.07113264 0.46139312 0.018623058 0.41168746
000030 4c df 11 c0 5d c0 0f 3e 55 88 e3 3d 4a 1f 30 3f
       -2.279254 0.14038225 0.11109988 0.68797743
000040 d8 94 bf 3e f0 28 a0 bf 8a 9b 13 3e 31 a0 0b 3f
       0.37418246 -1.2512493 0.14414802 0.5454131
000050 9e d6 c7 bd 84 e4 19 c0 97 57 cf bf a9 87 05 3e
       -0.09757732 -2.4045725 -1.6198605 0.13040031
000060 c9 56 49 bf bb 67 59 bf 61 ff 08 bf 5d 52 dd bf
       -0.7864805 -0.84923905 -0.5351468 -1.729076
000070 33 49 93 be 37 c9 61 3d 9f 13 a0 3e 6a b1 3e c1
       -0.28766784 0.055123534 0.3126497 -11.918314
