models/empowerment_2_steps/RoomPlus2Corrid-v0_phi.pth (torch_old, 9892 bytes, 5 tensors)

model.0.weight f4 [32, 33]
0	0xbdc7a826	-0.09748869
1	0x3e09f20a	0.13471237
2	0xbcf39c50	-0.029737622
3	0xbe22af65	-0.1588722
4	0xbd8f9799	-0.07011337
5	0xbe2dc022	-0.16967824
6	0x3e247890	0.16061616
7	0xbc550fd0	-0.013004258
8	0xbe1d435d	-0.15357728
9	0x3d8f214e	0.06988774
10	0x3d2397dc	0.039939746
11	0x3d2bae58	0.041914314
12	0x3d6a473b	0.057196837
13	0x3da2927e	0.079380974
14	0xbde8b402	-0.11362459
15	0x3d9304c6	0.07178645
16	0xbe0d36b4	-0.13790399
17	0x3d4387f8	0.04773709
18	0x3d0d2555	0.03445943
19	0x3c3546bf	0.01106423
20	0xbe1de515	-0.15419419
21	0xbdc22cd5	-0.09481207
22	0xbe020e9e	-0.12700889
23	0x3d8aac7b	0.06771179
24	0xbd639b0e	-0.055567794
25	0x3c8367d7	0.016040726
26	0x3d25e689	0.04050306
27	0xbdcf799e	-0.101306185
28	0xbdb1374e	-0.08653127
29	0xbe083c31	-0.13304211
30	0x3d1e4f12	0.038649626
31	0xbe1b4de0	-0.15166426
32	0x3b808aa4	0.0039227773
33	0xb8657807	-5.470964e-05
34	0xbe0a9752	-0.13534287
35	0xbc3a2650	-0.0113616735
36	0xbd87235b	-0.065985404
37	0xbc0197d0	-0.00790973
38	0x3b389ade	0.002816848
39	0xbe26f362	-0.1630378
40	0xbb298900	-0.0025869012
41	0x3b8e4a91	0.004342385
42	0x3c32f390	0.010922328
43	0xbe0a4d30	-0.13506007
44	0xbe039355	-0.12849171
45	0xbde3fde6	-0.11132412
46	0xbcca2240	-0.024674535
47	0x3dafaacb	0.08577498
48	0xba341400	-0.00068694353
49	0x3e09fa3d	0.13474365
50	0x3c0c9a50	0.008581713
51	0xbcb23aa8	-0.021756485
52	0xbe0db31a	-0.13837853
53	0xbe0b426b	-0.13599555
54	0xbc95235d	-0.01820534
55	0xbdbaec67	-0.091271214
56	0x3e222ba2	0.15836957
57	0xbdc1b657	-0.09458607
58	0xbd948f4d	-0.07253895
59	0x3e2a2f79	0.16619672
60	0x3c1345a6	0.008988773
61	0xbd02a394	-0.03189428
62	0xbd9a50ec	-0.07534966
63	0xbc187f80	-0.009307742
64	0x3e1a7a7e	0.1508579
65	0xbc4d10a0	-0.012516171
66	0xbe2c1bfe	-0.16807553
67	0xbcaf06eb	-0.021365603
68	0xbe146811	-0.14492823
69	0xbe1d2ab4	-0.15348321
70	0xbe18314d	-0.14862557
71	0xbd51d132	-0.051224895
72	0xbd9249b1	-0.07142962
73	0xbe13149b	-0.14363329
74	0xbd91fcb7	-0.0712828
75	0x3e27d08f	0.16388153
76	0x3e9c72f8	0.30556464
77	0x3e9d48fb	0.30719742
78	0xbe3243b4	-0.17408639
79	0xbe30403f	-0.17212008
80	0xbd459c25	-0.048244614
81	0xbe1a2d53	-0.15056352
82	0xbe156934	-0.14590913
83	0x3e83a833	0.25714263
84	0xbe148e00	-0.14507294
85	0x3e2cd9ed	0.16880007
86	0x3e84b393	0.25918254
87	0x3e46f5ba	0.19429675
88	0x3e846fe3	0.25866613
89	0x3ec919de	0.39277548
90	0xbe14d317	-0.1453365
91	0x3e833028	0.25622678
92	0x3e54f0f8	0.20795047
93	0xbdb74da6	-0.08950357
94	0xbe18aafa	-0.14908972
95	0x3e7ecb4a	0.24882236
96	0xbe15d712	-0.14632824
97	0x3e0157e7	0.12631188
98	0xbe264003	-0.16235356
99	0x3dbd7201	0.0925026
100	0xbd97f6aa	-0.07420094
101	0x3d77d042	0.060501345
102	0x3deceb67	0.11568337
103	0x3d8a1980	0.06743145
104	0x3dd6b83f	0.10484361
105	0xbd80c330	-0.06287229
106	0xbd794531	-0.060857
107	0x3d45e05b	0.048309665
108	0x3d66fc1e	0.05639278
109	0xbc642e4e	-0.0139270555
110	0x3b6817da	0.0035414607
111	0xbe0fbfd3	-0.14038019
112	0xbe163528	-0.14668715
113	0xbdb76e7f	-0.08956622
114	0x3d689b09	0.056788478
115	0xbe143238	-0.14472282
116	0xbe0e3f8e	-0.13891432
117	0xbbe98c8f	-0.0071273516
118	0xbdb0be2e	-0.08630024
119	0xbbabc9d6	-0.0052425666
120	0x3bb16b26	0.0054143844
121	0xbe057d88	-0.13036168
122	0xbdb8850f	-0.09009754
123	0xbd6715b0	-0.056417167
124	0xbdd8eba5	-0.105918206
125	0xbdbb1476	-0.09134762
126	0xbc8669c8	-0.016407862
127	0xbe1a6175	-0.1507624
128	0x3d101d89	0.035184417
129	0xbdb0d316	-0.086340114
130	0xbe18cff2	-0.14923075
131	0x3be936f9	0.007117149
132	0x3e0396b6	0.1285046
133	0xbe2bbe78	-0.16771877
134	0xbd2a3578	-0.041554898
135	0xbe2ed9a1	-0.17075206
136	0x3e08ac03	0.13346867
137	0xbd0f9b25	-0.035060067
138	0x3e0928d1	0.13394476
139	0x3d1423ad	0.036166836
140	0xbd84d49a	-0.06485863
141	0xbd1e5db4	-0.03866358
142	0xbc96b8aa	-0.018398602
143	0xbe17035b	-0.14747374
144	0x3c42c275	0.0118871825
145	0xba90ba91	-0.0011041929
146	0x3d94535f	0.07242464
147	0xbd19387c	-0.037407383
148	0x3bda54bb	0.0066629327
149	0x3bee72d2	0.0072768712
150	0xbdbf8476	-0.09351437
151	0xbc1ba99f	-0.00950089
152	0xbdd038dd	-0.10167096
153	0xbdae1694	-0.085004
154	0x3c834591	0.016024383
155	0xbdfd0966	-0.12355308
156	0x3c04e4f5	0.008111228
157	0xbc0fc870	-0.008775815
158	0xbd15417c	-0.036439404
159	0xbdc71abe	-0.097218975
160	0xbc85bc86	-0.016325247
161	0xbd3ced94	-0.04612501
162	0x3c6327dc	0.013864484
163	0x3d987e7a	0.074459985
164	0x3d9608bd	0.073258854
165	0xbc9124f9	-0.017717825
166	0xbdaf5aee	-0.08562265
167	0xbe29a07e	-0.16565129
168	0xbcd7996f	-0.02631828
169	0xbd6e0134	-0.058106616
170	0xbc9935cc	-0.01870241
171	0xbd1bd8e2	-0.038048632
172	0xbca9b31f	-0.020715294
173	0x3c14997d	0.009069798
174	0x3e4d2894	0.2003501
175	0x3e9c2988	0.30500436
176	0xbcd6f449	-0.026239531
177	0xbd166ff7	-0.03672787
178	0xbd669ece	-0.05630379
179	0xbe05d577	-0.13069712
180	0xbdfc3966	-0.123156354
181	0x3eae9525	0.34098163
182	0xbe248324	-0.16065651
183	0xbd030aeb	-0.031992834
184	0xbcdb0b46	-0.026738774
185	0x3e322116	0.17395434
186	0xbcaf0741	-0.021365764
187	0x3e44f93b	0.19235699
188	0xbc758860	-0.014986128
189	0xbe279b1e	-0.16367766
190	0x3e9841ad	0.29737607
191	0xbd41f770	-0.047355115
192	0xbd0c8863	-0.034309756
193	0xbe2e6af2	-0.17032984
194	0x3e43059a	0.19045106
195	0x3e2ee8eb	0.17081039
196	0x3d7ae9ce	0.06125813
197	0x3d315e72	0.04330296
198	0x3ea1d5cb	0.31608424
199	0x3ca68ac3	0.020329839
200	0x3e438f77	0.19097696
201	0xbe221cee	-0.15831348
202	0x3db01a47	0.08598762
203	0x3e88fccd	0.26755372
204	0xbd8c729f	-0.068578
205	0x3d8f029c	0.069829196
206	0x3dcf174f	0.10111868
207	0xbdadb566	-0.08481865
208	0xbc8871fb	-0.016655913
209	0xbe1d3b5b	-0.15354674
210	0xbe2bf3c5	-0.1679221
211	0xbe1746c5	-0.1477309
212	0x3d902a39	0.07039303
213	0xbe26c5fd	-0.16286464
214	0xbda25fcc	-0.07928428
215	0xbe0fc0f5	-0.14038451
216	0xbdc200a9	-0.09472782
217	0xbd91dcf5	-0.07122222
218	0xbdd05087	-0.10171609
219	0x3c3826dc	0.011239734
220	0xbe0ec9dc	-0.1394419
221	0xbd698b65	-0.057017703
222	0xbe04f0b6	-0.12982449
223	0xbe06fb36	-0.13181767
224	0xbd85d0b6	-0.06533949
225	0x3e3b1b24	0.18272072
226	0xbbdec110	-0.006797917
227	0xbe13def0	-0.14440513
228	0xbd65e339	-0.0561249
229	0xbd56aa1d	-0.052408326
230	0x3d45f5b1	0.048330013
231	0xbd0f0265	-0.034914393
232	0x3dc3773b	0.09544226
233	0xbd5061ea	-0.050874628
234	0xbde39d09	-0.111139365
235	0xbd6786dc	-0.056525096
236	0xbcc7d16a	-0.024391849
237	0xbd18342d	-0.037159134
238	0xbe2737da	-0.163299
239	0xbd2b848c	-0.041874453
240	0xbd2e3a78	-0.04253623
241	0xbe00a4c9	-0.1256286
242	0x3d1937ca	0.03740672
243	0x3e65727d	0.22406955
244	0xbd3c83bf	-0.04602408
245	0xbd0f3764	-0.034964934
246	0x3e9cbca4	0.3061267
247	0x3e28f06f	0.16497968
248	0xbd8deaf7	-0.069295816
249	0x3ebd085f	0.3692045
250	0x3e86e9b4	0.26350176
251	0xbda7c774	-0.081923395
252	0x3da1b749	0.07896287
253	0x3e81c1dd	0.25343218
254	0xbd723b92	-0.059138842
255	0x3edeea8e	0.43538326

model.0.bias f4 [32]
0	0xbe253f3d	-0.16137405
1	0xbdfb1f3f	-0.12261819
2	0x3e0b7880	0.13620186
3	0xbdf9ed56	-0.12203471
4	0xbe09682c	-0.13418645
5	0xb9a5811a	-0.0003156744
6	0xbe021128	-0.12701857
7	0x3c9a9e84	0.018874414
8	0xbe5030b0	-0.20331073
9	0xbe2a330c	-0.16621035
10	0xbd9109a1	-0.07081915
11	0x3ee1b314	0.44081938
12	0xbe2db4ac	-0.16963452
13	0x3e6f4725	0.23366983
14	0xbe3a2a15	-0.18180116
15	0xbd64e671	-0.05588383
16	0xbe280b9b	-0.16410677
17	0x3ce77a8b	0.028256675
18	0x3e0da28b	0.13831536
19	0x3d4f8f6f	0.0506739
20	0x3e9a32a1	0.30116752
21	0xbe348012	-0.1762698
22	0xbe2199d1	-0.15781333
23	0x3ec2287f	0.3792152
24	0xbda8000e	-0.082031354
25	0x3e0055df	0.12532757
26	0x3eccdca6	0.4001209
27	0xbe4f145e	-0.20222613
28	0xbe3b9205	-0.18317421
29	0xbdfb322d	-0.1226543
30	0x3e90f15c	0.28309143
31	0xbe3cd885	-0.1844197

model.2.weight f4 [32, 32]
0	0x3de19fb8	0.11016792
1	0xbc9e3d2d	-0.01931628
2	0x3d45bce7	0.048275854
3	0x3d3509ae	0.044198684
4	0x3d936a54	0.07198015
5	0x3ca242d3	0.019807255
6	0x3d928196	0.07153623
7	0x3c32305e	0.010875789
8	0x3d6f18a1	0.058373097
9	0xba77bae9	-0.0009450154
10	0xbe2881d3	-0.16455774
11	0xbe47af2d	-0.19500418
12	0x3c560b34	0.0130641945
13	0xbe21a932	-0.15787199
14	0x3e46d2f4	0.1941641
15	0xbdf85e19	-0.12127323
16	0xbcf7734a	-0.030206341
17	0x3e93b8ed	0.28852025
18	0xbdf799c6	-0.12089877
19	0x3dbe1ba0	0.09282613
20	0xbdd44de6	-0.103664204
21	0x3e437b66	0.19090042
22	0x3c3363c7	0.010949082
23	0xbb1a55a8	-0.002354959
24	0x3d22fc3c	0.03979133
25	0xbe1776b9	-0.14791383
26	0x3da77b68	0.08177835
27	0xbe24c348	-0.16090119
28	0xbcf3d48c	-0.029764436
29	0xbdbf8da9	-0.093531914
30	0xbd79f6c0	-0.061026335
31	0x3c257b83	0.010100248
32	0xbcb87450	-0.0225164
33	0xbd0eecc0	-0.03489375
34	0x3df569fa	0.11983104
35	0xbdac5530	-0.08414686
36	0x3e10532d	0.14094229
37	0x3d809c9a	0.062798694
38	0x3d4a0ca4	0.04932846
39	0xbd858588	-0.0651961
40	0xbd8b19f4	-0.067920595
41	0x3e348745	0.17629726
42	0xbd77baaa	-0.06048075
43	0xbe104b40	-0.14091206
44	0xbc6ba470	-0.014382467
45	0xbe14e2dc	-0.14539665
46	0x3d20b1ec	0.03923218
47	0x3dff53a2	0.124671236
48	0xbd7d4bf2	-0.061840005
49	0xbc81ed48	-0.015860215
50	0xbde90519	-0.113779254
51	0x3acef380	0.0015789121
52	0x3dcc5926	0.09977941
53	0x3c6fc8c0	0.014635265
54	0xbde52d58	-0.11190289
55	0xbe1bfb6d	-0.1523263
56	0x3d4b469c	0.049627885
57	0xbdadf8f1	-0.084947474
58	0x3be6bea0	0.0070417672
59	0xbd008334	-0.031375125
60	0xbe32c58d	-0.17458172
61	0xbd6c7dba	-0.05773709
62	0x3dff9746	0.12480025
63	0xbd891abc	-0.06694552
64	0xbdc39b42	-0.095510975
65	0x3e1a6d0d	0.15080662
66	0xbc48e687	-0.012261993
67	0xbdf562b3	-0.11981716
68	0x3db14f35	0.08657686
69	0x3d8ac7f4	0.06776419
70	0x3c3fa345	0.011696641
71	0x3e4c3b37	0.19944464
72	0x3d0eb500	0.034840584
73	0x3cbd5492	0.023111615
74	0xbc5a201c	-0.0133133195
75	0x3db3d1e5	0.087802686
76	0x3d0556dc	0.03255354
77	0x3e59aa99	0.21256484
78	0x3dbee23f	0.09320497
79	0xbe0f970e	-0.14022467
80	0x3e0b0ab2	0.13578299
81	0xbe020b8b	-0.12699716
82	0x3a7a2de0	0.0009543579
83	0x3d67e3fa	0.0566139
84	0x3e7a37a9	0.24435295
85	0xbc3de5d5	-0.011590441
86	0x3dffab72	0.124838725
87	0x3e77783e	0.24166963
88	0xbdb3319f	-0.08749699
89	0x3daa9ee8	0.0833109
90	0x3e2dc3c4	0.1696921
91	0x3d8d522f	0.06900441
92	0xbc76012c	-0.015014928
93	0xbe11fb54	-0.1425603
94	0x3dbe7749	0.093000956
95	0x3b164c8a	0.0022933804
96	0xbe2d688b	-0.16934411
97	0x3d37856a	0.044804968
98	0xbde7f498	-0.113259494
99	0x3c308a7b	0.010775204
100	0x3d9f282f	0.07771336
101	0x3d98543f	0.07437944
102	0xbb048b29	-0.0020224547
103	0xbda3e832	-0.08003272
104	0x3dc89586	0.09794144
105	0x3db58fe6	0.08865337
106	0xbe446397	-0.19178616
107	0xbdec1138	-0.11526722
108	0x3d82ce1e	0.0638697
109	0xbce57b30	-0.028012842
110	0xbe1ac896	-0.1511558
111	0x3d8ac33f	0.067755215
112	0xbe4d8f9d	-0.20074315
113	0x3cbf5a1d	0.023358399
114	0x3c80e5a2	0.015734497
115	0xbe4be032	-0.19909742
116	0xbe52d100	-0.2058754
117	0xbd34ad5a	-0.044110633
118	0xbe52748c	-0.20552272
119	0xbe673740	-0.2257967
120	0x3ce82321	0.028337063
121	0xbe31187d	-0.17294498
122	0xbe5c9950	-0.21542859
123	0xbd554a6a	-0.05207292
124	0x3dfa16c2	0.12211372
125	0x3dd3c92c	0.10341105
126	0xbe81a9c9	-0.25324848
127	0xbde1c8c5	-0.11024622
128	0x3caf14fd	0.021372313
129	0x3c06a4e0	0.00821802
130	0xbd565ccd	-0.052334595
131	0x3dd3a0c8	0.10333401
132	0xbde8d8f2	-0.11369504
133	0xbd9a0392	-0.07520212
134	0x3e30dc43	0.17271523
135	0xbde09116	-0.10965173
136	0x3da7db04	0.08196071
137	0xbe09ae0d	-0.13445301
138	0x3e15d339	0.14631356
139	0x3e36934e	0.1782963
140	0x3e19610e	0.1497843
141	0xbe331e00	-0.17491913
142	0x3c5abf9f	0.01335135
143	0xbe4e7b7a	-0.2016429
144	0x3e496bdf	0.19670056
145	0x3d9b9111	0.075960286
146	0x3c1f4f99	0.009723567
147	0x3d3b8378	0.045779675
148	0x3b4075ed	0.0029367164
149	0xbd4987d8	-0.049201816
150	0x3c99d2d7	0.018777294
151	0x3e0fbab9	0.14036073
152	0x3d9a4aa3	0.07533767
153	0xbcfb313c	-0.030663125
154	0x3e634df6	0.22197708
155	0xb94acd87	-0.00019340786
156	0xbdba3b88	-0.09093386
157	0x3d82e374	0.063910395
158	0x3d6f1650	0.05837089
159	0xbe2eef73	-0.1708353
160	0x3d9edd3a	0.07757039
161	0xbde5cb5e	-0.1122043
162	0xbdd2dc9f	-0.102959864
163	0xbd943792	-0.07237162
164	0xbe36bf2f	-0.17846368
165	0xbc6ce380	-0.014458537
166	0x3e09a9aa	0.13443628
167	0x3c243b62	0.010023924
168	0xbe0e79e3	-0.13913684
169	0xbdd19208	-0.102329314
170	0xbccd36a9	-0.025050478
171	0x3d4f2d53	0.050580334
172	0x3df6dcf2	0.12053861
173	0xbd7848a2	-0.060616143
174	0x3e181943	0.14853387
175	0xbc4adc3f	-0.012381612
176	0xbd8569b1	-0.065143
177	0xbe2a4128	-0.16626418
178	0x3d82ed10	0.06392872
179	0xbe2b507f	-0.16729926
180	0x3ded6fad	0.11593566
181	0xbe21d15a	-0.15802518
182	0x3d9bde9f	0.07610821
183	0x3cafdd29	0.021467762
184	0x3e1ba635	0.15200122
185	0xbd91ecf5	-0.07125274
186	0xbde8d814	-0.11369339
187	0x3d882da2	0.06649329
188	0xbc137269	-0.0089994455
189	0x3e074d57	0.13213097
190	0x3d985782	0.07438566
191	0x3db69896	0.08915822
192	0x3e001324	0.12507302
193	0xbdfeb6a8	-0.12437183
194	0xbe3bc4f0	-0.18336844
195	0x3ccc24dc	0.02491992
196	0x3ca8591f	0.020550309
197	0xbe80c2c0	-0.25148582
198	0x3df9517e	0.121737465
199	0xbeb12378	-0.34597373
200	0x3df936a0	0.12168622
201	0xbe0bb240	-0.13642216
202	0x3e5019c4	0.20322329
203	0xbdf6e750	-0.12055838
204	0xbd53afbc	-0.051681265
205	0xbb3bf875	-0.0028682027
206	0x3d9a8309	0.07544524
207	0x3c078854	0.008272249
208	0x3db39085	0.08767799
209	0x3e488be2	0.19584611
210	0xbe25f319	-0.16206016
211	0xbe138f32	-0.14410093
212	0xbdbb90e5	-0.09158496
213	0x3e3bc793	0.1833785
214	0x3e00dc8f	0.12584136
215	0x3b822600	0.003971815
216	0x3a41e8cc	0.0007397055
217	0xbcb6f09a	-0.022331525
218	0xbe2d545d	-0.16926713
219	0x3d351b7e	0.04421567
220	0xbdd565f0	-0.10419834
221	0xbda5509d	-0.080720164
222	0x3d839476	0.06424801
223	0xbcbdc107	-0.023163332
224	0xbdc22c20	-0.094810724
225	0xbe48f798	-0.196257
226	0x3e085d29	0.13316788
227	0xbd341090	-0.043961108
228	0xbc0e5798	-0.008687876
229	0xbe65dfee	-0.22448704
230	0x3e1fc9f7	0.15604387
231	0xbded98c7	-0.116014056
232	0x3d89bd97	0.067256145
233	0x3e043a09	0.12912764
234	0x3da1f735	0.07908479
235	0xbd79181c	-0.060814008
236	0x3e40c30b	0.18824403
237	0xbe235b2b	-0.15952747
238	0x3d4e4d2a	0.050366558
239	0x3da20ca8	0.0791257
240	0x3df17d1e	0.11791442
241	0x3d0ca2a1	0.034334783
242	0xbe11c91c	-0.14236873
243	0xbdf60237	-0.12012141
244	0xbbfd1c54	-0.0077243242
245	0x3e3ff398	0.18745267
246	0x3e51ccbc	0.20488256
247	0xbbda29af	-0.006657801
248	0x3e1b0427	0.15138303
249	0x3dfc5b1d	0.12322066
250	0x3d7fe9c2	0.06247879
251	0xbcd14025	-0.025543282
252	0xbdd226c4	-0.102613
253	0x3d1eeffd	0.03880309
254	0xbe0866a5	-0.13320406
255	0xbcd6175c	-0.026134185

model.2.bias f4 [32]
0	0xbe0925f3	-0.13393383
1	0xbdd1aa55	-0.102375664
2	0x3eb826f9	0.35967234
3	0x3cb2ee41	0.021842124
4	0xbcecfadf	-0.028928218
5	0xbdfeaea0	-0.12435651
6	0xbdc45ed6	-0.09588401
7	0xbddd194a	-0.10795839
8	0xb9e65498	-0.00043932046
9	0xbe258e58	-0.16167581
10	0xbcaef7f0	-0.02135846
11	0xbd2c921a	-0.04213152
12	0x3ed696b3	0.4191185
13	0xbd83f83c	-0.06443831
14	0xbe17d858	-0.14828622
15	0xbdc6939f	-0.09696125
16	0xbe4a4a9e	-0.19755027
17	0xbd435ec1	-0.047697786
18	0xbdb48231	-0.088138945
19	0x3eaa56cf	0.33269355
20	0xbe3ecb6e	-0.1863229
21	0x3ec5a3a3	0.38601407
22	0xbd6dedcb	-0.058088105
23	0xbd88663d	-0.066601254
24	0xbd825097	-0.063630275
25	0xbd9ef810	-0.07762158
26	0xbce0a0d0	-0.027420431
27	0x3ed51a69	0.41621712
28	0xbe2142d2	-0.15748146
29	0xbd42b375	-0.047534425
30	0x3ec6222c	0.38697946
31	0xbd0c18b8	-0.03420326

model.4.weight f4 [1, 32]
0	0xbbeabb63	-0.0071634515
1	0xbd8aed13	-0.067834996
2	0x3ea17a51	0.31538633
3	0x3b107f53	0.0022048547
4	0x3d6b27dd	0.057411063
5	0xbd455949	-0.048180852
6	0x3c2f86d4	0.010713298
7	0x3a8f28c8	0.0010922188
8	0xbd9e9f1f	-0.07745194
9	0xbdcfddc6	-0.10149722
10	0x3cbc5248	0.022988454
11	0xbbf3e52e	-0.007443092
12	0x3e25924b	0.16169088
13	0x3b9e1fdc	0.0048255753
14	0x3df745b1	0.120738395
15	0x3c26d330	0.010182187
16	0xb8d48a2f	-0.000101346865
17	0x3c0dc4a0	0.008652836
18	0x3e26726b	0.16254584
19	0x3e85ffab	0.26171622
20	0xbdb97d5c	-0.090571135
21	0x3eac758c	0.3368343
22	0xb973730c	-0.00023217144
23	0xbc930132	-0.017944906
24	0xbdafc6a7	-0.08582812
25	0x3d284cf0	0.041089
26	0x3de9eb04	0.11421779
27	0x3e7be84d	0.24600334
28	0xbcca7fd0	-0.024719149
29	0x3a5c17fd	0.00083959085
30	0x3e9d13c5	0.30679145
31	0x3dcf5661	0.10123897
