models/empowerment_2_steps/RoomPlus2Corrid-v0_source_distr.pth (torch_old, 13061 bytes, 6 tensors)

model.0.weight f4 [32, 33]
-0.2976152 0.20238858 0.11860792 -0.01111416 -0.21931148 -0.28833574 -0.2413519 -0.24810614
0.08332528 0.38743895 0.24256667 -0.16796246 -0.29068172 -0.17048143 0.11891272 0.30985993
0.26660424 -0.0063558766 -0.19834104 -0.2443979 0.6304602 -0.13678314 0.042094152 0.16516455
0.13593334 -0.21909463 -0.16487052 -0.012711888 0.16156949 0.122587405 0.25720823 -0.29129213
0.00017624223 -0.013238117 0.14052406 0.15705648 0.045691714 0.15269887 -0.060282305 -0.06791774
-0.016227007 -0.08354323 0.066930085 -0.002900064 -0.09755758 0.16409698 -0.06741109 0.14007592
0.15895125 -0.06686976 -0.014787823 0.049538568 0.075570375 0.061247677 0.14977428 -0.08450696
-0.065069824 -0.041781545 0.025401726 0.03437841 -0.07695541 -0.11964502 -0.0035263896 0.16530497
-0.055256724 -0.109911785 -0.13409662 0.044648275 -0.089952745 0.13676219 -0.17803428 -0.21274501
-0.20593275 -0.1810821 -0.10317806 0.4995311 0.4480496 -0.17889625 -0.14546517 -0.2059131
0.21779771 -0.10208356 -0.1556182 -0.18138233 -0.18191686 -0.21101259 -0.1861499 0.5990495
0.0586179 -0.13699277 -0.1827798 -0.13042739 -0.21229064 -0.15395395 0.13734818 0.33891642
0.44808468 -0.06511119 -0.20792402 0.00914504 -0.21422471 -0.24818853 -0.24296895 -0.23849931
-0.2580841 0.16294329 0.24730925 0.30962396 0.037557878 -0.23743553 -0.23675168 0.21037604
-0.0248344 0.14744991 0.13616155 -0.2397344 -0.246852 0.10727268 -0.2350843 -0.23761505
-0.23669289 0.43883497 -0.17797723 -0.1413692 0.20284234 0.08656686 0.3732138 -0.17838264
-0.14018196 -0.19511458 -0.0001461895 0.095483966 -0.24022745 -0.19752721 0.41745007 -0.11230432
0.20615396 -0.12352098 -0.2342684 0.056046084 -0.2418299 0.36399147 -0.17173895 0.10227806
0.12391141 -0.2101511 -0.24303283 -0.21870492 -0.12523848 0.16346383 -0.06324074 -0.22354293
0.12484558 -0.11404393 0.53652006 0.29835433 0.22125539 0.16319413 -0.056716938 -0.22394225
-0.19186619 -0.22260992 -0.09980373 -0.22521037 -0.21110438 -0.14045113 -0.12320303 -0.12926525
-0.11816459 0.19856319 -0.11790613 0.20427382 -0.16444407 -0.12875085 -0.07635352 -0.12295468
0.40944916 0.61763346 0.46337447 -0.071128994 -0.06701862 -0.13020727 -0.04118663 0.11397355
0.23744424 -0.088646226 -0.12204477 0.12799081 -0.16907051 -0.13544637 -0.12709771 -0.057402734
-0.10602691 -0.006297101 -0.07386429 -0.12419072 -0.14729868 -0.0019435068 -0.16364655 0.24141496
0.7301524 -0.16469996 -0.028087744 -0.14532377 -0.09592288 -0.15874983 -0.0255394 0.2221408
0.14816426 -0.16517536 -0.15173483 -0.15628512 -0.037699718 0.18465194 -0.12584355 -0.14390829
-0.1568319 -0.08361379 0.20152314 -0.17509553 -0.1588515 -0.087802134 -0.05460751 -0.14857724
0.12200038 0.05157185 0.42114773 0.22253776 0.022348914 -0.16943504 -0.028287318 0.28309155
0.6589802 -0.22487642 0.16106507 -0.20776069 -0.1341839 0.13592653 -0.21398772 0.34463584
0.059641972 -0.21246453 0.38850063 -0.18318331 0.1452604 0.20914005 -0.15680584 0.029069494
0.08803978 -0.20893618 -0.15960419 0.18693662 -0.22276382 0.31112206 -0.20861664 -0.20846464
00000000: 0561 98be f43e 4f3e b6e8 f23d 2a18 36bc
00000010: 3093 60be bea0 93be f424 77be 890f 7ebe
00000020: 72a6 aa3d 665e c63e 6663 783e 5afe 2bbe
00000030: 3cd4 94be af92 2ebe 8388 f33d f6a5 9e3e
00000040: 5a80 883e f544 d0bb ea19 4bbe 7143 7abe
00000050: d765 213f e110 0cbe eb6a 2c3d e520 293e
00000060: 1c32 0b3e 585a 60be d1d3 28be 8645 50bc
00000070: 7972 253e 1b0f fb3d ccb0 833e 3e24 95be
00000080: aacd 3839 b0e4 58bc 8ae5 0f3e 6ad3 203e
00000090: 3c27 3b3d 185d 1c3e 94ea 76bd 7518 8bbd
000000a0: 80ee 84bc b718 abbd a412 893d 000f 3ebb
000000b0: 45cc c7bd 0a09 283e d30e 8abd 1070 0f3e
000000c0: 1ec4 223e 03f3 88bd a048 72bc f4e8 4a3d
000000d0: a4c4 9a3d d8de 7a3d 6e5e 193e fc11 adbd
000000e0: 5443 85bd 2023 2bbd 4817 d03c 60d0 0c3d
000000f0: cc9a 9dbd 7308 f5bd 001b 67bb b545 293e
00000100: e054 62bd 6e19 e1bd a050 09be 1ce1 363d
00000110: 2539 b8bd 630b 0c3e 9e4e 36be d4d9 59be
00000120: 09e0 52be 966d 39be 054f d3bd 8ac2 ff3e
00000130: c266 e53e 9430 37be d2f4 14be e2da 52be
00000140: 5d06 5f3e 2f11 d1bd 615a 1fbe 4abc 39be
00000150: 6a48 3abe af13 58be 149e 3ebe 4f5b 193f
00000160: 5319 703d d547 0cbe a12a 3bbe c28e 05be
00000170: b862 59be 1ba6 1dbe 00a5 0c3e 7486 ad3e
00000180: 5b6b e53e 0459 85bd 09ea 54be 14d5 153c
00000190: b95d 5bbe 2225 7ebe dacc 78be 2a39 74be
000001a0: 9923 84be 9bda 263e a33e 7d3e 0887 9e3e
000001b0: 4ad6 193d 4d22 73be 086f 72be d16c 573e
000001c0: 8371 cbbc 1cfd 163e ef6d 0b3e ef7c 75be
000001d0: c5c6 7cbe c7b1 db3d f0b9 70be 5c51 73be
000001e0: 9f5f 72be faae e03e aa3f 36be 16c3 10be
000001f0: e7b5 4f3e f749 b13d e115 bf3e f0a9 36be
00000200: dc8b 0fbe 1ecc 47be 724a 19b9 198d c33d
00000210: 2ffe 75be 9344 4abe 04bc d53e cfff e5bd
00000220: 061a 533e 91f8 fcbd 0ee4 6fbe 9490 653d
00000230: 42a2 77be 175d ba3e 56dc 2fbe 2977 d13d
00000240: 44c5 fd3d da31 57be 99dd 78be 2ff4 5fbe
00000250: 843e 00be 1063 273e 5c84 81bd 70e8 64be
00000260: 0aaf ff3d dd8f e9bd 6159 093f e6c1 983e
00000270: c690 623e 5d1c 273e 0550 68bd 1e51 65be
00000280: 9278 44be dbf3 63be e665 ccbd 8c9d 66be
00000290: bf2b 58be 6cd2 0fbe df51 fcbd 1c5e 04be
000002a0: 4700 f2bd 2654 4b3e c578 f1bd 282d 513e
000002b0: 0764 28be 43d7 03be 3c5f 9cbd aacf fbbd
000002c0: 52a3 d13e 3a1d 1e3f 6b3f ed3e 14ac 91bd
000002d0: 0f41 89bd 0e55 05be 50b3 28bd f76a e93d
000002e0: 9524 733e 278c b5bd 9cf2 f9bd 0610 033e
000002f0: d220 2dbe 74b2 0abe e725 02be 211f 6bbd
00000300: a324 d9bd e957 cebb 2946 97bd b457 febd
00000310: 77d5 16be 44bd feba f692 27be 7c35 773e
00000320: 45eb 3a3f 1ba7 28be 4518 e6bc c1cf 14be
00000330: 3773 c4bd 518f 22be 0138 d1bc e178 633e
00000340: 5fb8 173e bb23 29be 6060 1bbe 3509 20be
00000350: 056b 1abd 6615 3d3e 22dd 00be b25c 13be
00000360: 8b98 20be b53d abbd 155c 4e3e 3e4c 33be
00000370: f8a9 22be 9bd1 b3bd 20ac 5fbd a224 18be
00000380: 56db f93d 013d 533d ada0 d73e f0e0 633e
00000390: 1215 b73c 6180 2dbe ceba e7bc 60f1 903e
000003a0: edb2 283f 0146 66be 3eee 243e 38bf 54be
000003b0: 8167 09be 5330 0b3e 991f 5bbe 1c74 b03e
000003c0: 244b 743d 4d90 59be 8ee9 c63e 6894 3bbe
000003d0: 24bf 143e cf28 563e b691 20be 2623 ee3c
000003e0: 334e b43d 5ef3 55be 486f 23be 506c 3f3e
000003f0: 331c 64be 644b 9f3e 9a9f 55be c177 55be

model.0.bias f4 [32]
0.10579989 -0.17470038 0.049581625 0.07919095 0.00092200463 -0.016301772 -0.03627329 0.08962069
-0.044020575 0.050542865 -0.12805913 -0.023723312 -0.0009919482 0.031725205 0.075882 -0.03374464
0.03955101 -0.017223682 0.015726842 0.043569244 0.07321355 -0.07561328 0.16506015 0.12895519
0.001915985 -0.008467163 -0.016506165 0.10055878 -0.15964729 -0.0007653668 -0.08567584 0.02025658
00000000: 9dad d83d a8e4 32be 1a16 4b3d dd2e a23d
00000010: afb2 713a 4b8b 85bc 4d93 14bd 0d8b b73d
00000020: eb4e 34bd 0906 4f3d ef21 03be 6457 c2bc
00000030: 4204 82ba 4af2 013d 0668 9b3d d237 0abd
00000040: 3d00 223d ae18 8dbc 94d5 803c aa75 323d
00000050: fcf0 953d 23db 9abd 8705 293e d40c 043e
00000060: ca21 fb3a dbb9 0abc f037 87bc c3f1 cd3d
00000070: 947a 23be e6a2 48ba d176 afbd 21f1 a53c

model.2.weight f4 [32, 32]
-0.0041298335 0.017071173 -0.17952307 0.064577855 -0.11655956 -0.114540346 0.32267192 -0.20233463
-0.08926623 0.5759509 0.053594053 -0.05497883 0.086988755 -0.14824668 0.030314283 0.08099124
-0.49233952 0.3615419 0.29429722 0.2952911 0.109344825 -0.2613277 -0.11637104 -0.28693074
-0.012430062 -0.22119227 -0.0852335 0.33205 0.12646373 0.044454522 0.062335126 0.30808514
0.14126374 0.13298212 -0.07963577 0.39487594 -0.03224873 0.25124508 0.020049537 0.079085685
-0.109633856 -0.050240174 -0.014190063 -0.5852646 0.57028127 -0.33510232 0.2761132 -0.05546221
-0.07205864 -0.5168811 -0.003963937 -0.48474765 -0.00058083236 -0.2829766 -0.16964984 -0.4125778
-0.8933535 0.15137821 0.18689656 0.31123275 -0.0976314 0.10224876 -0.4420762 -0.034707926
0.07642133 -0.0106946975 0.46525392 0.13131166 0.3413984 0.13642628 -0.3188241 0.06783981
0.21889098 0.067288935 -0.13521817 0.27965963 -0.16432212 -0.15603147 0.04540093 -0.43046767
0.1254041 0.55697787 -0.23111609 -0.026419872 -0.91228694 -0.49542066 0.37627214 0.023785908
-0.13094005 0.39909777 -0.018366909 -0.547609 0.08618526 0.19487326 -0.1221894 0.0066703567
-0.1767055 0.031641524 0.041319 0.35625806 -0.14010133 0.23579492 -0.12300666 0.20930792
0.18709645 -0.3688664 -0.028594496 -0.248877 0.46241388 0.087272674 -0.38017476 -0.1398865
0.6471919 -0.5744606 0.13910194 0.5816294 0.4090923 0.06603073 -0.123017676 -0.29214385
-0.39269662 -0.14690854 0.33128536 -0.13811496 -0.002060851 -0.5007851 -0.27606118 0.32111388
0.054016534 -0.16292277 -0.12586741 0.009608433 -0.058830377 0.048464477 -0.020365871 -0.14668098
0.056010246 -0.10747285 0.13380934 0.030620059 -0.17443088 -0.055776864 -0.13552156 0.06174437
-0.014102423 0.057028312 -0.08609486 -0.0438177 -0.1587508 -0.08451378 -0.15212807 0.06944663
0.0509188 -0.17147905 0.011970296 0.0067123403 -0.022639617 -0.17403838 -0.053149156 0.040929724
0.02486214 -0.02919747 0.35021457 -0.62486 -0.41318768 -0.0663956 0.26305893 0.051177505
0.045578398 -0.23652026 0.02289515 0.3380448 0.29890582 -0.1084436 -0.18197076 -0.3685508
-0.18419375 -0.21301003 0.10147139 -0.2760655 0.023525 0.016333181 0.2604634 -0.05570691
0.34783188 0.15226048 -0.40766355 0.08014478 0.090307936 -0.17874904 -0.4039219 -0.049622733
0.59590304 -0.07632303 0.24501139 0.48648518 0.35874483 -0.22069709 -0.06948787 0.42519024
-0.22470821 0.23476307 -0.11270594 -0.17761129 -0.37662718 0.085416704 0.116118476 0.15303625
-0.21704514 -0.19583596 0.2832975 -0.14482078 0.46152017 0.3317082 0.1439548 -0.8648455
-0.024419248 -0.25191355 0.17658928 0.0002865925 -0.13572758 -0.23344609 -0.028330458 0.1902733
-0.42033294 0.12189215 -0.11921862 -0.16632724 0.42830417 0.3503609 -0.10368525 0.0006960347
0.056806337 -0.020011883 0.045391772 0.18109861 -0.27987146 -0.070741475 0.17570397 0.1667305
-0.28965527 0.25518999 -0.37541872 -0.55762035 -0.019315096 0.04738414 0.4178412 0.34757128
-0.48010704 -0.098419026 -0.39505023 0.25262973 -0.021863047 0.16805936 0.098481655 -0.68814856
00000000: 8e53 87bb d8d8 8b3c e5d4 37be 6541 843d
00000010: c7b6 eebd 2194 eabd 4135 a53e cf30 4fbe
00000020: 37d1 b6bd 8571 133f 7085 5b3d 7b31 61bd
00000030: 2927 b23d facd 17be a955 f83c bcde a53d
00000040: ed13 fcbe 051c b93e 20ae 963e 6530 973e
00000050: 2ef0 df3d bfcc 85be f153 eebd 96e8 92be
00000060: 75a7 4bbc 3a80 62be e78e aebd 7502 aa3e
00000070: b57f 013e f215 363d 1e53 7f3d 56bd 9d3e
00000080: 71a7 103e 772c 083e 1418 a3bd 2e2d ca3e
00000090: 3f17 04bd 32a3 803e ed3e a43c adf7 a13d
000000a0: b787 e0bd a4c8 4dbd 707d 68bc e7d3 15bf
000000b0: f4fd 113f 8892 abbe b65e 8d3e 582c 63bd
000000c0: 7b93 93bd 5252 04bf eae3 81bb d830 f8be
000000d0: 0043 18ba 4fe2 90be b0b8 2dbe 663d d3be
000000e0: d1b2 64bf e402 1b3e d061 3f3e e659 9f3e
000000f0: f9f2 c7bd cc67 d13d d057 e2be e629 0ebd
00000100: c982 9c3d d038 2fbc c335 ee3e 9076 063e
00000110: c5cb ae3e 55b3 0b3e ea3c a3be 99ef 8a3d
00000120: f524 603e c8ce 893d a276 0abe 8c2f 8f3e
00000130: 0f44 28be b7c6 1fbe 53f6 393d 4266 dcbe
00000140: ef69 003e 1a96 0e3f b2a9 6cbe 7d6e d8bc
00000150: a38b 69bf c7a7 fdbe bea6 c03e aada c23c
00000160: 2615 06be 8b56 cc3e 3376 96bc 1a30 0cbf
00000170: e681 b03d db8c 473e 703e fabd 0293 da3b
00000180: 49f2 34be 8b9a 013d 1d3e 293d 7567 b63e
00000190: b976 0fbe 3974 713e eaea fbbd d154 563e
000001a0: 3696 3f3e 0fdc bcbe 013f eabc 9dd9 7ebe
000001b0: 83c1 ec3e 04bc b23d 44a6 c2be 683e 0fbe
000001c0: 5eae 253f da0f 13bf bd70 0e3e aae5 143f
000001d0: 8c74 d13e 1f3b 873d b1f0 fbbd e193 95be
000001e0: 880f c9be 316f 16be 3c9e a93e 026e 0dbe
000001f0: 580f 07bb 7433 00bf e457 8dbe 0a69 a43e
00000200: 7140 5d3d 3ad5 26be 63e3 00be b06c 1d3c
00000210: 1ff8 70bd b082 463d 54d6 a6bc 8a33 16be
00000220: 006b 653d ba1a dcbd 5105 093e ebd6 fa3c
00000230: 029e 32be 4876 64bd 2ac6 0abe aae7 7c3d
00000240: d90d 67bc 8596 693d 8152 b0bd 307a 33bd
00000250: 928f 22be 9015 adbd 76c7 1bbe 093a 8e3d
00000260: 3b90 503d 3498 2fbe 0f1f 443c 31f3 db3b
00000270: b876 b9bc 1e37 32be eeb2 59bd eda5 273d
00000280: b0ab cb3c 882f efbc 534f b33e d3f6 1fbf
00000290: 568d d3be 6bfa 87bd a9af 863e 819f 513d
000002a0: 6ab0 3a3d 5e32 72be 9c8e bb3c 3514 ad3e
000002b0: 2f0a 993e ae17 debd 8b56 3abe b1b2 bcbe
000002c0: 499d 3cbe 4d1f 5abe 3bd0 cf3d 7558 8dbe
000002d0: 80b7 c03c 2acd 853c 755b 853e ee2c 64bd
000002e0: 0517 b23e 2cea 1b3e 47b9 d0be f222 a43d
000002f0: 5ef3 b83d fd09 37be dace cebe 3541 4bbd
00000300: 1a8d 183f 404f 9cbd 44e4 7a3e 9614 f93e
00000310: 67ad b73e 6bfe 61be a84f 8ebd 89b2 d93e
00000320: e919 66be bb65 703e 5fd2 e6bd bcdf 35be
00000330: 47d5 c0be f4ee ae3d 86cf ed3d 89b5 1c3e
00000340: 1541 5ebe 3989 48be 5f0c 913e e64b 14be
00000350: 5f4c ec3e a8d5 a93e e368 133e 8466 5dbf
00000360: e00a c8bc d0fa 80be d2d3 343e cb41 9639
00000370: 2cfc 0abe 7e0c 6fbe 4715 e8bc 01d7 423e
00000380: e135 d7be 97a2 f93d e428 f4bd b051 2abe
00000390: af4a db3e 8162 b33e ef58 d4bd 1976 363a
000003a0: c3ad 683d f6ef a3bc b9ec 393d ea71 393e
000003b0: 504b 8fbe e8e0 90bd beeb 333e 66bb 2a3e
000003c0: b24d 94be 43a8 823e e236 c0be 35c0 0ebf
000003d0: b13a 9ebc df15 423d 48ef d53e ddf4 b13e
000003e0: 97d0 f5be ea8f c9bd 0644 cabe af58 813e
000003f0: 221a b3bc c117 2c3e c0b0 c93d 812a 30bf

model.2.bias f4 [32]
0.05837642 -0.0973001 0.09524794 0.05757025 -0.13196193 0.07322491 -0.012707001 0.1973245
-0.06378116 0.051174473 0.11494142 0.18660259 -0.17868654 -0.11768171 -0.047741193 -0.09102499
0.05213331 -0.12537114 0.09978537 0.1329919 -0.1953795 -0.08174488 0.12727438 -0.15791042
-0.035220023 0.15911964 -0.03862141 0.08028912 -0.07490697 0.11039808 0.12673432 0.22376385
00000000: 1d1c 6f3d 4645 c7bd 5a11 c33d c8ce 6b3d
00000010: 0721 07be f1f6 953d 0631 50bc 6f0f 4a3e
00000020: b29f 82bd 539c 513d 6866 eb3d c014 3f3e
00000030: 9bf9 36be 1c03 f1bd 458c 43bd 4f6b babd
00000040: bd89 553d 4b61 00be 465c cc3d 072f 083e
00000050: 9011 48be dc69 a7bd 3754 023e 45b3 21be
00000060: df42 10bd 42f0 223e 7c31 1ebd 9f6e a43d
00000070: d368 99bd 6318 e23d a4c6 013e 5a22 653e

model.4.weight f4 [25, 32]
0.39425313 0.71777743 -0.37547952 0.24473001 0.018719802 -0.022703085 1.899611 -0.44012448
0.7915322 0.34657195 0.5252795 -0.077077925 -0.02473981 0.3054639 -0.17158397 -0.17385842
-0.37290463 -0.04462038 -0.032042697 -0.37625533 0.004376825 0.6982251 -0.5098227 -0.015065285
0.40031195 -0.02378065 0.1318045 0.045249034 0.29205778 -0.092030115 -0.69043016 0.051652424
0.023263847 0.17838193 -0.31083676 -0.10170605 -0.053761896 -0.07608938 -0.08871719 0.2626317
0.13286948 -0.5148063 -0.19701575 -0.13155916 0.16958582 -0.13461667 0.5160934 0.12773655
-0.16009326 -0.10010009 0.2038363 0.27555442 0.047193464 -0.015004755 0.52954817 0.5180793
-0.4376716 -0.24174322 -0.0024871505 -0.20082714 -0.28371543 -0.4631891 -0.10807921 0.35267594
-0.19705185 -0.20195323 0.4675311 -0.33255526 0.05917855 -0.049018547 0.14194322 -0.19659935
0.29872367 -0.08928982 0.4743587 -0.56488764 0.07799751 -0.13642348 -0.5674102 -0.03131594
0.3406328 0.012007212 -0.23299137 -0.44360793 0.14562939 0.07862117 -0.17368324 1.1428436
0.343638 -0.505194 0.41962963 -0.054504134 0.42927846 0.5382298 0.15320764 -0.27647173
0.7028853 -0.24314189 0.07208266 -0.037291575 -0.009160023 0.07902744 -0.09592132 -0.22119424
0.6700801 0.19270284 0.13750014 0.08094899 0.035710026 -0.33821365 -0.2873152 -0.16856195
0.09655233 0.06728192 -0.046081673 0.12749392 0.09839316 0.055748414 -0.24777162 -0.17914392
0.051101718 0.32329607 -0.54415387 0.11048374 -0.15172653 -0.09399845 0.2553231 -0.43880057
-0.1007263 -0.15722312 -0.025189249 -0.13054408 0.06610277 -0.06298926 0.20147568 -0.49235094
0.35719416 -0.013263116 0.17502995 0.15658471 0.039919764 0.074819475 -0.436634 -0.06538849
-0.26631725 -0.12980929 0.05818771 -0.011249893 0.10686995 0.41426468 -0.4500732 0.07270729
0.015234849 -0.118310556 -0.13446656 -0.01184374 0.21415132 -0.040643845 -0.21518777 -0.13946553
0.00042000413 0.017113121 -0.35917652 -0.4313342 -0.030556856 -0.14938836 -0.100737385 -0.23705369
0.48884994 -0.8386993 0.16661385 0.027539209 -0.13376804 -0.07695535 0.006646693 0.009076709
-0.38384235 -0.07111747 0.017398369 -0.26417056 -0.0074956287 -0.24750796 -0.26141667 0.2373253
-0.05502688 0.0646282 -0.15551998 -0.012969803 -0.06478005 0.06431122 -0.19579479 0.029616762
-0.7655805 -0.5134626 -0.19785641 0.86261904 0.07162608 0.13685858 -0.29837653 -0.55168456
-0.13957669 0.3155729 -0.20525204 0.7342728 -0.16618139 -0.4159399 0.2102182 0.14840226
0.14033934 0.030985069 -0.47474456 0.96715474 0.0984032 -0.42819333 0.95315504 0.32014686
0.35074756 0.07942931 0.53516924 0.083771765 0.8179615 -0.5443601 0.2512259 0.8694687
-0.22690845 -0.28982005 0.2848469 0.9154808 0.1379184 0.07335199 -0.070054576 0.13134596
0.183412 -0.08430399 -0.34863585 0.5491277 0.036152568 -0.0750215 0.2801881 0.08216664
0.66690373 -0.06467887 -0.2664509 -0.49816394 -0.1607305 0.14733864 0.1940454 -0.12752238
0.048761714 -0.15626438 -0.066886924 -0.061170407 0.56994826 -0.10488021 0.43154895 0.06944614
00000000: 8cdb c93e 43c0 373f da3e c0be 819a 7a3e
00000010: 455a 993c d2fb b9bc 7426 f33f ff57 e1be
00000020: dba1 4a3f e171 b13e b878 063f 08db 9dbd
00000030: 24ab cabc c465 9c3e b5b3 2fbe f107 32be
00000040: 5bed bebe dcc3 36bd 343f 03bd 8aa4 c0be
00000050: 786b 8f3b e1be 323f be83 02bf 63d4 76bc
00000060: b0f5 cc3e a3cf c2bc c2f7 063e 0d57 393d
00000070: 9988 953e 497a bcbd 08c0 30bf 7e91 533d
00000080: d393 be3c c1a9 363e ff25 9fbe 434b d0bd
00000090: 6f35 5cbd c0d4 9bbd 5cb1 b5bd aa77 863e
000000a0: f00e 083e 58ca 03bf 7fbe 49be 72b7 06be
000000b0: e8a7 2d3e f4d8 09be b21e 043f 5fcd 023e
000000c0: 7def 23be 4701 cdbd 77ba 503e 7815 8d3e
000000d0: ef4d 413d 81d6 75bc 7890 073f d8a0 043f
000000e0: 7e16 e0be 898b 77be 76ff 22bb a1a5 4dbe
000000f0: 2643 91be 1f27 edbe a258 ddbd f191 b43e
00000100: f6c7 49be d4cc 4ebe 3d60 ef3e af44 aabe
00000110: 3565 723d acc7 48bd 9059 113e 5751 49be
00000120: 4ff2 983e 95dd b6bd 25df f23e 7a9c 10bf
00000130: 29bd 9f3d 99b2 0bbe cb41 11bf 2545 00bd
00000140: 6c67 ae3e e6b9 443c 4a95 6ebe 9420 e3be
00000150: df1f 153e 2304 a13d 05da 31be b348 923f
00000160: 52f1 af3e 6554 01bf b2d9 d63e ba3f 5fbd
00000170: 63ca db3e 6ec9 093f 77e2 1c3e b48d 8dbe
00000180: 4bf0 333f 30fa 78be 13a0 933d 0dbf 18bd
00000190: ec13 16bc 23d9 a13d 6672 c4bd be80 62be
000001a0: 5f8a 2b3f e553 453e d6cc 0c3e 96c8 a53d
000001b0: ad44 123d 572a adbe fa1a 93be 819b 2cbe
000001c0: 3abd c53d 1acb 893d 23c0 3cbd c48d 023e
000001d0: 5a82 c93d 7358 643d d8b7 7dbe 8171 37be
000001e0: 0950 513d 1087 a53e ab4d 0bbf 4d45 e23d
000001f0: 335e 1bbe 4282 c0bd b6b9 823e 78aa e0be
00000200: 9749 cebd 19ff 20be af59 cebc 59ad 05be
00000210: e460 873d 8300 81bd a44f 4e3e 6c15 fcbe
00000220: 27e2 b63e 8a4d 59bc 0d3b 333e be57 203e
00000230: e882 233d f43a 993d 7e8e dfbe 67ea 85bd
00000240: bc5a 88be baec 04be 3c56 6e3d 7951 38bc
00000250: a2de da3d 801a d43e ff6f e6be 8fe7 943d
00000260: 979b 793c ce4c f2bd 9ab1 09be 3f0c 42bc
00000270: 7c4a 5b3e 297a 26bd 2f5a 5cbe 0dd0 0ebe
00000280: 0034 dc39 d130 8c3c fce5 b7be d6d7 dcbe
00000290: 5f52 fabc 43f9 18be 674f cebd 34be 72be
000002a0: 8a4a fa3e ffb4 56bf d29c 2a3e e899 e13c
000002b0: 7dfa 08be c49a 9dbd 81cc d93b 7ab6 143c
000002c0: fc86 c4be 09a6 91bd 0687 8e3c 5d41 87be
000002d0: e49d f5bb ba72 7dbe 68d8 85be 6705 733e
000002e0: de63 61bd ca5b 843d a140 1fbe 4c7f 54bc
000002f0: 67ab 84bd 9ab5 833d 6e7e 48be da9e f23c
00000300: 15fd 43bf 4972 03bf df9a 4abe 9ad4 5c3f
00000310: b2b0 923d a824 0c3e cfc4 98be 333b 0dbf
00000320: 31ed 0ebe c592 a13e 972d 52be 4df9 3b3f
00000330: 742b 2abe 13f6 d4be 7143 573e c3f6 173e
00000340: 1eb5 0f3e 66d4 fd3c b811 f3be 7497 773f
00000350: 9e87 c93d 283c dbbe f801 743f 4aea a33e
00000360: 2f95 b33e d6ab a23d da00 093f 8890 ab3d
00000370: ed65 513f 2f5b 0bbf aea0 803e 8095 5e3f
00000380: b05a 68be 4b63 94be 74d7 913e f35c 6a3f
00000390: 7b3a 0d3e 9139 963d c678 8fbd 8e7f 063e
000003a0: 5bd0 3b3e 92a7 acbd 6680 b2be a293 0c3f
000003b0: b714 143d dfa4 99bd d174 8f3e fc46 a83d
000003c0: 34ba 2a3f 5b76 84bd 416c 88be 580f ffbe
000003d0: 8996 24be f1df 163e d6b3 463e 3a95 02be
000003e0: 5dba 473d c503 20be 03fc 88bd d28d 7abd
000003f0: 21e8 113f 6fcb d6bd fcf3 dc3e c739 8e3d

model.4.bias f4 [25]
-0.087970614 -0.32766053 0.33421302 0.14179277 -0.0073906616 -0.09802258 -0.009988313 -0.106865555
0.06652882 -0.07832921 0.09361899 -0.08342757 0.065707415 -0.18712738 0.09683099 0.087774314
-0.052402597 -0.23077007 0.27590427 -0.011134616 0.014422057 -0.09653335 0.07929641 -0.0734127
-0.21882994
00000000: f029 b4bd 1fc3 a7be f81d ab3e 2032 113e
00000010: 5d2d f2bb 10c0 c8bd 05a6 23bc 54dc dabd
00000020: 4340 883d 116b a0bd 50bb bf3d 13dc aabd
00000030: 9c91 863d 529e 3fbe 534f c63d 05c3 b33d
00000040: 1ba4 56bd fd4e 6cbe 5343 8d3e f76d 36bc
00000050: 7e4a 6c3c 47b3 c5bd 2866 a23d 6659 96bd
00000060: f514 60be
