models/empowerment_2_steps/TwoRoom-v0_source_distr.pth (torch_old, 48647 bytes, 6 tensors)

model.0.weight f4 [32, 311]
0	0x3e50d4c4	0.20393664
1	0x3e38a801	0.18032838
2	0xbda661b6	-0.08124106
3	0xbdc77c51	-0.09740508
4	0x3e0bda72	0.13657549
5	0xbdb34280	-0.08752918
6	0x3dcade75	0.099057116
7	0x3ef7dac8	0.48409104
8	0xbda46320	-0.08026719
9	0x3d2669c8	0.040628225
10	0xbd906646	-0.07050757
11	0xbe0f5e69	-0.14000858
12	0xbd996bdc	-0.07491276
13	0x3dcabf1f	0.09899735
14	0x3da43f88	0.0801993
15	0x3d86094d	0.06544743
16	0x3ed821b0	0.42213202
17	0xbe4b6718	-0.19863546
18	0xbdaaa813	-0.08332839
19	0xbe45c821	-0.19314624
20	0xbe09c709	-0.13454832
21	0xbe1021d6	-0.14075407
22	0xbe11ac3b	-0.14225857
23	0xbe15c2cc	-0.1462509
24	0xbe0f01c0	-0.13965511
25	0xbe3ce6d2	-0.18447426
26	0xbe1cb9d9	-0.1530527
27	0xbe121876	-0.14267144
28	0xbe0151ee	-0.1262891
29	0xbdedfcb6	-0.116204664
30	0x3d690952	0.056893654
31	0xbe0b6aa9	-0.13614906
32	0xbdf367f3	-0.11885061
33	0xbda0a3da	-0.07843752
34	0xbe102c8d	-0.14079495
35	0x3d266ad5	0.040629227
36	0x3e94bb0c	0.29048955
37	0xbda2f918	-0.07957667
38	0x3e5b6644	0.2142573
39	0xbdf040ef	-0.11731135
40	0xbd90095f	-0.070330374
41	0x3e53d6ba	0.2068738
42	0xbdfc7f68	-0.12328988
43	0x3d298ec9	0.041395936
44	0xbdbba0b2	-0.091615096
45	0xbdf8e223	-0.12152507
46	0x3e8060b8	0.2507379
47	0x3e3efbe1	0.18650772
48	0xbddb748e	-0.107155904
49	0x3e6a22a5	0.22864778
50	0x3e8bb144	0.2728368
51	0xbe1b68a0	-0.1517663
52	0xbdf2ca13	-0.11854949
53	0x3cf35913	0.02970556
54	0x3d931e0a	0.07183464
55	0xbe357d24	-0.17723519
56	0x3e077dc6	0.13231573
57	0xbda044f9	-0.078256555
58	0x3e5a0635	0.2129143
59	0xbdff0753	-0.12452569
60	0xbdb6aadd	-0.08919308
61	0x3e7f32df	0.2492175
62	0xbd9fd7ab	-0.07804807
63	0x3d5e217a	0.054231144
64	0xbe397a11	-0.18112971
65	0x3e4a2efe	0.19744489
66	0x3cf71ffc	0.030166619
67	0x3db7cde7	0.0897482
68	0xbe137c1c	-0.14402813
69	0x3def1fef	0.11676013
70	0x3d92e8b6	0.07173292
71	0x3e0f4079	0.13989438
72	0x3dbf58e6	0.09343128
73	0xbdaf430d	-0.08557711
74	0x3e75a595	0.23988946
75	0x3e9580fc	0.2919997
76	0xbe0c7815	-0.13717683
77	0x3e45a279	0.1930026
78	0xbdfe2348	-0.12409073
79	0xbe48a6b6	-0.19594845
80	0xbdae000b	-0.08496102
81	0xbdb23fce	-0.08703576
82	0xbdc336ba	-0.09531923
83	0xbe20700f	-0.15667747
84	0x3e08064f	0.13283657
85	0xbe4c959f	-0.19978951
86	0xbe015e31	-0.12633587
87	0x3c913c43	0.01772893
88	0xbd903db9	-0.07043023
89	0xbda67e42	-0.081295505
90	0x3ee94363	0.45559224
91	0x3c2a493b	0.010393436
92	0x3ec4f4a9	0.3846791
93	0xbdfb8d60	-0.122828245
94	0x3de05291	0.10953248
95	0x3e64008c	0.22265834
96	0xbe0808a5	-0.13284548
97	0x3de4c937	0.11171191
98	0x3e48a25c	0.19593185
99	0xbdc3e382	-0.09564878
100	0xbdb9308b	-0.09042462
101	0x3e1b8743	0.15188317
102	0xbe352b4d	-0.17692299
103	0x3d42a840	0.047523737
104	0x3e3df65d	0.18551011
105	0xbdb8245e	-0.089913115
106	0xbde8ae87	-0.113614134
107	0xbd4866f5	-0.048926312
108	0xbe1e338d	-0.15449353
109	0x3f164df9	0.58712727
110	0xbe4aa902	-0.19791034
111	0x3e5b42f8	0.21412265
112	0xbd9589f0	-0.073017
113	0xbe04f48a	-0.12983909
114	0xbda7717c	-0.08175942
115	0x3dbc5a9e	0.09196971
116	0xbe0ce487	-0.13759051
117	0x3e6acaf9	0.2292899
118	0x3e8b0182	0.27149588
119	0xbe4d10c9	-0.20025934
120	0xbdac79fb	-0.084217034
121	0x3e20a241	0.15686895
122	0x3df83dc3	0.12121155
123	0xbe361c6c	-0.1778428
124	0x3e132b03	0.14371876
125	0xbdef9a23	-0.11699321
126	0x3e4af636	0.19820485
127	0xbe49e4f2	-0.19716242
128	0xbe342f82	-0.17596248
129	0xbe12f19d	-0.1434998
130	0xbdae55a6	-0.0851243
131	0x3eaac460	0.33352947
132	0xbdea78be	-0.11448811
133	0xbdf29c92	-0.1184627
134	0xbda062a2	-0.07831313
135	0xbdbdbd63	-0.09264638
136	0x3d5fbccf	0.05462342
137	0xbe2739a7	-0.16330586
138	0xbdf2905c	-0.118439406
139	0xbdec17b9	-0.11527962
140	0x3e45d054	0.19317752
141	0xbdf234e9	-0.11826498
142	0x3dfd0693	0.123547696
143	0xbdf07554	-0.117411286
144	0x3c4b06ec	0.012391787
145	0xbe09be71	-0.13451554
146	0xbcbd3859	-0.023098158
147	0xbd10fbb2	-0.035396285
148	0x3e650a32	0.2236717
149	0xbdebc1c2	-0.11511566
150	0xbdb1daa8	-0.086842835
151	0xbdc117dd	-0.0942838
152	0xbdb120f8	-0.086488664
153	0xbe2748e7	-0.16336404
154	0x3ea7cf6e	0.32775444
155	0xbe0e3a0e	-0.13889334
156	0xbd3c5353	-0.0459779
157	0x3e5a1b7a	0.21299544
158	0x3ecb7a2d	0.3974165
159	0x3d807a42	0.06273319
160	0x3dd008da	0.10157938
161	0xbe4f9288	-0.20270741
162	0xbe0155c6	-0.12630376
163	0xbe37b833	-0.1794136
164	0xbe48082f	-0.19534372
165	0x3e5a3b65	0.2131172
166	0xbdc07021	-0.09396387
167	0x3d251638	0.040304393
168	0xbdb1dc2c	-0.086845726
169	0xbddaecc4	-0.10689691
170	0xbd96adc1	-0.0735736
171	0x3e071a58	0.13193643
172	0x3cf5fb79	0.030027138
173	0xba389d67	-0.0007042498
174	0xbcb5708a	-0.02214839
175	0xbd8bbe94	-0.06823459
176	0x3e05debd	0.13073249
177	0x3e42be1f	0.19017838
178	0x3d6ccd29	0.057812843
179	0x3e72384e	0.23654291
180	0xbe108c23	-0.14115958
181	0xbe19cae8	-0.15018809
182	0x3d936f86	0.07199006
183	0xbe080d03	-0.13286214
184	0x3e554d1b	0.20830195
185	0x3e15fbad	0.14646788
186	0x3e9005e0	0.28129482
187	0xbd065974	-0.032800153
188	0xbe21f4e1	-0.1581607
189	0xbd9eba23	-0.077503465
190	0x3d1574c1	0.0364883
191	0xbdefc6c9	-0.11707837
192	0xbde57214	-0.11203399
193	0x3dcd7bc2	0.100333706
194	0xbe50bed6	-0.20385298
195	0x3e40f11f	0.1884198
196	0x3e3daf4b	0.185239
197	0x3cf11d9b	0.029433062
198	0xbe0f4875	-0.13992484
199	0xbe4aa619	-0.19789924
200	0xbe02cc70	-0.12773299
201	0xbe0059a5	-0.12534197
202	0x3d5d98f7	0.054100957
203	0x3e3803fd	0.17970271
204	0xbd9e96a8	-0.07743579
205	0xbd9bcc11	-0.07607282
206	0xbdeb20d0	-0.11480868
207	0xbe17c157	-0.14819847
208	0x3df4d180	0.119540215
209	0xbddb4df8	-0.10708231
210	0xbde6bf0d	-0.11266909
211	0x3d2078b0	0.039177597
212	0xbdc7c00f	-0.09753429
213	0x3eb866d0	0.3601594
214	0x3d7a577a	0.06111858
215	0xbdcfcd00	-0.101465225
216	0xbdcc60df	-0.09979414
217	0xbe39ec6e	-0.18156597
218	0x3e43b327	0.1911131
219	0x3de92bd8	0.11385316
220	0xbe4dc1ca	-0.20093456
221	0x3d3e98ef	0.046532568
222	0xbdee565b	-0.11637565
223	0x3e46038b	0.19337289
224	0xbe0b5b28	-0.13608992
225	0x3e4344be	0.19069192
226	0xbe4d4a65	-0.2004791
227	0xbe129d67	-0.14317857
228	0x3d5f6649	0.054540906
229	0x3d8e419d	0.069461085
230	0x3e0717df	0.131927
231	0xbda01ffc	-0.078186005
232	0xbe35164b	-0.17684285
233	0x3e149fe8	0.14514124
234	0xbe4b3457	-0.19844185
235	0xbd998773	-0.07496538
236	0x3e327963	0.17429118
237	0xbdcbe2e3	-0.099553846
238	0x3d54960a	0.0519009
239	0x3e262870	0.16226363
240	0x3e6eb242	0.23310187
241	0x3bf8495b	0.007577104
242	0x3e02db99	0.12779082
243	0xbe18b798	-0.14913785
244	0x3e4d1bf7	0.20030199
245	0xbdac7f59	-0.08422727
246	0x3dfdd804	0.12394717
247	0x3e67efa4	0.2265001
248	0x3ce4e1b2	0.027939651
249	0xbe0c9666	-0.13729247
250	0x3db0aa1b	0.08626195
251	0xbe0b9650	-0.13631558
252	0x3e2dcd94	0.16972953
253	0x3e0aaf0b	0.13543336
254	0xbdc14a7f	-0.09438037
255	0x3e2e896e	0.17044613

model.0.bias f4 [32]
0	0x3d3fa89a	0.04679165
1	0xbde5eb5e	-0.11226533
2	0xbdcf5b6d	-0.1012486
3	0xbcc0ac2a	-0.023519594
4	0x3e1f7f7e	0.15575978
5	0xbd4820a7	-0.048859265
6	0x3c2d336e	0.010571344
7	0xbd5dd9f6	-0.054162942
8	0x3d21740a	0.039417304
9	0xbe05dc5c	-0.13072342
10	0x3dec39bb	0.11534449
11	0x3d60f717	0.054923143
12	0x3daea914	0.08528343
13	0xbc922133	-0.017838096
14	0xbd9cfd8d	-0.076655485
15	0x3e29c8cb	0.16580503
16	0xbe624cdb	-0.2209963
17	0x3dc1b0c9	0.09457547
18	0x3ca67171	0.020317765
19	0xbd0474f1	-0.032338087
20	0xbde65cc3	-0.11248162
21	0xbe4a0a63	-0.19730525
22	0x3de8bc16	0.113639995
23	0xbc918aa0	-0.017766297
24	0x3df1f6f6	0.11814682
25	0xbdc88381	-0.097907074
26	0x3d8017f6	0.0625457
27	0xbcb3fbc9	-0.021970646
28	0xbe14b94e	-0.14523813
29	0xbe8ee309	-0.2790759
30	0x3d935be9	0.07195265
31	0x3dcdadbf	0.10042905

model.2.weight f4 [32, 32]
0	0xbd902eca	-0.07040174
1	0xbe4435e3	-0.19161181
2	0x3ded83b1	0.11597384
3	0x3db01321	0.085973985
4	0xbe29bb1b	-0.16575281
5	0xba7d8dd6	-0.0009672319
6	0xbddcdca8	-0.10784274
7	0x3dc32444	0.095284015
8	0x3c0c968a	0.008580813
9	0xbcee5309	-0.029092329
10	0x3d6a41b3	0.057191562
11	0xbe233b25	-0.1594053
12	0x3dd93a86	0.106068656
13	0xbd91425f	-0.070927374
14	0x3cbd6291	0.02311829
15	0x3dcc4d0c	0.09975633
16	0xbdda8ccf	-0.10671388
17	0xbe3bd5af	-0.18343233
18	0xbdd6d2cb	-0.10489424
19	0xbe0cd924	-0.13754708
20	0x3d88e534	0.06684342
21	0xbe13c28b	-0.14429681
22	0xbd87672c	-0.06611475
23	0xbe5fc6a0	-0.21853113
24	0x3c79907e	0.0152322035
25	0x3da35791	0.07975686
26	0xbc613c25	-0.01374725
27	0x3d70fa57	0.058832493
28	0x3cc8452b	0.024447044
29	0xbe35145d	-0.17683549
30	0xbdfc6625	-0.1232417
31	0xbdc757ff	-0.09733581
32	0xbefcbf8f	-0.49364898
33	0xbea65481	-0.32486346
34	0x3f1061c8	0.563992
35	0xbf1a5268	-0.6028199
36	0x3e84537f	0.25844952
37	0xbeab5f18	-0.33470988
38	0xbe834665	-0.25639644
39	0x3eff9be9	0.49923638
40	0x3d26e0b6	0.040741645
41	0xbe00be4c	-0.12572592
42	0x3e3965f8	0.18105304
43	0xbd4b72c0	-0.04966998
44	0xbd0925c6	-0.03348329
45	0x3da2d48b	0.079506956
46	0x3ee2309f	0.4417772
47	0xbf077322	-0.52910054
48	0x3ef5b08a	0.4798625
49	0x3d9f9506	0.07792096
50	0x3e059f67	0.13049088
51	0xbecbcc32	-0.39804226
52	0xbd20ace8	-0.039227396
53	0x3ed11358	0.4083507
54	0x3e60d940	0.21957874
55	0xbe8e250d	-0.27762643
56	0x3e28de8b	0.16491143
57	0x3da071d3	0.0783421
58	0x3d9bf6c3	0.076154254
59	0xbe9c3a6c	-0.30513322
60	0xbe0c014d	-0.13672371
61	0x3ec5b8fa	0.38617688
62	0xbf66a82c	-0.9010036
63	0xbd609708	-0.054831535
64	0xba950fe0	-0.0011372529
65	0x3ec8becf	0.39208075
66	0xbd94dd75	-0.07268802
67	0xbeba3a57	-0.36372635
68	0xbeede52e	-0.46463913
69	0xbed90027	-0.4238293
70	0x3ca28582	0.019839052
71	0x3dc45f94	0.095885426
72	0xbea28032	-0.3173843
73	0xbe334c40	-0.17509556
74	0x3eb9a0de	0.36255544
75	0x3c25469f	0.010087638
76	0x3da9602c	0.082702965
77	0x3e4644b4	0.19362146
78	0x3d8bc433	0.068245314
79	0xbeacf7b5	-0.33782735
80	0xbe49f856	-0.19723639
81	0x3e1cbcff	0.15306471
82	0xbe694557	-0.22780357
83	0x3e754b67	0.23954545
84	0x3df9210b	0.121645056
85	0xbf1fcbcc	-0.62420344
86	0xbaca1bf7	-0.0015419711
87	0x3e26fef6	0.16308197
88	0xbd12ed86	-0.03587105
89	0x3ca88dda	0.020575453
90	0xbe8c7ba2	-0.27438074
91	0x3e286f21	0.16448642
92	0xbeea358a	-0.45743972
93	0xbd40ddf6	-0.04708668
94	0x3d8ab829	0.06773407
95	0xbe33b0a6	-0.17547855
96	0x3dc2fa63	0.09520414
97	0xbe90c7a4	-0.28277314
98	0xbd71ac25	-0.05900206
99	0x3dd7a859	0.10530157
100	0x3e5f2a3b	0.21793453
101	0xbed5ff82	-0.417965
102	0x3ed5e4aa	0.4177602
103	0xbe0c2b28	-0.13688338
104	0xbf083277	-0.53202003
105	0x3dd98c86	0.10622506
106	0x3e13327f	0.14374731
107	0x3ec7b664	0.3900634
108	0xbe09ca82	-0.13456157
109	0xbdfee93a	-0.12446828
110	0xbedffeda	-0.43749124
111	0x3e227e9c	0.1586861
112	0xbd298772	-0.041388936
113	0x3e17628d	0.14783688
114	0x3e59604c	0.2122814
115	0xbb8eedaa	-0.004361828
116	0xbd27819c	-0.04089509
117	0x3ddca683	0.10773947
118	0xbe5f15fa	-0.21785727
119	0x3d9b71bb	0.07590052
120	0xbed6440c	-0.4184879
121	0x3eb09432	0.34488064
122	0xbebb6e8a	-0.36607772
123	0x3d25b0c8	0.040451795
124	0x3e5240a9	0.20532478
125	0x3e9b7a14	0.30366576
126	0xbceef604	-0.029170044
127	0x3e55e9e4	0.20890003
128	0xbde970e8	-0.11398488
129	0x3dd16a02	0.102252975
130	0x3b976c80	0.0046210885
131	0xbd99a7eb	-0.07502731
132	0xbda41360	-0.08011508
133	0x3d0aaaf6	0.033854447
134	0xbdd88905	-0.105730094
135	0xbe521215	-0.2051471
136	0xbc5dea80	-0.013544679
137	0x3d675aa1	0.056482915
138	0xbc6af894	-0.014341492
139	0xbdc44a7c	-0.09584519
140	0x3e161388	0.14655888
141	0xbe22cbe4	-0.1589809
142	0x3daab36a	0.08335002
143	0x3d4da294	0.050203875
144	0xbe1c2e29	-0.15251984
145	0xbe2f90d7	-0.17145096
146	0x3dd424fb	0.10358616
147	0xbe368e5b	-0.17827742
148	0x3db03533	0.08603897
149	0xbdc4a0ea	-0.096010044
150	0x3e061c86	0.13096818
151	0xbdfb6bcc	-0.1227642
152	0xbdae2884	-0.085038215
153	0xbe22b66b	-0.158899
154	0xbe301e67	-0.17199098
155	0xbe17ab74	-0.14811498
156	0xbe4d3a6b	-0.20041816
157	0x3e1a7677	0.15084253
158	0xbe178dff	-0.14800261
159	0x3d624e22	0.055250295
160	0x3e837b4e	0.25680012
161	0x3d9cb11a	0.07650967
162	0xbdf33a44	-0.11876348
163	0xbd90c82f	-0.07069432
164	0x3ea3a756	0.31963605
165	0x3e4f977a	0.20272627
166	0x3f06f72f	0.5272092
167	0x3e24c3ed	0.16090365
168	0x3e5e8eef	0.21734212
169	0xbe49121e	-0.19635817
170	0xbdbb4b7c	-0.09145257
171	0xbf01ef75	-0.5075601
172	0x3d824da1	0.06362463
173	0x3e7a2337	0.24427496
174	0x3e64a127	0.223271
175	0xbdca5281	-0.098790176
176	0xbe4177ce	-0.18893358
177	0xbedf543d	-0.43618956
178	0x3edfd68e	0.4371838
179	0xbe0f0990	-0.13968492
180	0x3eebbf04	0.4604417
181	0xbea9d970	-0.33173704
182	0x3f1379a1	0.57607466
183	0xbe62efc1	-0.22161771
184	0xbe166adc	-0.14689201
185	0x3eb01efd	0.34398642
186	0x3e895d97	0.26829216
187	0x3e0d0939	0.1377305
188	0xbb942fc7	-0.004522297
189	0xbf259feb	-0.6469714
190	0x3e293b83	0.16526608
191	0xbe9d94f3	-0.30777702
192	0xbe6d2741	-0.23159505
193	0x3de04646	0.109509036
194	0xbcb57e8f	-0.022155074
195	0xbf038964	-0.51381516
196	0xbd89760b	-0.06711968
197	0x3e70881b	0.2348942
198	0x3d720d45	0.059094686
199	0xbe42eda0	-0.19035959
200	0xbe1ef394	-0.15522605
201	0x3e223351	0.15839888
202	0xbf1a1b50	-0.60197926
203	0x3e0dc17a	0.13843337
204	0xbe8ef5c9	-0.27921894
205	0xbdfd0172	-0.12353791
206	0xbecaa277	-0.39577076
207	0x3cf06436	0.02934466
208	0x3d8f751e	0.0700476
209	0xbe2357ff	-0.15951537
210	0xbd82e000	-0.06390381
211	0xbd3f211a	-0.046662427
212	0xbe578f4d	-0.21050759
213	0xbee23d46	-0.44187373
214	0xbeb95f1c	-0.36205375
215	0x3e59a938	0.21255958
216	0x3ed60d5f	0.41807076
217	0xbbba8ff4	-0.00569343
218	0xbe926274	-0.2859074
219	0x3e06a592	0.13149098
220	0xbf338d7d	-0.7013777
221	0xbe84467f	-0.25835034
222	0xbdf82d83	-0.12118056
223	0xbe1fa046	-0.15588483
224	0xbdce7554	-0.10080972
225	0xbd0345c9	-0.032048974
226	0xbda699a5	-0.08134774
227	0x3dca5ad8	0.09880608
228	0x3e0451c5	0.12921818
229	0x3bed52ad	0.0072425217
230	0xbf14867b	-0.580177
231	0x3c50bdda	0.012740577
232	0x3e53afd3	0.2067254
233	0xbe614b9f	-0.22001503
234	0x3e6ac43b	0.22926418
235	0xbe57ccea	-0.21074262
236	0x3e2001cd	0.15625687
237	0xbd3f9336	-0.04677125
238	0xbeb8b649	-0.36076573
239	0x3e2e7a00	0.17038727
240	0xbec703ba	-0.3887003
241	0x3e627c6c	0.22117776
242	0x3db0ce8e	0.08633147
243	0xbe1eadf4	-0.15496045
244	0xbe202183	-0.15637784
245	0xbed8bdef	-0.42332408
246	0xbe479d61	-0.19493629
247	0x3cd5f9c9	0.026120083
248	0xbe8af029	-0.27136353
249	0xbea0a488	-0.31375527
250	0x3eadd4e0	0.33951473
251	0xbf234800	-0.6378174
252	0x3ec93016	0.392945
253	0xbf2edb5a	-0.68303454
254	0xbd4f544c	-0.0506175
255	0xbebf4fb6	-0.37365502

model.2.bias f4 [32]
0	0xbe07020b	-0.13184373
1	0xbdc54017	-0.09631365
2	0x3e7a60f7	0.24451052
3	0x3d7cc84a	0.061714448
4	0xbdc972d2	-0.09836353
5	0x3d59d811	0.053184573
6	0x3deec089	0.11657817
7	0x3ecabf98	0.395993
8	0xbe13217e	-0.14368245
9	0x3c438197	0.011932752
10	0x3d40604c	0.046966836
11	0xbe223b00	-0.15842819
12	0xbbe8d747	-0.007105741
13	0x3de9d2fa	0.11417194
14	0x3cd8ac20	0.026449263
15	0x3e7227e8	0.23648036
16	0x3e1fd64b	0.1560909
17	0x3d2a58e3	0.041588675
18	0x3e04f8bc	0.1298551
19	0x3e249e12	0.16075924
20	0xbdd3548f	-0.10318863
21	0xbd2f6430	-0.042820156
22	0x3c55c107	0.01304651
23	0xbe6a6590	-0.22890306
24	0x3d8c043a	0.06836744
25	0x3d261a62	0.040552504
26	0xbe420a4b	-0.18949239
27	0xbe2b937e	-0.16755483
28	0x3c4186e4	0.011811946
29	0x3d38610b	0.045014422
30	0xbdb84171	-0.08996857
31	0xbc5fe8c1	-0.013666333

model.4.weight f4 [25, 32]
0	0x3dda39a4	0.10655525
1	0x3ef8b703	0.48577127
2	0xbe7fb206	-0.24970254
3	0xbe5f9773	-0.21835117
4	0xbda8e6f9	-0.082471795
5	0xbe0d984e	-0.13827631
6	0x3ecfc069	0.40576485
7	0x3ef96e97	0.48717186
8	0x3e15d2ce	0.14631197
9	0xbeb8a478	-0.3606298
10	0xbedeb4ef	-0.43497416
11	0x3e98dc35	0.29855505
12	0xbd9919f7	-0.074756555
13	0x3f7d0885	0.98841125
14	0xbe30a830	-0.17251658
15	0x3f93925e	1.1529043
16	0x3e1f9065	0.15582426
17	0xbead3a47	-0.33833525
18	0x3ee69ad4	0.4504
19	0x3eb2f821	0.34954932
20	0xbe5b492f	-0.21414636
21	0x3f49a23f	0.7876319
22	0xbd9c7e73	-0.07641306
23	0xbd109204	-0.0352955
24	0xbf2a6367	-0.66557926
25	0xbcd86e96	-0.026419919
26	0xbe632b29	-0.22184433
27	0xbecccfb2	-0.4000221
28	0x3c345123	0.011005673
29	0x3c25912b	0.0101054115
30	0x3d5f4549	0.054509435
31	0x3eb7c376	0.35891312
32	0xbe08fdd7	-0.13378082
33	0xbf256f1a	-0.6462265
34	0xbe5075dc	-0.2035746
35	0xbe954b56	-0.2915904
36	0xbc208e3f	-0.009799539
37	0x3da507a1	0.08058096
38	0xbeeb34d0	-0.4593873
39	0xbefd89bd	-0.49519148
40	0x3ddffa7d	0.10936449
41	0x3dac63e9	0.08417494
42	0x3eb33512	0.35001427
43	0x3e3cf16a	0.18451467
44	0xbd826593	-0.0636703
45	0xbda27e63	-0.079342626
46	0xbf126ae9	-0.5719438
47	0xbecf0239	-0.40431383
48	0xbec22cd8	-0.37924838
49	0x3ee713c4	0.45132267
50	0xbcc4f41e	-0.024042185
51	0x3e8f3013	0.27966365
52	0xbf1a64f6	-0.60310304
53	0x3e5c8812	0.21536282
54	0x3d19d38e	0.03755527
55	0xbe9183dd	-0.28420916
56	0x3b4ae5e8	0.0030959789
57	0xbe5dc4cc	-0.21657103
58	0x3ee371e1	0.4442282
59	0xbcbdcba8	-0.0231684
60	0x3e7de7e9	0.24795498
61	0xbe2eadfb	-0.17058556
62	0x3e0c5f8d	0.13708325
63	0x3e029684	0.1275273
64	0xbcd91a24	-0.026501723
65	0x3e231d0c	0.15929049
66	0x3d04fd07	0.03246787
67	0xbe0e148b	-0.13875024
68	0x3d6c7498	0.05772838
69	0xbe82da32	-0.25557095
70	0xbe2b353f	-0.1671953
71	0x3ed1b27d	0.40956488
72	0x3e222ed9	0.15838183
73	0xbe3b805d	-0.18310685
74	0xbe3285a6	-0.17433795
75	0xbeb0a6ba	-0.34502202
76	0xbe2ea549	-0.17055239
77	0x3d3e4126	0.04644885
78	0xbeaacabe	-0.33357805
79	0xbdee95e8	-0.11649686
80	0xbe8f01a8	-0.2793095
81	0x3ea458a5	0.3209888
82	0xbe01f81d	-0.12692304
83	0x3e927830	0.2860732
84	0xbf1381fa	-0.57620203
85	0x3ee501b2	0.44727856
86	0x3d866d72	0.06563844
87	0xbea4a806	-0.32159442
88	0x3d9e4fda	0.07730074
89	0x3e154e87	0.14580737
90	0xbebe0265	-0.37111202
91	0x3ec6e105	0.3884355
92	0xbe75c230	-0.23999858
93	0x3f02b6f6	0.51060426
94	0xbd6956ad	-0.056967426
95	0xbd1f180b	-0.03884129
96	0xbe1ce700	-0.15322495
97	0x3e5ccb0a	0.21561828
98	0xbdbca3d0	-0.09210932
99	0xbebeff6d	-0.3730425
100	0x3df256f1	0.11832989
101	0x3ded648e	0.11591445
102	0x3e93ec09	0.28891018
103	0x3dda3b25	0.10655812
104	0x3d8001a7	0.06250315
105	0x3f03cab3	0.5148117
106	0x3d918012	0.071045056
107	0x3ceb68aa	0.028736431
108	0x3e73be2e	0.23803017
109	0x3debad39	0.11507649
110	0xbe37b431	-0.17939831
111	0x3ed42bcb	0.4143966
112	0xbe2dd424	-0.16975456
113	0x3eabc91d	0.33551875
114	0x3d26aaaa	0.0406901
115	0x3e97249f	0.29520127
116	0x3e8f3b57	0.2797496
117	0xbea9bb25	-0.33150592
118	0x3e45cbd2	0.19316033
119	0xbf200ee7	-0.6252274
120	0xbe773b3b	-0.24143688
121	0xbdbc68e3	-0.09199693
122	0x3e55d8d9	0.20883502
123	0x3e5d7eba	0.21630374
124	0xbe7e3573	-0.24825077
125	0xbe1c4383	-0.15260129
126	0x3d89d196	0.067294285
127	0xbe64d05d	-0.2234511
128	0xbcdbc9c4	-0.026829608
129	0x3e49b86c	0.19699258
130	0x3c5c5a71	0.013449297
131	0x3de13ba1	0.109977014
132	0x3dae2cb6	0.08504622
133	0x3e818ab7	0.25301144
134	0x3e7d94fb	0.24763863
135	0x3eef267f	0.46709058
136	0xbd10b3ed	-0.03532784
137	0x3e8d4d3c	0.27597988
138	0xbe8b6725	-0.2722713
139	0xbe500e38	-0.20317924
140	0xbec4ab0c	-0.38411748
141	0x3e8093af	0.25112674
142	0xbeb613e3	-0.35562047
143	0x3dd6fd74	0.10497561
144	0xbe109c7d	-0.14122196
145	0x3e0edb30	0.13950801
146	0xbd8ec7ff	-0.0697174
147	0x3e8ffb8b	0.281216
148	0x3dbe5e5c	0.09295341
149	0xbe25afd0	-0.16180348
150	0xbe0cadb6	-0.1373814
151	0x3e88968f	0.26677367
152	0xbe6f0b2c	-0.23344105
153	0xbdf28431	-0.1184162
154	0xbd098383	-0.033572685
155	0xbe8276b0	-0.25481176
156	0xbd5fb9c8	-0.054620534
157	0xbe3fea11	-0.18741633
158	0xbc7b8bc4	-0.015353147
159	0xbce7a5d9	-0.028277325
160	0xbc5630ad	-0.013073129
161	0x3e16ad38	0.14714515
162	0xbd1e1628	-0.03859535
163	0xbe5c3cde	-0.21507594
164	0x3d9e5c73	0.07732477
165	0xbaf5b11f	-0.0018744803
166	0x3d634648	0.055486947
167	0xbf21b012	-0.63159287
168	0xbe14bdbe	-0.14525506
169	0xbec61226	-0.3868572
170	0x3ebd8cb7	0.3702142
171	0x3dfb897d	0.12282083
172	0xbea733af	-0.3265662
173	0xbde055b0	-0.109538436
174	0xbd93678f	-0.071974866
175	0xbe3fa929	-0.18716873
176	0xbf29ed00	-0.6637726
177	0x3ebfd332	0.37465817
178	0xbd9558e7	-0.072923474
179	0x3eb4278d	0.35186425
180	0x3ea8fb69	0.3300431
181	0xbd906f1e	-0.07052444
182	0x3f20181c	0.6253679
183	0xbeea32ed	-0.45741978
184	0xbebdb3e0	-0.37051296
185	0x3ea81100	0.3282547
186	0xbe93cd6a	-0.28867656
187	0x3ebe4549	0.37162235
188	0xbd4b4809	-0.049629245
189	0xbe5360c3	-0.2064238
190	0x3ddcd81f	0.10783409
191	0x3efd8834	0.49517977
192	0xbe0ae44f	-0.13563655
193	0xbe8406de	-0.2578649
194	0x3e5cb183	0.2155209
195	0x3db41c98	0.08794516
196	0x3dbba901	0.09163094
197	0xbd7bff71	-0.061522905
198	0xbf0c3d74	-0.5478127
199	0x3f862297	1.0479306
200	0xbe159076	-0.14605889
201	0xbe9b8d8e	-0.30381435
202	0x3ef29d4c	0.47385633
203	0x3eadd2eb	0.3394998
204	0x3f4e4b1c	0.8058336
205	0xbf5cf20c	-0.86306834
206	0x3f626716	0.88438547
207	0xbe1ac306	-0.15113458
208	0x3e8cd531	0.27506402
209	0xbe7c926f	-0.24665235
210	0x3d2a11ca	0.04152087
211	0x3ea2ad95	0.31773058
212	0xbe7906cc	-0.24318999
213	0xbe15f7d3	-0.14645319
214	0x3c9666af	0.01835951
215	0xbebe4068	-0.37158513
216	0x3e7217ed	0.2364194
217	0xbeb2cd95	-0.34922472
218	0x3d2c3c3b	0.042049628
219	0xbe91089d	-0.28326884
220	0x3e7cbcc0	0.24681377
221	0xbe90d361	-0.2828627
222	0xbe433219	-0.1906208
223	0x3f228f1a	0.63499606
224	0xbdf7aa25	-0.12092999
225	0xbe389eec	-0.18029374
226	0xbdc95be9	-0.098319836
227	0x3eba9556	0.3644206
228	0xbda6951f	-0.08133911
229	0xbe01277f	-0.12612723
230	0x3d529574	0.05141206
231	0xbe618d88	-0.22026646
232	0xbdf6c456	-0.12049167
233	0xbec548ae	-0.38532013
234	0x3de8d0e3	0.11367967
235	0xbee7a755	-0.45244852
236	0xbe5dfecc	-0.21679229
237	0xbeaad326	-0.33364218
238	0xbe1d080d	-0.15335102
239	0x3e1dce9e	0.1541085
240	0x3e4e6a00	0.20157623
241	0xbddf4883	-0.109025024
242	0xbec442a2	-0.38332087
243	0xbdb1d5f8	-0.086833894
244	0xbde6e985	-0.11275009
245	0x3daadba0	0.083426714
246	0x3eaa184d	0.33221665
247	0x3ef4000d	0.4765629
248	0x3f23cb10	0.63981724
249	0xbc93febf	-0.018065808
250	0xbe14451e	-0.14479491
251	0xbe822112	-0.25415856
252	0xbe2886a6	-0.16457614
253	0x3efc1242	0.4923268
254	0xbccebedc	-0.025237493
255	0x3ac8d78b	0.0015323026

model.4.bias f4 [25]
0	0x3ebe2e58	0.37144732
1	0xbea1897b	-0.31550202
2	0x3de56839	0.112015195
3	0x3dd3dda1	0.10345007
4	0x3b0829c5	0.002077685
5	0xbf0a8201	-0.5410462
6	0x3e8eb0c8	0.27869248
7	0x3df4a04a	0.11944635
8	0x3e5b2532	0.21400908
9	0x3d2ac028	0.04168716
10	0x3ddc757f	0.10764598
11	0x3e4a9bde	0.19786021
12	0x3eb6fb05	0.35738388
13	0xbea49ce4	-0.32150948
14	0x3d61059c	0.05493699
15	0x3d3f6eb2	0.046736427
16	0x3e06d380	0.13166618
17	0xbeeda8cd	-0.46417847
18	0x3e774be8	0.2415005
19	0xbbb3d5e2	-0.0054881433
20	0x3dc342d0	0.09534228
21	0x3a52d2c7	0.00080422725
22	0xbcb62f6e	-0.022239413
23	0x3d3459d6	0.044030987
24	0xbeaa7957	-0.332957
