models/fgan/repro/2_steps/js/CrossRoom-v0_score.pth (torch_old, 26230 bytes, 5 tensors)

model.0.weight f4 [32, 161]
-0.26831725 -0.08070732 -0.10488043 -0.09816526 0.0529465 0.085837014 -0.21547322 -0.20824589
-0.046665765 -0.068189986 0.0731765 0.090382315 -0.118304126 -0.120140254 -0.0031951396 0.041247103
-0.3157521 -0.14712079 -0.104174174 -0.17852633 -0.30929413 -0.20339185 0.1397308 -0.011459248
-0.11106648 0.14367193 -0.091565214 0.05742493 -0.38272616 -0.32891172 -0.03198578 0.023929166
-0.03296071 0.18032375 -0.23560576 -0.16501227 0.025337992 -0.07719424 0.06044287 -0.017172532
0.10816497 0.08982226 -0.30488673 -0.22618458 0.18367742 0.06516981 0.24862403 -0.10640695
-0.020736208 0.045597352 0.18383808 0.27519083 -0.026171288 -0.037304405 -0.26156557 0.11531284
-0.17821929 0.20012544 -0.034131434 -0.026792858 0.24070692 0.13712697 0.19072492 0.27073562
0.018732132 0.06446177 0.15896499 0.11504609 0.25781086 0.10211862 0.25062034 -0.02298607
0.12870646 -0.15668729 0.052704908 0.08654568 0.27090716 -0.059718948 0.19475994 0.13242953
-0.008377754 0.036453437 0.12653285 -0.2007374 0.44834208 0.13697459 0.22220294 0.057634853
0.003267057 0.12182761 -0.0039249547 0.14513597 0.06244419 -0.033024173 -0.34856635 -0.15963453
-0.0492063 -0.2439755 0.1627692 0.05449134 -0.07269952 -0.15737483 0.23528244 0.06351189
-0.050065637 0.062706016 -0.13794827 0.002900038 -0.20134294 -0.44155118 -0.24904253 -0.08306544
0.060359973 -0.14690515 -0.33344764 0.13541813 0.044827174 -0.10776397 -0.2921619 -0.3616347
0.3111378 -0.08689977 0.18774414 -0.26689193 -0.040559724 0.044324923 0.18543603 -0.0933106
0.05134172 -0.2537587 0.03379869 -0.033623274 -0.08474439 -0.13921359 0.15691917 -0.23604243
-0.15595153 0.089622065 0.009773581 -0.22069472 -0.06678043 -0.13940248 0.09617394 0.32026348
-0.088920034 0.0036661704 -0.0041854824 0.29977027 0.12083737 -0.12581995 0.20105146 -0.45115045
-0.07508833 0.12604432 -0.2714073 -0.16880855 -0.06545688 0.024649322 0.18752995 -0.16708456
0.024769336 0.00607684 0.15670358 0.05150111 0.2209839 -0.027994908 -0.09711449 0.2904125
0.23167881 -0.048520748 0.04778695 0.050982147 -0.16194957 0.13914722 -0.051764347 0.21789278
-0.1562257 -0.028230125 -0.15343474 0.19109058 -0.07433736 -0.33734563 -0.21059035 0.22100657
-0.10146713 0.14645313 0.02594398 -0.2793145 0.22489738 0.14901641 -0.0047492394 -0.14114323
0.06406535 -0.17930554 0.16418262 0.08053472 -0.2520081 -0.4779476 -0.060522746 -0.08453239
-0.16528162 -0.31336272 -0.031818923 -0.04623292 -0.07819378 -0.01104479 -0.073920086 0.08995161
0.12881137 -0.25374958 0.14727364 -0.116237275 0.17010547 0.05216991 0.21418379 -0.0022980706
-0.20296721 0.057883073 -0.041010603 0.00077972794 -0.20777798 -0.21710017 0.068856515 0.049126413
-0.15311247 0.08053498 0.129477 0.02711975 0.034018226 -0.07735591 -0.2159555 0.29051176
0.10670355 -0.15729906 -0.17579953 0.20251298 -0.13268644 0.4064486 -0.33081958 0.2989941
-0.012287345 0.21175067 -0.25632146 0.057796404 -0.2260382 -0.367941 0.022780526 0.17406282
-0.237413 -0.4349774 0.014763419 -0.41316912 -0.12292919 0.012575476 -0.40071166 -0.14397827
00000000: e160 89be e149 a5bd 8dcb d6bd de0a c9bd
00000010: 6ede 583d 51cb af3d 03a5 5cbe 693e 55be
00000020: 9a24 3fbd 31a7 8bbd 90dd 953d 5d1a b93d
00000030: 6f49 f2bd 180c f6bd 8c65 51bb b9f2 283d
00000040: 42aa a1be d5a6 16be 4559 d5bd 9bcf 36be
00000050: cd5b 9ebe f445 50be 9715 0f3e 92bf 3bbc
00000060: d376 e3bd bc1e 133e 8b86 bbbd 6736 6b3d
00000070: aff4 c3be 1e67 a8be 8503 03bd 1907 c43c
00000080: cf01 07bd caa6 383e a342 71be faf8 28be
00000090: 9f91 cf3c 0418 9ebd f192 773d 69ad 8cbc
000000a0: 9985 dd3d bcf4 b73d 1d1a 9cbe ee9c 67be
000000b0: ef15 3c3e c077 853d 4c97 7e3e e3eb d9bd
000000c0: fbde a9bc 4ac4 3a3d 0d40 3c3e d0e5 8c3e
000000d0: 2b65 d6bc 81cc 18bd eceb 85be 2329 ec3d
000000e0: 1e7f 36be afed 4c3e 67cd 0bbd b27c dbbc
000000f0: e07b 763e 036b 0c3e 654d 433e dc9d 8a3e
00000100: 2174 993c 8804 843d b8c7 223e 499d eb3d
00000110: c9ff 833e 9123 d13d 4f51 803e 484d bcbc
00000120: a0cb 033e a272 20be 1ae1 573d dd3e b13d
00000130: 58b4 8a3e db9b 74bd 266f 473e 9b9b 073e
00000140: d942 09bc 3350 153d d491 013e 1b8e 4dbe
00000150: 188d e53e 1143 0c3e 2b89 633e 8612 6c3d
00000160: 1f1c 563b c180 f93d e89c 80bb 869e 143e
00000170: 7bc5 7f3d 5b44 07bd 4a77 b2be 3c77 23be
00000180: 8c8c 49bd b7d4 79be f8ac 263e 5032 5f3d
00000190: 7ce3 94bd de26 21be e1ed 703e 8612 823d
000001a0: a011 4dbd 036c 803d 5042 0dbe 900e 3e3b
000001b0: d82c 4ebe ff12 e2be 0105 7fbe 371e aabd
000001c0: 053c 773d 4e6e 16be a6b9 aabe 0dab 0a3e
000001d0: b39c 373d 5bb3 dcbd 3f96 95be 2f28 b9be
000001e0: 744d 9f3e 82f8 b1bd 0040 403e 0fa6 88be
000001f0: f421 26bd 0d8e 353d f1e2 3d3e a119 bfbd
00000200: b24b 523d a9ec 81be 7f70 0a3d 8fb8 09bd
00000210: 778e adbd 028e 0ebe 6baf 203e 1bb5 71be
00000220: c2b1 1fbe c68b b73d 5f21 203c ccfd 61be
00000230: 2ec4 88bd 86bf 0ebe d8f6 c43d 93f9 a33e
00000240: b51b b6bd 2244 703b 5f26 89bb 7d7b 993e
00000250: 9579 f73d f2d6 00be 6fe0 4d3e 31fd e6be
00000260: e9c7 99bd c311 013e e6f5 8abe 26dc 2cbe
00000270: 420e 86bd 60ed c93c da07 403e 3718 2bbe
00000280: 10e9 ca3c 3b20 c73b e776 203e d4f2 523d
00000290: 9a49 623e 9455 e5bc f6e3 c6bd f2b0 943e
000002a0: 363d 6d3e b1bd 46bd 40bc 433d a8d2 503d
000002b0: 1cd6 25be 9c7c 0e3e da06 54bd 491f 5f3e
000002c0: a1f9 1fbe dd42 e7bc ff1d 1dbe 40ad 433e
000002d0: 303e 98bd 91b8 acbe ffa4 57be 8c4f 623e
000002e0: 00ce cfbd cff7 153e 7888 d43c 4f02 8fbe
000002f0: 804b 663e c297 183e 829f 9bbb da87 10be
00000300: b234 833d df9b 37be 7d1f 283e 63ef a43d
00000310: 3507 81be 8cb5 f4be b3e6 77bd 511f adbd
00000320: 963f 29be 1471 a0be 8f54 02bd bb5e 3dbd
00000330: 0f24 a0bd 35f5 34bc 6a63 97bd 8d38 b83d
00000340: 21e7 033e 77eb 81be e7ce 163e cf0d eebd
00000350: 2130 2e3e 1eb0 553d ff52 5b3e 3a9b 16bb
00000360: a3d6 4fbe cd16 6d3d bcfa 27bd a866 4c3a
00000370: c0c3 54be 824f 5ebe a504 8d3d c738 493d
00000380: 84c9 1cbe 86ef a43d 9e95 043e 3d2a de3c
00000390: b256 0b3d c66c 9ebd 7023 5dbe f5bd 943e
000003a0: 6487 da3d 0113 21be cb04 34be 905f 4f3e
000003b0: f4de 07be 081a d03e 2f61 a9be c115 993e
000003c0: dc50 49bc 2bd5 583e 913c 83be ecbb 6c3d
000003d0: 8f76 67be c362 bcbe 3a9e ba3c 863d 323e
000003e0: 651c 73be 5cb5 debe 44e2 713c e78a d3be
000003f0: 4dc2 fbbd 5f09 4e3c 142a cdbe 0a6f 13be

model.0.bias f4 [32]
-0.038843036 -0.0041052327 -0.08130216 -0.008823326 -0.0145617705 0.052858323 0.06807464 0.027104987
-0.14897262 -0.10302715 0.066787645 0.033825707 -0.010638195 -0.02506315 -0.09918541 0.0490113
0.0655338 0.07092425 -0.03883536 -0.040188827 -0.017582593 -0.06012006 0.055032205 -0.053231906
-0.042349376 -0.070331 -0.013436782 0.06723747 0.15745802 -0.087821245 -0.11914976 -0.0052564736
00000000: e019 1fbd 3085 86bb bf81 a6bd b68f 10bc
00000010: 7e94 6ebc f881 583d b86a 8b3d 470b de3c
00000020: 478c 18be e6ff d2bd f6c7 883d d38c 0a3d
00000030: d34b 2ebc 3c51 cdbc b821 cbbd 13c0 483d
00000040: 9636 863d bc40 913d d411 1fbd 0a9d 24bd
00000050: 5f09 90bc 7440 76bd 7369 613d b309 5abd
00000060: 8a76 2dbd b309 90bd f325 5cbc ccb3 893d
00000070: ad3c 213e a0db b3bd ca04 f4bd 7f3e acbb

model.2.weight f4 [32, 32]
-0.5210836 0.2857926 -0.57914746 0.49648488 -0.38719657 0.12835275 0.39290696 0.3906465
-0.48212355 -0.51277417 0.48329827 0.5348739 0.41377234 0.26939633 0.49750105 0.41894773
0.2174226 0.35370106 0.30398682 -0.22992016 0.1920345 -0.72246766 0.42267033 -0.7201388
0.28984198 -0.6556618 -0.90786386 -0.3237771 0.056767706 0.42415467 -1.5662634 -0.29718044
-0.07279351 -0.15164436 -0.035245277 0.08151685 0.04496408 -0.14691183 -0.153731 0.11743269
0.0076772124 0.071449496 0.08750316 -0.0426867 0.11382516 0.08275176 -0.16594724 0.022402821
-0.034800608 -0.103433125 -0.15950261 0.010094087 -0.13670446 0.14895858 -0.013218981 0.08458361
-0.14173925 0.065940954 -0.17255211 0.03956388 -0.0653248 0.13147423 0.14829074 0.0049226116
-0.54757774 0.39515716 -0.56252265 0.44989705 -0.4908104 0.40817273 0.35470933 0.45664087
-0.64549434 -0.61609405 0.36363673 0.43327123 0.42675826 0.24700935 0.2705633 0.41649115
0.27025825 0.39421642 0.22349103 -0.34173286 0.18072106 -0.67569584 0.44333345 -0.6410179
0.4683663 -0.6008005 -0.5811468 -0.36027142 -0.003646162 0.3527602 -1.537025 -0.5174346
0.4988311 -0.4075536 0.36061287 -0.33964273 0.07703752 -0.08879308 -0.3611914 -0.3412418
0.4421718 0.59880424 -0.29618156 -0.44936335 -0.14793298 -0.3227844 -0.503602 -0.16101629
-0.17246638 -0.56063765 -0.5332191 0.32570758 -0.56766236 0.595403 0.27610177 0.7127479
-0.3856942 0.3597542 0.7901938 0.39357042 0.027807806 -0.62383294 1.6103758 0.43197528
0.83230466 -0.69241536 0.8906659 -0.48841575 0.6378133 -0.33428994 -0.32983544 -0.7065153
0.8082627 1.0050396 -0.71018386 -0.5355944 -0.4824214 -0.514463 -0.64229375 -0.5244336
-0.31969684 -0.49568352 -0.55693746 0.46944287 -0.3748807 0.9957572 -0.45074695 1.1511952
-0.5576863 0.8808233 1.3417394 0.5154536 -0.29930836 -0.609041 1.8280725 0.68990016
0.34224907 -0.6663449 0.54991937 -0.4524744 0.20992784 -0.33652216 -0.366329 -0.6007169
0.56645215 0.6368907 -0.50045335 -0.50864947 -0.5159596 -0.472045 -0.38551876 -0.2956698
-0.3597594 -0.43595526 -0.4345446 0.5044704 -0.13337418 0.80058396 -0.43358356 0.5761302
-0.21672764 0.6592818 0.93606937 0.45944586 -0.09006453 -0.5583521 1.6553833 0.547539
-0.36336213 0.49805856 -0.40671703 0.22583684 -0.51466036 0.2854269 0.31350014 0.56217605
-0.45884693 -0.5241198 0.5414296 0.45903784 0.23146355 0.3906098 0.4280318 0.4732001
0.3435995 0.47783723 0.43591788 -0.24829942 0.45204777 -0.4492066 0.19526024 -0.6577547
0.45074564 -0.48987183 -0.8346883 -0.26528794 0.1496857 0.42816332 -1.4817624 -0.4544317
-0.54698825 0.36407247 -0.56213295 0.46428275 -0.45689404 0.27347884 0.19208543 0.52451026
-0.67257065 -0.5774235 0.52693427 0.38557237 0.49228847 0.4048567 0.4116062 0.31848198
0.21900293 0.25729176 0.40945095 -0.2699113 0.23536664 -0.62510043 0.21461488 -0.660622
0.36876526 -0.40816844 -0.778328 -0.3318395 0.19361739 0.4043741 -1.4510869 -0.4335004
00000000: bc65 05bf 6853 923e 0243 14bf 4433 fe3e
00000010: a13e c6be e76e 033e 1a2b c93e d102 c83e
00000020: e6d8 f6be 2b45 03bf df72 f73e 7fed 083f
00000030: f8d9 d33e 51ee 893e 75b8 fe3e 5180 d63e
00000040: 08a4 5e3e 4e18 b53e 29a4 9b3e 3170 6bbe
00000050: b1a4 443e a4f3 38bf 3f68 d83e 045b 38bf
00000060: 2b66 943e 74d9 27bf c469 68bf 1dc6 a5be
00000070: 4185 683d cd2a d93e 527b c8bf 0928 98be
00000080: c414 95bd a948 1bbe 5a5d 10bd 4ef2 a63d
00000090: 412c 383d 0e70 16be a96b 1dbe 8d80 f03d
000000a0: 2091 fb3b 1d54 923d db34 b33d 40d8 2ebd
000000b0: 2a1d e93d c179 a93d 13ee 29be 1f86 b73c
000000c0: 158b 0ebd bfd4 d3bd a754 23be ab61 253c
000000d0: 41fc 0bbe 9988 183e 6d94 58bc 2c3a ad3d
000000e0: 1824 11be 0d0c 873d 80b1 30be bc0d 223d
000000f0: 02c9 85bd 2ea1 063e 87d9 173e dc4d a13b
00000100: 0e2e 0cbf 0a52 ca3e 7c01 10bf e858 e63e
00000110: 804b fbbe 04fc d03e 769c b53e d5cc e93e
00000120: 1e3f 25bf 57b8 1dbf 982e ba3e bad5 dd3e
00000130: 0f80 da3e 05f0 7c3e 4687 8a3e 543e d53e
00000140: 4a5f 8a3e bcd6 c93e d5da 643e 9cf7 aebe
00000150: f10e 393e 67fa 2cbf 9afc e23e c019 24bf
00000160: b5cd ef3e 10ce 19bf 09c6 14bf 7f75 b8be
00000170: 73f4 6ebb fc9c b43e 3cbd c4bf 9876 04bf
00000180: ca66 ff3e deaa d0be 40a2 b83e a7e5 adbe
00000190: d9c5 9d3d 25d9 b5bd 14ee b8be 3fb7 aebe
000001a0: 5864 e23e 3c4b 193f 1ca5 97be f412 e6be
000001b0: be7b 17be ff43 a5be 10ec 00bf 74e1 24be
000001c0: 079b 30be f385 0fbf 0c81 08bf 25c3 a63e
000001d0: 5252 11bf 556c 183f 365d 8d3e a576 363f
000001e0: b679 c5be b431 b83e 244a 4a3f 1082 c93e
000001f0: 32cd e33c 84b3 1fbf cb20 ce3f dd2b dd3e
00000200: eb11 553f 2242 31bf ae02 643f a111 fabe
00000210: bc47 233f 0d28 abbe 31e0 a8be 30de 34bf
00000220: 4eea 4e3f 23a5 803f 9cce 35bf b71c 09bf
00000230: f0ff f6be d9b3 03bf 5d6d 24bf 4841 06bf
00000240: 4eaf a3be 3bca fdbe 7493 0ebf d15a f03e
00000250: 5df0 bfbe f2e9 7e3f 4ec8 e6be 5d5a 933f
00000260: 88c4 0ebf a37d 613f 1ebe ab3f c4f4 033f
00000270: f23e 99be 1cea 1bbf 48fe e93f 4c9d 303f
00000280: 453b af3e 9495 2abf 84c7 0c3f b9aa e7be
00000290: 53f7 563e a24c acbe 7a8f bbbe 95c8 19bf
000002a0: 0203 113f 450b 233f b61d 00bf da36 02bf
000002b0: ee15 04bf e2af f1be b762 c5be 0862 97be
000002c0: 6232 b8be 8735 dfbe a17c debe f924 013f
000002d0: 3e93 08be 12f3 4c3f aafe ddbe 457d 133f
000002e0: daed 5dbe b1c6 283f 3ea2 6f3f 7d3c eb3e
000002f0: c173 b8bd 2af0 0ebf 9ae3 d33f 842b 0c3f
00000300: 9a0a babe 8801 ff3e 373d d0be c641 673e
00000310: c8c0 03bf 7a23 923e 1783 a03e c5ea 0f3f
00000320: fced eabe b72c 06bf 219b 0a3f 0207 eb3e
00000330: c804 6d3e 02fe c73e fc26 db3e 4947 f23e
00000340: 46ec af3e 15a7 f43e a130 df3e 3442 7ebe
00000350: ce72 e73e 68fe e5be 4df2 473e 9d62 28bf
00000360: 22c8 e63e 7bd0 fabe 22ae 55bf d2d3 87be
00000370: 3547 193e 3938 db3e 64aa bdbf 46ab e8be
00000380: 6c07 0cbf b567 ba3e f2e7 0fbf 78b6 ed3e
00000390: 04ee e9be 6b05 8c3e 0bb2 443e 4e46 063f
000003a0: 972d 2cbf 07d2 13bf 2ae5 063f be69 c53e
000003b0: 3c0d fc3e 6149 cf3e 0cbe d23e 1210 a33e
000003c0: 4e42 603e bfbb 833e 8ea3 d13e d031 8abe
000003d0: f403 713e 9506 20bf 01c4 5b3e 861e 29bf
000003e0: cdce bc3e 74fb d0be 8140 47bf dee6 a9be
000003f0: a343 463e 1f0a cf3e 37bd b9bf c4f3 ddbe

model.2.bias f4 [32]
0.07123918 -0.19431502 0.07696807 0.07597381 0.35161108 0.27357852 0.0062639313 0.06476032
0.39306307 0.058568463 0.061727308 0.038940582 -0.10561089 0.28029275 0.14056186 0.3736778
0.024240036 0.051497217 -0.14655708 0.20744799 0.08712406 0.08764981 0.38293073 -0.16870075
-0.17519292 0.38196462 0.42395946 0.034270518 0.40703037 0.09301444 0.40456948 0.036082163
00000000: d9e5 913d 84fa 46be 6fa1 9d3d 2898 9b3d
00000010: 5e06 b43e 7c12 8c3e aa41 cd3b 0fa1 843d
00000020: 903f c93e 7ce5 6f3d c6d5 7c3d 2980 1f3d
00000030: 864a d8bd 8882 8f3e 73ef 0f3e b252 bf3e
00000040: 0a93 c63c bfee 523d 0f13 16be 3f6d 543e
00000050: 196e b23d be81 b33d 7f0f c43e e4bf 2cbe
00000060: c665 33be de90 c33e 3711 d93e 3e5f 0c3d
00000070: 4966 d03e 5b7e be3d bb23 cf3e e4ca 133d

model.4.weight f4 [1, 32]
0.5505416 -0.003981751 0.6629266 -1.5395147 -6.2185564 -0.63811225 0.63507694 0.6895196
-5.988671 0.56321836 0.667423 0.6583714 -0.00844365 -3.7309544 -0.9062865 -6.2972794
0.6181185 0.6651634 0.107776046 -0.8477545 0.58642185 0.6077421 -5.9474616 -0.011558831
-0.060555823 -6.222547 -0.57778674 0.6837529 -0.65449625 -0.79237497 -6.425043 0.5906205
00000000: 4bf0 0c3f 5979 82bb 8fb5 293f d10e c5bf
00000010: 6afe c6c0 535b 23bf 6794 223f 5b84 303f
00000020: 31a3 bfc0 142f 103f 3cdc 2a3f 078b 283f
00000030: 3c57 0abc f5c7 6ec0 6402 68bf 5083 c9c0
00000040: 043d 1e3f 2648 2a3f b0b9 dc3d 7006 59bf
00000050: be1f 163f fc94 1b3f 9b51 bec0 4061 3dbc
00000060: 6209 78bd 1b1f c7c0 d5e9 13bf 6e0a 2f3f
00000070: 118d 27bf 16d9 4abf f499 cdc0 e832 173f
